results/Test2/BossAi/BossAi-85472.onnx (onnx, 79397 bytes, 9 tensors)

discrete_act_size_vector f4 [1, 2]
0	0x40400000	3.0
1	0x40000000	2.0

network_body._body_endoder.seq_layers.0.weight f4 [128, 6]
0	0xbe20cb81	-0.1570263
1	0x3f471e45	0.7778056
2	0xbdedf01c	-0.11618063
3	0x3e4ecdd2	0.20195702
4	0x3ee64719	0.44976118
5	0x3eabba57	0.33540604
6	0xbf1f3ab3	-0.6219894
7	0xbef24add	-0.4732274
8	0xbee840c7	-0.4536192
9	0xbd6d1893	-0.057884764
10	0x3ec40cd3	0.38291034
11	0xbe7f064f	-0.2490475
12	0x3d0e67f8	0.03476712
13	0x3dc197b5	0.09452764
14	0x3d5c2c93	0.053753447
15	0xbf14d955	-0.5814412
16	0xbef8e2a7	-0.48610422
17	0x3eb8eac5	0.36116615
18	0xbed2a9bb	-0.4114512
19	0x3d9364a2	0.071969286
20	0x3d145c45	0.036220808
21	0xbe959425	-0.29214588
22	0xbbbad82e	-0.00570204
23	0xbecefacd	-0.4042572
24	0xbf119b59	-0.56877667
25	0x3e0f8d61	0.14018776
26	0x3d8ad4d3	0.06778874
27	0xbed37d5e	-0.41306585
28	0xbe92301a	-0.28552324
29	0xbddae24c	-0.10687694
30	0xbf1f17c0	-0.62145615
31	0x3edc218f	0.42994353
32	0xbee23f4a	-0.4418891
33	0x3f1eb865	0.62000114
34	0xbd371aaa	-0.044703163
35	0x3ec9fbb7	0.39449856
36	0x3e8a101b	0.26965412
37	0x3f367df0	0.71285915
38	0xbdbf7799	-0.09348983
39	0x3efd8b14	0.4952017
40	0xbe77722f	-0.24164651
41	0x3f30c190	0.6904535
42	0xbf4be1a6	-0.7964119
43	0xbf51b352	-0.81914246
44	0x3e386d77	0.18010508
45	0x3dca020b	0.09863671
46	0x3edba722	0.4290095
47	0xbf2d179a	-0.6761414
48	0x3e1c8009	0.15283217
49	0x3e8f4113	0.27979335
50	0xbe81097d	-0.2520255
51	0x3e0764a0	0.13221979
52	0xbf4045e0	-0.7510662
53	0x3de1cb2b	0.11025079
54	0x3f103d52	0.5634357
55	0xbd1cb842	-0.03826166
56	0xbe86f797	-0.2636077
57	0x3e4b4f1c	0.19854397
58	0x3d881a88	0.066456854
59	0xbece7391	-0.40322545
60	0xbdd846f8	-0.10560411
61	0xbe04d723	-0.12972693
62	0x3e760193	0.24024038
63	0xbe2f62b7	-0.171275
64	0xbe6e45e9	-0.23268856
65	0x3ee8c54d	0.4546303
66	0x3ef78551	0.483439
67	0xbd4c32f5	-0.049853284
68	0x3d632896	0.055458628
69	0xbd710350	-0.05884105
70	0xbd8cec6c	-0.068810314
71	0xbde045e4	-0.109508306
72	0xbe43ffd2	-0.19140556
73	0x3e6f16f5	0.23348601
74	0x3edf95e8	0.43669057
75	0xbf4fcb1e	-0.8116931
76	0x3f68c545	0.9092601
77	0x3eb9140b	0.36148104
78	0x3f38ad3d	0.7213934
79	0x3e8a26ff	0.26982877
80	0x3d9650c4	0.073396236
81	0xbefd8214	-0.49513304
82	0x3e5121f4	0.20423108
83	0x3f262cfa	0.6491238
84	0x3e36035e	0.17774722
85	0xbeef13ec	-0.46694887
86	0xbeeb3016	-0.45935124
87	0xbf028962	-0.5099088
88	0xbef08cfe	-0.46982569
89	0x3d7096a1	0.0587374
90	0x3e77c7d4	0.24197322
91	0x3ebdad54	0.370463
92	0xbe857fa7	-0.26073954
93	0x3e983394	0.2972685
94	0x3f421406	0.75811803
95	0x3f1a856c	0.60359836
96	0x3f0c6392	0.5483943
97	0x3ef370ba	0.4754694
98	0x3dc455a0	0.09586644
99	0xbeee8fa7	-0.46593973
100	0xbf48ac08	-0.783875
101	0xbea683e0	-0.32522488
102	0xbf1aa342	-0.6040536
103	0x3e85153d	0.25992766
104	0x3db622a9	0.0889333
105	0xbcd93696	-0.026515286
106	0xbe08b77f	-0.13351248
107	0x3ea5af1d	0.32360163
108	0x3e3f1171	0.18658997
109	0xbe402cf8	-0.18767154
110	0xbe6b2a95	-0.22965463
111	0x3e6f3b5f	0.23362492
112	0xbec698f8	-0.3878858
113	0xbe3783c0	-0.17921352
114	0x3d259a16	0.04043015
115	0xbb7e781b	-0.0038828913
116	0x3a976080	0.0011549145
117	0xbf1f87f0	-0.623168
118	0xbf15153a	-0.58235514
119	0xbec322af	-0.381124
120	0xbc920c24	-0.017828055
121	0x3f51a90d	0.81898576
122	0x3e6261d8	0.22107637
123	0x3e9be3d9	0.3044727
124	0xbf302ad1	-0.6881533
125	0xbeea0c2a	-0.45712405
126	0xbec6f8d9	-0.3886173
127	0x3e0783d1	0.13233878
128	0x3e193d23	0.14964728
129	0xbf071cb9	-0.527782
130	0x3eafcade	0.34334463
131	0xbd236576	-0.039891683
132	0x3da34bcd	0.07973442
133	0x3efd97cd	0.49529877
134	0x3ebc00ab	0.3671926
135	0x3e64f598	0.22359312
136	0x3f082f58	0.5319724
137	0xbe081c32	-0.13292006
138	0xbe544597	-0.20729671
139	0xbf348ed6	-0.7053045
140	0xbe9cee14	-0.3065039
141	0xbddda50d	-0.108224966
142	0x3ea9987e	0.33124155
143	0x3dd59ae6	0.10429935
144	0xbe25dfa0	-0.16198587
145	0x3e67fb8b	0.2265455
146	0x3e401ffa	0.18762198
147	0x3cf4eb7d	0.029897446
148	0x3e1339d2	0.14377525
149	0x3ed805a7	0.42191812
150	0x3e09f0cf	0.13470767
151	0x3c6f3997	0.014601133
152	0xbec4de09	-0.3845065
153	0xbe665d84	-0.22496611
154	0xbe47d359	-0.19514216
155	0xbe6a91e5	-0.22907217
156	0xbe0c7201	-0.13715364
157	0xbd31832d	-0.04333799
158	0xbe8b666c	-0.2722658
159	0x3ea9fb21	0.3319941
160	0xbe951e9f	-0.29124925
161	0xbead1e9a	-0.3381241
162	0xbe884094	-0.2661177
163	0xbc955671	-0.018229695
164	0x3e99c511	0.30033162
165	0x3e2ef8ae	0.17087051
166	0x3d979372	0.0740117
167	0xbeb4fb1f	-0.3534784
168	0x3d04ccef	0.032422002
169	0xbd0aa3c9	-0.033847604
170	0x3f2877b3	0.65807647
171	0x3e8f79c7	0.28022596
172	0x3f08c4fc	0.53425574
173	0xbe25e2ba	-0.1619977
174	0xbe10112f	-0.14069055
175	0xbedd1a04	-0.4318391
176	0xbed65c33	-0.41867217
177	0xbe193551	-0.14961745
178	0xbd8ed03f	-0.069733135
179	0xbd0a7a50	-0.033808053
180	0xbf13c243	-0.57718295
181	0x3e827a03	0.25483713
182	0xbf12549c	-0.57160354
183	0xbd81daa4	-0.063405305
184	0x3e660ac3	0.22465043
185	0xbf68102a	-0.90649664
186	0x3e84d9ef	0.2594752
187	0x3db97f0f	0.09057438
188	0xbf2e072c	-0.67979693
189	0xbe0beeb3	-0.13665275
190	0xbd819b81	-0.06328488
191	0xbe25cf36	-0.16192326
192	0xbe93f26c	-0.2889589
193	0xbf21f95f	-0.63271135
194	0x3ea59696	0.3234145
195	0xbf4432a3	-0.76639766
196	0xbe68b030	-0.2272346
197	0xbeed7123	-0.4637538
198	0xbe68ebe3	-0.22746234
199	0x3e350d77	0.17680918
200	0x3e905235	0.2818772
201	0xbd573806	-0.052543662
202	0xbf2ca96d	-0.67446023
203	0x3eab13bc	0.33413494
204	0xbf10d868	-0.5658021
205	0x3ea8c765	0.32964626
206	0xbe15746e	-0.14595196
207	0x3e73dec4	0.23815447
208	0x3f00859f	0.5020389
209	0xbd69b7dc	-0.057060108
210	0xbe5532ca	-0.20820156
211	0xbb684895	-0.0035443653
212	0x3ef6fec6	0.48241252
213	0x3d6b0ba3	0.057384145
214	0xbf613ae5	-0.8798049
215	0x3f1be094	0.60889554
216	0xbd045735	-0.03230973
217	0xbd9295a8	-0.07157451
218	0x3e479cce	0.1949341
219	0x3e70872d	0.23489065
220	0x3e402638	0.1876458
221	0x3e18e30a	0.14930359
222	0xbf1dabe1	-0.6159039
223	0xbf22e584	-0.63631463
224	0xbf3468f8	-0.7047267
225	0x3e8a7acd	0.27046815
226	0x3d9bb3ea	0.07602675
227	0x3f111c5c	0.566839
228	0xbf17a358	-0.5923362
229	0xbe5aa073	-0.21350269
230	0x3df2bf0e	0.11852847
231	0xbe292223	-0.16516928
232	0xbf364615	-0.71200687
233	0xbdd713ae	-0.105018005
234	0x3e12d971	0.1434076
235	0xbdf5a2c0	-0.11993933
236	0x3e9198d3	0.28436908
237	0xbe0c58cd	-0.1370575
238	0x3ef138ef	0.4711375
239	0x3b876fd2	0.004133203
240	0x3ebda63c	0.3704089
241	0x3d52a195	0.051423628
242	0x3e8ce81c	0.27520835
243	0x3ec85af9	0.39131907
244	0x3d9191e5	0.07107905
245	0xbe46a09c	-0.19397205
246	0x3d8b7cc3	0.06810906
247	0xbebe99d0	-0.37226725
248	0x3f21217c	0.6294172
249	0xbe4d2f66	-0.20037612
250	0xbe4f34e3	-0.20235018
251	0xbe0ea9b7	-0.13931929
252	0x3f5d0538	0.8633609
253	0x3e646489	0.22303976
254	0x3d83ff5b	0.064451896
255	0x3ecc6db9	0.39927462

network_body._body_endoder.seq_layers.0.bias f4 [128]
0	0x3d195b6d	0.037440706
1	0xbbd67901	-0.0065451865
2	0xbc48df54	-0.012260277
3	0x3d3a9c6b	0.045559328
4	0x3c0fc917	0.008775971
5	0x3c1131cb	0.008861969
6	0x3cae003f	0.021240352
7	0xbb16d4cd	-0.0023015023
8	0x3c4040fe	0.011734245
9	0x3c2e2344	0.010628525
10	0xba5bcfc1	-0.0008385145
11	0x3aaac453	0.001302848
12	0x3ba1ddae	0.0049397564
13	0xbaefb271	-0.0018287433
14	0xb9172f5d	-0.00014418126
15	0x3ce9e3e2	0.028551046
16	0xbb2c705a	-0.0026312084
17	0xbb916d2c	-0.004438063
18	0xbbdbca35	-0.0067074546
19	0x3ca53317	0.020165963
20	0x3ce6974d	0.028148318
21	0xbafb1e77	-0.001915886
22	0xbc00d17c	-0.007862445
23	0x3d2d5250	0.042314827
24	0x3bd85553	0.0066019683
25	0x3bc81e45	0.006107124
26	0x3d0e3f83	0.03472854
27	0x3b9d01e1	0.0047914837
28	0xbc8aea91	-0.016957553
29	0x3d189799	0.03725395
30	0x3d27c8fb	0.040963154
31	0xbc1e1a1d	-0.009649781
32	0xbb486a26	-0.0030580848
33	0xb9786277	-0.00023687804
34	0x3c0d8c01	0.008639337
35	0x3c7fd75f	0.015615313
36	0x3b9ead38	0.0048424266
37	0xba820584	-0.0009919857
38	0x3d6129b3	0.054971408
39	0x3ca393fd	0.019968027
40	0x3c585530	0.013203904
41	0xbbfe9abd	-0.007769911
42	0xba459292	-0.00075367943
43	0xbc04c31f	-0.008103161
44	0xbc97c3e2	-0.018526021
45	0x3c27d39e	0.010243325
46	0xbc885480	-0.016641855
47	0x3bdf0b2c	0.0068067517
48	0x3c585b35	0.013205339
49	0x3c78a849	0.015176841
50	0x3cf2a131	0.029617878
51	0x3c3e556e	0.011617048
52	0xbb7bdde0	-0.0038431808
53	0x3c139285	0.009007101
54	0x3c137539	0.009000116
55	0x3bd23314	0.0064147804
56	0x3cf8b2f1	0.030358763
57	0x3d68754b	0.056752484
58	0xba6f52f7	-0.0009129489
59	0x3cf6a577	0.030108197
60	0x3c706e94	0.014674801
61	0xbc42400d	-0.011856091
62	0x3c88296f	0.01662132
63	0x3baefeee	0.0053404486
64	0xbc792e15	-0.015208741
65	0x3cff71da	0.031182218
66	0x3c748685	0.01492465
67	0x3bbc036b	0.005737712
68	0x3c96cda2	0.0184086
69	0xbc61596e	-0.013754232
70	0x3a286b6e	0.00064246997
71	0xbc4f830d	-0.012665522
72	0x3c0ccf49	0.0085943425
73	0xbb8f9aeb	-0.0043824813
74	0xbca9924c	-0.020699643
75	0xb934a618	-0.00017228012
76	0xbbbd83ac	-0.005783519
77	0x3b83d945	0.0040237033
78	0x3c9a054a	0.01880135
79	0x3c322f24	0.010875497
80	0x3d45a414	0.04825218
81	0x3b826ff0	0.003980629
82	0x3c041c5f	0.008063405
83	0x3c883566	0.016627025
84	0x3c78a272	0.015175449
85	0xbb289954	-0.0025726156
86	0x3c3f15c9	0.011662909
87	0xbaed421d	-0.0018101368
88	0xbc811219	-0.0157557
89	0x3ba73df4	0.005103821
90	0x3c66af07	0.014079816
91	0xbbba6828	-0.005688686
92	0x39ac32e7	0.00032844322
93	0xbcdc31d1	-0.026879223
94	0x3d5559c5	0.052087564
95	0xbcb79339	-0.022409068
96	0x3c328386	0.010895615
97	0xbbdfcc70	-0.006829791
98	0x3c6af18c	0.014339816
99	0xbbf06abc	-0.0073369425
100	0xbbdf85a6	-0.006821352
101	0xbc8ed98d	-0.01743772
102	0xbcb134ae	-0.021631565
103	0xbc31a0c5	-0.010841553
104	0x3c81082b	0.015750965
105	0xbc2de14b	-0.010612796
106	0x3d0097dc	0.031394824
107	0x3cb95e4c	0.022627972
108	0x3b9de8fe	0.0048190346
109	0x3c53b77c	0.012922164
110	0x3cac476e	0.021030154
111	0x3cccb723	0.02498967
112	0x3c0927ab	0.008371274
113	0x3c946b9b	0.018117717
114	0xbc998e3c	-0.01874458
115	0x3b8f9ea1	0.0043829237
116	0x3c59a48d	0.013283861
117	0x3c7088a8	0.014681019
118	0x3d2171ae	0.039415054
119	0x3c61ce4e	0.013782097
120	0x3b4a8d97	0.0030907148
121	0xbcaa2858	-0.02077119
122	0x3d14544f	0.036213215
123	0x3bc722bf	0.00607714
124	0xbb9a2f77	-0.0047053653
125	0x3aa61522	0.0012671093
126	0x3c15228c	0.009102475
127	0x3cda2c4a	0.026632447

network_body._body_endoder.seq_layers.2.weight f4 [128, 128]
0	0x3d873089	0.06601054
1	0x3e002f49	0.12518038
2	0x3d0a1aaa	0.033716835
3	0xbdb463ee	-0.088081226
4	0x3d29c0ba	0.041443564
5	0xbe012345	-0.1261111
6	0x3d2a5ed5	0.041594345
7	0x3d37fd4d	0.0449193
8	0xbb2d5a41	-0.00264515
9	0x3d9d53f9	0.07682032
10	0x3d898db2	0.06716479
11	0xbe1ed961	-0.15512611
12	0x39849bab	0.00025292984
13	0xbd8de7b1	-0.06928957
14	0x3ae5a27e	0.001751974
15	0x3c9587c8	0.018253222
16	0xbd573e2b	-0.052549522
17	0xbd2abbf2	-0.041683145
18	0xbd81637f	-0.063178055
19	0xbe208357	-0.15675102
20	0xbc9f57d2	-0.019451056
21	0x3dd8a7fb	0.10578915
22	0xbb51aa0d	-0.0031992227
23	0xbdc4fb2e	-0.09618221
24	0xbd69172d	-0.056906868
25	0xbd7e9442	-0.06215311
26	0x3c04823a	0.008087689
27	0xbcab3b66	-0.020902347
28	0xbd89e7b9	-0.06733651
29	0x3e88a57d	0.26688758
30	0xbdc8245e	-0.097725615
31	0xbe2a2d18	-0.16618764
32	0x3aa6b362	0.0012718255
33	0x3d05bb9b	0.032649618
34	0x3d3d0127	0.046143677
35	0xbd6cba98	-0.057795137
36	0x3e229430	0.15876842
37	0xb9d42bc1	-0.0004046839
38	0x3d503289	0.050829444
39	0xbddd5714	-0.108076245
40	0x3cb9c7fe	0.022678372
41	0x3dea3d9b	0.114375316
42	0x3c04cb16	0.00810506
43	0xbcf54d62	-0.029944126
44	0xbdf51856	-0.11967532
45	0xbe0b91f1	-0.13629891
46	0xbde8676c	-0.11347851
47	0xbc260db5	-0.010135104
48	0x3d12dbab	0.035854023
49	0x3d940bab	0.07228788
50	0x3a9e9d87	0.001210139
51	0xbdd55a81	-0.10417653
52	0x3dccb505	0.09995464
53	0x3d0efce7	0.034909155
54	0xbd9e9fb3	-0.07745304
55	0xbde847a2	-0.11341788
56	0x3cb2d6a0	0.021830857
57	0x3d971c5f	0.07378458
58	0x3d1efedd	0.038817275
59	0x3cdb45f6	0.026766758
60	0x3d1104ba	0.0354049
61	0xbd38d067	-0.045120623
62	0x3ac4e954	0.001502315
63	0xbd00986c	-0.03139536
64	0x3d950841	0.07276965
65	0x3dec995a	0.11552687
66	0x3e0bd7e4	0.13656574
67	0x3db24993	0.087054394
68	0x3e06c4d4	0.13161021
69	0x3db79504	0.08963969
70	0x3c57b5ed	0.013165933
71	0x3dc1eb82	0.09468748
72	0xbd51f5f7	-0.05125996
73	0xbe4a8d20	-0.19780397
74	0x3d69b870	0.05706066
75	0xbdea5812	-0.11442579
76	0xbced2a45	-0.02895082
77	0x3dc324af	0.09528481
78	0x3d545292	0.051836558
79	0x3dbbbc95	0.091668285
80	0xbd47ee6d	-0.048811365
81	0x3c9fb29b	0.019494345
82	0xbe1720da	-0.14758626
83	0x3d296e01	0.041364674
84	0x3db61383	0.0889044
85	0xbd8b6f78	-0.0680837
86	0xbdfbd82c	-0.12297091
87	0xbcf759a6	-0.030194115
88	0x3d7f5a43	0.06234194
89	0x3d907bf9	0.07054896
90	0xbd833c9b	-0.06408044
91	0xbd837ac7	-0.06419902
92	0xbd393b67	-0.045222666
93	0x3e2688fb	0.16263191
94	0xbd36b67d	-0.044607628
95	0xbe1dea78	-0.15421474
96	0x3df5722b	0.119846664
97	0x3e118b0e	0.14213201
98	0xbdd18787	-0.10230928
99	0xbe09a019	-0.13439979
100	0xbd34de75	-0.044157464
101	0xbbc262dc	-0.005932195
102	0xbe1671e0	-0.14691877
103	0x3e2e5d9b	0.17027895
104	0x3d404f46	0.0469506
105	0xbb9f98e3	-0.0048705204
106	0xbd9803c5	-0.07422594
107	0xbdf91f30	-0.12164152
108	0x3d4ed4cc	0.050495908
109	0xbd751735	-0.059836585
110	0xbd9691c5	-0.07352022
111	0xbd2aaf88	-0.041671306
112	0xbd8dcb5a	-0.06923552
113	0x3e2cad35	0.16862948
114	0xbddbb907	-0.107286505
115	0xbe2beb79	-0.16789044
116	0x3daba00c	0.08380136
117	0xbdeac769	-0.11463816
118	0x3da8146e	0.08207022
119	0xbc414b7e	-0.011797784
120	0x3e1df7b8	0.15426528
121	0xbca645a8	-0.020296887
122	0x3d71ec82	0.059063442
123	0x3d67e90a	0.056618728
124	0x3dab49f7	0.08363717
125	0x3be2a96e	0.0069171702
126	0x3d266f39	0.040633414
127	0xbe10d1b1	-0.14142491
128	0x3cd76b58	0.026296303
129	0x3cf8db4a	0.030378003
130	0x3d17066d	0.036871362
131	0xbcacc807	-0.021091474
132	0x3cb778bd	0.02239644
133	0xbc87a454	-0.01655785
134	0xbe257375	-0.16157325
135	0x3d7f9239	0.06239531
136	0xbc818e3d	-0.015814895
137	0x3dcd5e3a	0.10027738
138	0x3d7658b1	0.060143176
139	0xbd38eab9	-0.045145724
140	0x3d8c0785	0.06837372
141	0x3db5b3cf	0.088721864
142	0x3e058202	0.13037875
143	0x3d55d40e	0.052204184
144	0x3d39daaf	0.04537457
145	0x3dbbb776	0.09165852
146	0xbdf7cea7	-0.12099963
147	0xbc62ab98	-0.013834856
148	0xbd627d6d	-0.055295397
149	0x3e099ab0	0.13437915
150	0x3caee829	0.021350937
151	0xbe22b307	-0.15888606
152	0x3c1c0e35	0.009524872
153	0x3da9eef9	0.082975335
154	0x3ddc9abc	0.10771701
155	0xbc1f8978	-0.009737365
156	0xbd846eec	-0.06466469
157	0xbd9e2dca	-0.07723577
158	0x3d8b72e8	0.06809026
159	0x3d8d4939	0.06898732
160	0xbd5cc986	-0.053903125
161	0xbe229c61	-0.15879966
162	0xbdd59f94	-0.10430828
163	0x3d96f438	0.073708
164	0x3b4c3964	0.0031162137
165	0xbe24fe91	-0.16112734
166	0x3c9d067d	0.019168133
167	0xbd20de52	-0.03927452
168	0x3d3909ab	0.045175236
169	0xbe00ceb3	-0.1257885
170	0xbdeb86bd	-0.11500309
171	0xbd77d45a	-0.06050525
172	0xbde8e293	-0.113713406
173	0x3e0466d9	0.12929858
174	0x3d5a03b3	0.053226184
175	0xbcb1309b	-0.021629622
176	0xbd00f12a	-0.031479992
177	0x3d73c834	0.0595171
178	0xbd8166c3	-0.06318428
179	0x3d592349	0.053012166
180	0xbd063e8d	-0.032774497
181	0x3e449f1f	0.19201325
182	0xbd70fd44	-0.058835283
183	0xbcab4983	-0.020909077
184	0xbdd4ed04	-0.1039677
185	0x3e3ac3b7	0.18238722
186	0xbc6ffadb	-0.014647211
187	0xbe0d4b1a	-0.1379818
188	0x3c803097	0.01564817
189	0x3dd6e2d6	0.10492484
190	0x3ceece4a	0.0291511
191	0x3d2b3521	0.041798715
192	0x3e20ce26	0.1570364
193	0x3df173ea	0.11789687
194	0x3d81cfef	0.06338488
195	0xbd6a94a9	-0.05727068
196	0x3e15519b	0.14581911
197	0xbe23baca	-0.15989223
198	0x3dae490e	0.08510028
199	0xbcf02f55	-0.029319445
200	0x3d617e37	0.05505201
201	0xbd7aa410	-0.06119162
202	0x3d9fc520	0.078012705
203	0x3cea6844	0.02861417
204	0xbad5b4e2	-0.0016304518
205	0xbd14f9bc	-0.036370978
206	0xbc3c87ec	-0.011507016
207	0x3e5ad5ff	0.21370696
208	0x3dbfa975	0.09358493
209	0x3e03fe67	0.12890016
210	0xbe62e949	-0.22159304
211	0x3e3c0b3e	0.18363664
212	0x3dfd166c	0.12357792
213	0xbda7b923	-0.08189609
214	0x3e1382eb	0.1440541
215	0x3df6e96f	0.12056243
216	0x3c06bdb5	0.008223941
217	0xbc308f7b	-0.010776396
218	0xbdf232aa	-0.1182607
219	0xbddb0014	-0.10693374
220	0xbb6dbfe2	-0.00362777
221	0xbe1b683e	-0.15176484
222	0x3c2e1287	0.010624534
223	0xbd82186d	-0.06352315
224	0xbdc252da	-0.09488459
225	0x3e62f365	0.2216316
226	0xbd99a2f8	-0.07501787
227	0x3e3640aa	0.17798105
228	0xbd1c5b98	-0.038173288
229	0x3d698fe3	0.057021987
230	0xbe696fa8	-0.227965
231	0x3dc70c48	0.09719139
232	0xbd1d3a23	-0.03838552
233	0x3d227f3f	0.039672133
234	0x3d502c64	0.050823584
235	0x3c2b2b0b	0.010447274
236	0x3e00c012	0.12573269
237	0x3cdba31a	0.026811171
238	0xbb456733	-0.0030121326
239	0x3cbecdb1	0.02329144
240	0xbddd5e77	-0.10809033
241	0x3e11e709	0.14248289
242	0xbc5118f8	-0.012762301
243	0x3d364e7f	0.044508453
244	0x3d2e4214	0.042543486
245	0xbcf2e861	-0.029651823
246	0xbd58d5eb	-0.052938383
247	0xbd2057db	-0.039146286
248	0xbe44f62a	-0.19234529
249	0x3dfd155c	0.123575896
250	0x3d334589	0.043767486
251	0xbd4f9504	-0.05067922
252	0x3de8a9b9	0.11360497
253	0x3c878ac5	0.016545663
254	0xbc0f4d6f	-0.008746489
255	0xbd98b3ec	-0.074561924

network_body._body_endoder.seq_layers.2.bias f4 [128]
0	0x3bfe8bd9	0.007768136
1	0x3b2574e7	0.0025246681
2	0x3c9f8669	0.019473271
3	0x3a117048	0.0005548042
4	0xbb5753ee	-0.0032856422
5	0x3bdde389	0.006771509
6	0xbbe7350e	-0.007055885
7	0x3cabab7b	0.020955792
8	0xbc9846ba	-0.018588413
9	0x3caf7963	0.021420186
10	0xbbd5c86a	-0.0065241354
11	0xbbfdc8c3	-0.00774488
12	0x3b8c2c53	0.004277745
13	0xbc24e960	-0.010065407
14	0xbbcf5e82	-0.006328405
15	0x3c2864e8	0.010277964
16	0xbc265022	-0.010150941
17	0x3cb9c1cd	0.02267542
18	0x3c96e004	0.018417366
19	0xbc66f34e	-0.014096094
20	0x3beef25f	0.0072920765
21	0x3c3024e4	0.010750983
22	0xbc7e3822	-0.015516313
23	0x3bf61bc6	0.007510635
24	0x3be7e7c1	0.0070771878
25	0x3ccc75d5	0.02495853
26	0x3c74f7d8	0.014951669
27	0x3d0c547c	0.034260258
28	0x3ad01d79	0.0015877924
29	0xbc4ae6b7	-0.012384108
30	0x3bf9852e	0.007614753
31	0xb88830ae	-6.494053e-05
32	0xbc1b4fa1	-0.009479434
33	0x3cd07df2	0.02545068
34	0xbb5e9898	-0.0033965465
35	0xbae43edd	-0.0017413754
36	0xbc90b068	-0.017662242
37	0xbb517b37	-0.003196431
38	0xbc4a7620	-0.012357265
39	0xba0f5ed6	-0.0005469149
40	0x3c81d0a1	0.015846552
41	0x3cabad31	0.020956608
42	0x3b2424e7	0.002504641
43	0x3cadc4ce	0.021212008
44	0xbb69eba6	-0.0035693436
45	0x3c5301d5	0.012878855
46	0xbbb3ae59	-0.0054834303
47	0x3bfae1f1	0.007656329
48	0xbba44895	-0.0050135353
49	0xbc42ec1f	-0.011897116
50	0xbaee1570	-0.0018164348
51	0xbc0797d8	-0.008275948
52	0x3c7bebec	0.015376072
53	0x3c748eb9	0.014926606
54	0x3d3e6f25	0.046492714
55	0xbc8ddf9b	-0.017318537
56	0x3cc98ae9	0.02460237
57	0x3c8cdff9	0.017196642
58	0x3c55707a	0.013027305
59	0x3cc5a3b0	0.024125904
60	0x3c05cf41	0.008167089
61	0xbbce7032	-0.006299996
62	0xbc92586b	-0.017864427
63	0xb8876f1e	-6.457999e-05
64	0xbb7c4647	-0.0038494037
65	0xb85ad720	-5.21756e-05
66	0xbb274369	-0.0025522357
67	0xbc967086	-0.018364202
68	0x3c147e31	0.0090632895
69	0x3bfdcdfd	0.007745503
70	0x3bb6d619	0.0055797216
71	0x3c750050	0.014953688
72	0x3d11de78	0.035612553
73	0x3ca42c87	0.020040764
74	0x3cd46e01	0.02593136
75	0xbbde1785	-0.006777706
76	0x3c70dbec	0.014700871
77	0x3c6b8118	0.01437404
78	0xbc13f930	-0.009031579
79	0xb9b2c6f8	-0.0003409905
80	0xbc09e579	-0.008416527
81	0xbb4696cf	-0.0030302291
82	0x3c85844b	0.016298434
83	0xbc31d985	-0.010855083
84	0x3c8d4def	0.017249076
85	0x3ad520e6	0.0016260415
86	0x3c0348b8	0.008012943
87	0x3b81512d	0.0039464445
88	0x3c516699	0.012780809
89	0xbc0482ce	-0.008087827
90	0x38b92208	8.827826e-05
91	0x3ae1a714	0.0017215931
92	0xbbd4c193	-0.0064928024
93	0x3c8ed5ed	0.017435992
94	0xbbdca237	-0.0067332047
95	0x3cb5c227	0.022187306
96	0xba6417ca	-0.00087010546
97	0x3cbe807c	0.023254625
98	0x3cd11240	0.025521398
99	0xbb84a450	-0.004047908
100	0x3ce1b94c	0.027554177
101	0xbb5fd999	-0.0034156798
102	0xbb114a93	-0.0022169694
103	0xbb067282	-0.002051503
104	0xbc8519f2	-0.016247723
105	0x3cd1e8c4	0.025623687
106	0xbc49c66a	-0.012315372
107	0xbbc6f053	-0.0060711293
108	0xbc2e6355	-0.0106438
109	0xbc908459	-0.017641233
110	0x3c0438cb	0.008070181
111	0xbc4d59b3	-0.012533593
112	0xbb91eb6f	-0.0044531147
113	0xbb895fa9	-0.004192312
114	0xbca49b23	-0.020093506
115	0xbc199361	-0.009373517
116	0xbc11849a	-0.008881712
117	0x3a79f0ec	0.00095344963
118	0x3c731eb7	0.014838866
119	0xbc5931f8	-0.013256542
120	0x3b837218	0.004011404
121	0x3ca62a5d	0.020283872
122	0xbc0e2c33	-0.00867753
123	0xbb6bc89e	-0.0035977731
124	0x3c738b05	0.014864688
125	0x3c2366c7	0.0099732345
126	0x3a451a89	0.00075189077
127	0x3c3facca	0.011698911

action_model._discrete_distribution.branches.0.weight f4 [3, 128]
0	0x3b6efe1e	0.0036467384
1	0xbc3908c3	-0.011293593
2	0x3ccb94f2	0.024851296
3	0xbb57e1a5	-0.003294089
4	0x3c480054	0.0122071095
5	0xbc968646	-0.018374573
6	0xbc323343	-0.01087648
7	0xbc75295d	-0.014963475
8	0x3b4ee5c5	0.0031570059
9	0x3c35d2b2	0.011097597
10	0xbb9453a1	-0.004526571
11	0x3c39c066	0.011337375
12	0xbb61dd24	-0.0034464085
13	0x3ccdb613	0.025111234
14	0x3c1d33a6	0.0095948335
15	0x3a315cf3	0.00067658647
16	0x3c572bf2	0.013133036
17	0x3b83f86f	0.0040274183
18	0xbcab5449	-0.020914214
19	0xbc2350d5	-0.009968002
20	0x3b5f56ac	0.003407876
21	0xbaf77b73	-0.0018881395
22	0x3c902793	0.017596995
23	0xbae36f25	-0.0017351849
24	0xb9ddb108	-0.00042284303
25	0xbbf8205d	-0.0075722174
26	0x3c4b279b	0.012399579
27	0xbce42b3b	-0.027852645
28	0x3cacfbca	0.021116156
29	0x3b1c99e4	0.0023895437
30	0x3b81dafe	0.0039628735
31	0x3c4a16c6	0.012334531
32	0x3c32489a	0.010881567
33	0x3cf0dac2	0.029401187
34	0x3c5783fe	0.013154028
35	0x3c94acec	0.018148862
36	0x3c456f8e	0.0120505225
37	0x3be095d0	0.0068537965
38	0x3bbca3ff	0.0057568545
39	0xbc02be1d	-0.007979897
40	0x3bb17368	0.005415369
41	0xbb4cbd4a	-0.0031240755
42	0x3c796b2e	0.015223308
43	0x3c863f3a	0.01638757
44	0x3bcb5aaf	0.0062058787
45	0x3d464487	0.048405197
46	0x3ceec214	0.029145278
47	0x3d298f27	0.041396286
48	0x3c8af0e6	0.016960572
49	0x3cabecb1	0.020986887
50	0x3ca01587	0.019541515
51	0x3bd346c6	0.006447646
52	0xbbf77365	-0.007551598
53	0xbba6cf10	-0.0050906017
54	0xbd1647ef	-0.036689695
55	0x3b10eb22	0.0022112806
56	0xbb9528cc	-0.0045519825
57	0xbb88f4a8	-0.004179556
58	0xbc2d774f	-0.010587527
59	0xbc8ee4dd	-0.017443115
60	0xbc7e868b	-0.015535007
61	0x3cba25db	0.022723129
62	0x3b3bcf1a	0.0028657378
63	0x3cb1232e	0.02162322
64	0xbb03d6fc	-0.0020117154
65	0x3c745015	0.014911671
66	0x3b25407c	0.0025215438
67	0x3c4e821a	0.012604261
68	0xbc18e320	-0.009331495
69	0xbb7d4338	-0.0038644802
70	0xbc3f37d7	-0.011671028
71	0x3d25b409	0.040454898
72	0xbc7f0393	-0.015564817
73	0xbc8131ae	-0.01577076
74	0x3c8873aa	0.016656715
75	0x3a785eea	0.00094745925
76	0xbc1a2875	-0.00940906
77	0xbc81e672	-0.015856955
78	0x3b4b9fb6	0.0031070537
79	0xbbf4ec69	-0.0074744713
80	0xbbf6a666	-0.0075271605
81	0x3d03661e	0.03207981
82	0xbbc160a0	-0.005901411
83	0x3c1a2634	0.009408522
84	0xbc32785f	-0.0108929565
85	0x3a62e394	0.00086551276
86	0x3caa02cd	0.020753289
87	0xbb899287	-0.0041983756
88	0xbb27837e	-0.0025560553
89	0x3cf1047d	0.029421085
90	0xb84881da	-4.780465e-05
91	0x3c0fc6e0	0.008775443
92	0x3aeccb8e	0.0018066035
93	0xbc8717c5	-0.016490826
94	0x39abc488	0.0003276209
95	0xbbaf817c	-0.005356012
96	0x3b8dd592	0.004328438
97	0xbc2a105e	-0.010379879
98	0xbc603acc	-0.013685893
99	0x3be25cb6	0.0069080247
100	0x3c044390	0.008072749
101	0xbb1ad9fa	-0.002362846
102	0x3a9d1f27	0.0011987434
103	0x3caefb3b	0.02136003
104	0xbac597f6	-0.0015075195
105	0xbb2d4379	-0.0026437922
106	0xbb8e34b3	-0.0043397783
107	0x3bf46aec	0.007459035
108	0xbc0465a0	-0.00808087
109	0x3b51d985	0.003202052
110	0xb9f3aa4d	-0.00046475456
111	0x3b88131d	0.004152669
112	0x3c32f5dc	0.010922875
113	0xba39eda4	-0.0007092601
114	0x3b776d6a	0.0037754425
115	0x3b5ba215	0.0033513356
116	0x3c741770	0.014898166
117	0x3ac545fa	0.0015050762
118	0x3c90e060	0.017685115
119	0x3bc7f4a8	0.0061021633
120	0x3bc17145	0.0059033954
121	0xb9ba18fa	-0.00035495294
122	0xbc33af45	-0.0109670805
123	0x3a14e1b3	0.0005679384
124	0x3b8cbac9	0.0042947275
125	0x3ccd8b2e	0.02509078
126	0xbb59b133	-0.0033217191
127	0x3b8cfd9d	0.004302694
128	0xbce03ec7	-0.027373685
129	0x3c9260a6	0.017868351
130	0xbcd12e4f	-0.025534777
131	0x3a5a5511	0.0008328716
132	0xbbcc4236	-0.006233479
133	0x3aad69f8	0.0013230434
134	0xbbb4f629	-0.0055225086
135	0x3b1c30fd	0.002383291
136	0xbc0ca8e5	-0.0085851895
137	0xbc5c6fa6	-0.013454353
138	0xbc543bc8	-0.012953706
139	0xbc27e3af	-0.010247155
140	0xbbc81a7b	-0.0061066723
141	0xbcbe3ba7	-0.023221804
142	0x3c908e11	0.017645868
143	0xbc102945	-0.008798902
144	0xba33372a	-0.0006836528
145	0xbc69e7a6	-0.014276421
146	0x3c987ad0	0.018613249
147	0xbc3ef8bf	-0.011655985
148	0x3c6ef230	0.014584109
149	0xbb98a64a	-0.004658495
150	0xbc0f1af7	-0.008734456
151	0x3b566851	0.0032715986
152	0x3c90338e	0.017602708
153	0x3c08e948	0.0083564
154	0x3c7f4954	0.015581448
155	0x3b4e038f	0.0031435227
156	0xbbb8a0de	-0.0056344112
157	0xbb9ed1f0	-0.004846804
158	0xbc0382f9	-0.008026832
159	0xbb02ee95	-0.0019978632
160	0x3c1f51b4	0.009724069
161	0xbc506efa	-0.012721771
162	0xbca47311	-0.0200744
163	0xbc09076c	-0.008363586
164	0xbca57921	-0.02019936
165	0xbbeb1657	-0.007174294
166	0xbc33f1e3	-0.010982963
167	0xbc278894	-0.010225434
168	0xbc9117f4	-0.017711617
169	0xbc3e4507	-0.011613137
170	0xbc5139b6	-0.012770107
171	0xbced4492	-0.028963361
172	0x3baee9ea	0.0053379433
173	0xbc3be943	-0.011469188
174	0xbb1c62ae	-0.0023862529
175	0xbcbb93f6	-0.022897702
176	0xbcbe6258	-0.023240253
177	0xbbbc1b1f	-0.005740538
178	0xbcaf790f	-0.02142003
179	0x3bd6ec3a	0.006558922
180	0xbbe38529	-0.006943364
181	0xbbccd041	-0.0062504117
182	0x3c2fcbb4	0.010729719
183	0xbb856d0f	-0.0040718387
184	0x3c9f6caf	0.019461004
185	0x3b088d34	0.0020836117
186	0x3c7459a2	0.014913948
187	0x3c956095	0.01823453
188	0xbc8a4bf1	-0.016881915
189	0xbbc58b56	-0.006028573
190	0xbc9efa8b	-0.019406578
191	0xbbe98aa6	-0.007127124
192	0x38235e52	3.895007e-05
193	0xbc05e21a	-0.008171583
194	0xbc5ef493	-0.013608116
195	0x3bd2e2f1	0.006435745
196	0xbb3f1052	-0.0029154015
197	0x3c621434	0.013798762
198	0x3c5b45ad	0.013383311
199	0xbcfc27df	-0.03078073
200	0x3d46a409	0.04849628
201	0x3c38aa3e	0.011271058
202	0x3b49a686	0.0030769422
203	0x3c351f8c	0.011054885
204	0xbbd9006f	-0.006622366
205	0x3c029b5c	0.007971611
206	0x3b591a97	0.003312742
207	0xbc99c35c	-0.018769912
208	0xbc582548	-0.013192482
209	0xbbeaba8f	-0.007163353
210	0x3b922123	0.0044595166
211	0x3c189e56	0.009315094
212	0x3aafbc66	0.0013407588
213	0x3bffb725	0.007803815
214	0xbc217a74	-0.009855855
215	0xbc048139	-0.00808745
216	0xbb572ae3	-0.003283196
217	0xbd15314f	-0.036423977
218	0xbb97e7b5	-0.004635776
219	0xbc23a416	-0.009987852
220	0x3c5b640f	0.013390555
221	0xba8ac946	-0.0010588549
222	0x3bc229e9	0.0059254062
223	0xbb9f2426	-0.004856604
224	0xba9c3a30	-0.0011919197
225	0x3c2b576a	0.010457853
226	0x3c4d58af	0.012533351
227	0xbc8c4c6c	-0.017126285
228	0xbc0d3a79	-0.008619898
229	0xbb585d48	-0.0033014584
230	0x3c957631	0.018244835
231	0xbc5bd1dc	-0.013416734
232	0xbbe5dfa9	-0.0070151878
233	0x3c511e14	0.012763519
234	0xbc18ca3f	-0.009325563
235	0xbc118434	-0.008881617
236	0xbbfbb808	-0.0076818503
237	0xbc81f21e	-0.01586252
238	0x3bd8c491	0.0066152294
239	0xbb998330	-0.004684828
240	0xbb395bbd	-0.002828344
241	0x3c3e3a6d	0.0116106095
242	0xbb95543a	-0.0045571597
243	0xba691c94	-0.0008892503
244	0xbceffbbb	-0.02929484
245	0x3be0eba0	0.006864026
246	0xbcca513d	-0.02469694
247	0xbc143d8b	-0.009047876
248	0xbc9066f5	-0.017627219
249	0x3bcc7bf4	0.0062403623
250	0x3aee3441	0.0018173532
251	0xbb38f387	-0.0028221325
252	0x3b919263	0.0044424995
253	0xbcfbf3ab	-0.030755838
254	0xbb4e7df6	-0.0031508184
255	0x3af172f6	0.0018421102

action_model._discrete_distribution.branches.0.bias f4 [3]
0	0xbc0f777b	-0.008756514
1	0x3bda8fe0	0.0066699833
2	0x3ba72a67	0.0051014903

action_model._discrete_distribution.branches.1.weight f4 [2, 128]
0	0x3d75c627	0.060003426
1	0xb96a61c4	-0.000223524
2	0x3d29ccbe	0.041455023
3	0x3d0acc7d	0.03388642
4	0x3c4397e7	0.011938072
5	0x3aa77bda	0.0012778
6	0xbb10d6fb	-0.0022100795
7	0xbd0342b8	-0.03204605
8	0xbc07b158	-0.008282028
9	0x3d3c2bc1	0.045940164
10	0x3c8420d5	0.016128937
11	0xbad42791	-0.0016186108
12	0xbc523234	-0.012829352
13	0x3cda2d41	0.026632907
14	0xbafd065a	-0.0019304261
15	0xbc6739c8	-0.014112897
16	0xbbf6c961	-0.0075313305
17	0x3ccec9d8	0.025242731
18	0xbc492835	-0.0122776525
19	0x3b3eef9c	0.0029134518
20	0x3a9b4d29	0.0011848557
21	0xbc49d17d	-0.012318012
22	0x3c89c4cc	0.016817473
23	0xbbb03da0	-0.00537844
24	0x3c27c408	0.010239609
25	0xbc35ba3f	-0.011091768
26	0x3a00f23f	0.000491891
27	0xbce92a77	-0.028462632
28	0x3caa08ad	0.02075609
29	0x3c27e72e	0.010247989
30	0xbcaf263a	-0.021380533
31	0xbb2826e5	-0.0025657949
32	0xbbafe6f1	-0.0053681065
33	0x3d21c598	0.03949508
34	0x3c6c1e26	0.014411485
35	0xbaa15131	-0.0012307522
36	0x3ca00ae6	0.019536447
37	0xbbe30126	-0.006927627
38	0x3cdc2c67	0.026876641
39	0x3b471c1b	0.0030381742
40	0x3cbec30c	0.023286365
41	0x3d4259a2	0.04744876
42	0x3d3c2c68	0.045940787
43	0x3d4030e4	0.046921626
44	0xbc254515	-0.010087271
45	0x3d4398a7	0.047753002
46	0x3d0ac816	0.033882223
47	0x3d6aa183	0.057282936
48	0x3cb23d9e	0.021757897
49	0x3c889642	0.016673211
50	0x3cbda8dc	0.023151807
51	0x3c319717	0.010839245
52	0xbcec94f4	-0.02887962
53	0x3c0ed2ed	0.008717281
54	0xbd888fba	-0.06668039
55	0x396f4793	0.0002281948
56	0xbcac4914	-0.02103094
57	0xbccfddad	-0.025374258
58	0xbc80d4a2	-0.015726391
59	0xbc831db3	-0.016005373
60	0xbafe8aae	-0.0019419992
61	0x3ca19b9c	0.01972752
62	0x3c067c54	0.008208353
63	0x3cf4b9e3	0.029873794
64	0xbac1eae9	-0.001479474
65	0x3cec3d58	0.028837845
66	0xbb056250	-0.0020352788
67	0x3c334916	0.010942718
68	0xbbf9e843	-0.0076265647
69	0xbc2a9207	-0.010410792
70	0xbc512c6b	-0.012766938
71	0x3d5bb477	0.0536389
72	0xbd0c527f	-0.034258362
73	0xbc6742d7	-0.014115057
74	0x3d783b0a	0.06060318
75	0xbc18d0f3	-0.009327161
76	0xbc81f0cb	-0.01586189
77	0xbc007a32	-0.007841634
78	0x3c1550d3	0.009113508
79	0x3c82c4e6	0.01596303
80	0x3bb09845	0.0053892457
81	0x3d869de4	0.06573084
82	0xbc1e4413	-0.009659785
83	0x3b7fe264	0.0039044851
84	0xbb8b8674	-0.0042579714
85	0xbb46c279	-0.0030328317
86	0x3d2ce49b	0.042210203
87	0x393ef370	0.000182105
88	0x3bb3f324	0.005491631
89	0x3d226db8	0.039655417
90	0xbc5689a4	-0.0130943395
91	0x3b4b8566	0.0031054853
92	0x3b9d6979	0.004803833
93	0x3ac0cb3a	0.0014709004
94	0xbae8239e	-0.001771081
95	0xbc3769b3	-0.011194634
96	0xbb8b3380	-0.0042480826
97	0xbbd6d474	-0.006556088
98	0xbd21c131	-0.039490882
99	0x3ca7ce6f	0.020484177
100	0x3d94b2ba	0.07260652
101	0x3c983e68	0.018584445
102	0x3cc731f9	0.024315821
103	0x3c6b250e	0.014352096
104	0x3c7fbc8f	0.015608921
105	0xbd225b2b	-0.039637726
106	0x391a5472	0.00014718043
107	0x3bc81080	0.0061054826
108	0x3c94120d	0.018075014
109	0x3c13ade4	0.009013627
110	0xbbfc1e49	-0.00769404
111	0x3b9ed84a	0.004847561
112	0x3c83d086	0.016090643
113	0x3bcc72e6	0.006239283
114	0x3c84cca0	0.016210854
115	0xbb1e12bf	-0.002412006
116	0x3cd16c75	0.025564412
117	0x3c513a20	0.012770206
118	0x3d1ef824	0.038810864
119	0x3d5fe7ef	0.05466455
120	0x3d266df7	0.040632214
121	0xbcc37654	-0.023860134
122	0x3acf0267	0.0015793563
123	0x3cadc2a9	0.021210985
124	0xbca2ba36	-0.019864183
125	0x3d6cec2d	0.057842422
126	0xbc0b7d2d	-0.008513731
127	0x3c39da9c	0.011343624
128	0xbd6c82f7	-0.057742085
129	0xbc09e0b9	-0.008415394
130	0xbd33e288	-0.04391721
131	0xbcbf047d	-0.02331757
132	0x3b5a45f9	0.0033305867
133	0x3bc4b1c6	0.0060026376
134	0xbc612722	-0.01374224
135	0x3c96ffc3	0.018432504
136	0xbc8e4c05	-0.017370233
137	0xbd39009d	-0.0451666
138	0xbc6e29db	-0.014536346
139	0xbbadbb95	-0.0053019025
140	0x3c1634b7	0.009167842
141	0xbca4c8df	-0.020115314
142	0xbbaebc1e	-0.005332484
143	0x3ca5519f	0.020180522
144	0xbc0610d0	-0.008182719
145	0xbcfd6631	-0.030932518
146	0xbc736bdf	-0.014857261
147	0xbc66daff	-0.014090299
148	0x3be86819	0.0070924875
149	0x3bc03392	0.0058655227
150	0xbca3eaa2	-0.020009343
151	0xbb48a6fd	-0.003061711
152	0x3c68aca0	0.014201313
153	0x3cc3cfcf	0.023902802
154	0x3c4f6775	0.012658943
155	0x3cfb7192	0.030693803
156	0xbcf69088	-0.030098215
157	0xbca7166b	-0.020396432
158	0x3c94d6dd	0.018168861
159	0xbc55e3d6	-0.013054809
160	0xbc699f2b	-0.01425914
161	0xbd68c9dd	-0.056833137
162	0xbb40fbde	-0.0029447
163	0x3c14762e	0.009061379
164	0xbd116165	-0.035493273
165	0xbca216d4	-0.019786276
166	0xbbc6140f	-0.0060448716
167	0x3c779112	0.015110271
168	0xbd2cfb64	-0.042231932
169	0xbd381648	-0.044943124
170	0xbd46562c	-0.048422024
171	0xbd075f0c	-0.03304963
172	0xbaaba823	-0.0013096373
173	0xbd8501e0	-0.06494498
174	0xbd443402	-0.04790116
175	0xbd17f1e4	-0.03709592
176	0xbd1009a3	-0.03516544
177	0xbcd3746c	-0.02581235
178	0xbd3d4667	-0.04620972
179	0x3b6387c6	0.0034718378
180	0x3c387c08	0.01126004
181	0x3d1a112b	0.03761403
182	0x3d33998d	0.04384761
183	0xbc9a0fb2	-0.018806312
184	0x3cb24b81	0.021764519
185	0xbbe7657e	-0.0070616594
186	0xba88e9ab	-0.0010445615
187	0x3c132583	0.008981111
188	0x3c5c883e	0.013460217
189	0xbc54772c	-0.012967866
190	0xbc0deac1	-0.008661927
191	0xbd05eb13	-0.032694887
192	0x3af9cf92	0.0019059053
193	0xbd2883cd	-0.04114132
194	0x3c117947	0.008879012
195	0x3b090caf	0.00209121
196	0x39cb5d4c	0.0003878869
197	0x3b94a4ea	0.004536261
198	0xbb6f0465	-0.0036471125
199	0xbd5d576a	-0.054038443
200	0x3cbf3108	0.02333881
201	0x3bd55d80	0.00651139
202	0xbd4a72fe	-0.04942607
203	0xbc42f655	-0.01189955
204	0x3c3ad145	0.011402433
205	0x3c981f16	0.01856951
206	0x3c46b217	0.012127421
207	0xbbb422f3	-0.0054973303
208	0x3c150524	0.009095464
209	0xbd88ae2a	-0.06673844
210	0x3c5d2b76	0.013499131
211	0x3c08f0fd	0.008358237
212	0x3bc11498	0.0058923475
213	0x3922d55c	0.00015529006
214	0xbd13b13a	-0.03605769
215	0x3bbcb399	0.0057587144
216	0x3ca8b26e	0.020592894
217	0xbd6bd5e1	-0.057577018
218	0x3b97e361	0.00463526
219	0x3c058196	0.0081485715
220	0xbc8925af	-0.016741602
221	0x3c97a472	0.01851103
222	0xbc637d30	-0.0138848275
223	0x3c349efc	0.011024233
224	0x3ba29b7d	0.0049623833
225	0x3cac78ed	0.021053756
226	0x3ce93efb	0.028472414
227	0xbc87d59a	-0.016581345
228	0xbd8b407f	-0.06799411
229	0xbce8530c	-0.028359912
230	0xbb7208b9	-0.0036931469
231	0xbc5a2615	-0.0133147435
232	0xbbf9bd2e	-0.007621429
233	0x3d039c6c	0.032131597
234	0xbc61bfcc	-0.013778638
235	0xbc435f49	-0.011924573
236	0xb97a8b36	-0.00023893718
237	0xbb98f79a	-0.0046681883
238	0xbb1d21c1	-0.0023976418
239	0xbc4a437f	-0.012345194
240	0x3c5ceaa1	0.013483674
241	0x3baecf6f	0.0053347866
242	0x39f8a945	0.00047428362
243	0xbbb22d56	-0.0054375334
244	0xbcd64519	-0.026155995
245	0x3aaacabf	0.0013030394
246	0xbd0925e4	-0.0334834
247	0xbd3bc2ee	-0.045840196
248	0xbd0ace50	-0.03388816
249	0x3ca89290	0.020577699
250	0xbacccfef	-0.0015625934
251	0xbc861f2b	-0.016372284
252	0x3c10702b	0.008815805
253	0xbd07c11f	-0.03314316
254	0x3c034cd3	0.008013922
255	0xbcc20cee	-0.023687806

action_model._discrete_distribution.branches.1.bias f4 [2]
0	0xbc81d9ed	-0.015850985
1	0x3c81d9ed	0.015850985
