results/Test4/BossAi/BossAi-235529.onnx (onnx, 79397 bytes, 9 tensors)

discrete_act_size_vector f4 [1, 2]
000000 00 00 40 40 00 00 00 40
       3.0 2.0

network_body._body_endoder.seq_layers.0.weight f4 [128, 6]
000000 ab 93 84 bf 6f b7 42 bd 02 dd 4f bd fa 29 9f 3d
       -1.0357565 -0.047538217 -0.05074788 0.07771678
000010 71 d0 39 3f 9e f9 d0 be 63 25 34 be 52 ab c5 be
       0.7258368 -0.40815443 -0.17592387 -0.3860727
000020 e6 61 79 be c1 a5 5a 3f 00 6e 59 3e 79 eb ce be
       -0.24353752 0.8540917 0.21233368 -0.40414026
000030 8c aa 04 3f 9e 98 8c 3e 07 69 a0 3d 94 2d 31 3e
       0.51822734 0.27460188 0.078325324 0.17302543
000040 8e 58 e0 3e ec bd 2a bf 97 8a 0a 3e ac c7 b5 3e
       0.43817562 -0.6669605 0.1352943 0.355039
000050 39 cd f7 3d c6 4d 25 3d 95 ac 91 be 36 ba 1c be
       0.1209969 0.040357374 -0.28451982 -0.15305409
000060 95 a8 b3 3e 66 ef 08 be c4 de 85 3e 19 0d 3d bf
       0.35089555 -0.13372573 0.2614652 -0.7384811
000070 d9 66 10 3e 4c c3 3e 3f 67 1c 56 be 0d 6d 8c 3e
       0.14101733 0.7451675 -0.20909272 0.2742695
000080 c0 fa 08 3f 94 8b 18 3f c2 3a 28 be df 90 07 3f
       0.53507614 0.5958798 -0.16428664 0.5295543
000090 81 5c 9e be 9d 27 bd 3e 3a c4 05 bd 8b 20 b8 3e
       -0.3092995 0.36944285 -0.03265784 0.35962328
0000a0 0c de 21 3f 3f 3b 5c bf 08 88 2c bf 28 10 4c bb
       0.6322944 -0.860279 -0.6739507 -0.003113756
0000b0 82 ce 3b 3e b6 69 4c 3e d9 63 be 3e 6c bf 0f be
       0.18340495 0.199622 0.37185553 -0.14037865
0000c0 64 1f 0f 3e c0 27 a5 be e2 67 4a 3e 28 fe e8 3c
       0.13976818 -0.3225689 0.1976619 0.028441504
0000d0 2d 48 a5 be 03 b5 3f 3f f8 31 9a be 03 b0 c1 be
       -0.32281628 0.74885577 -0.30116248 -0.378296
0000e0 b6 20 9a 3d fc ff 74 bd ac 9b cd 3e d6 b9 d1 be
       0.0752577 -0.05981444 0.4015783 -0.40962094
0000f0 4b 70 63 bd 95 f3 96 be 91 ca d4 be 9b 5c 19 bd
       -0.055527013 -0.29482713 -0.41560796 -0.03744183
000100 38 ea 4d be 49 30 1d bf f1 d7 d1 be 77 3c 52 3c
       -0.20108879 -0.614018 -0.40985063 0.012831799
000110 b4 f8 3d bf 1b ef 47 bd 76 68 dd bd e2 74 ba 3e
       -0.74207616 -0.048812013 -0.1081094 0.364173
000120 04 e7 07 3f 26 1b 4c 3f 20 80 b6 3e bb 46 93 3e
       0.53086877 0.79728925 0.35644627 0.287649
000130 79 28 71 3e 00 52 c7 3e 5b 6a f7 3e b2 df 77 3e
       0.23550595 0.3892975 0.4832333 0.24206427
000140 3c 9c 12 3f bc 58 38 3e d0 0e be 3e ab 75 8a bf
       0.57269645 0.180026 0.37120676 -1.081716
000150 84 43 1c 3f 6c 2d 46 be a2 9d ed be df 08 14 3e
       0.6104052 -0.19353265 -0.46409327 0.14456509
000160 0d 77 f5 3e a1 9c 38 be 9f 99 6e 3e f6 03 09 3f
       0.4794239 -0.18028499 0.2330079 0.5352167
000170 63 43 06 bf a4 d7 bd 3e 3e ee e9 bb 4c d8 19 3d
       -0.52446574 0.37078583 -0.0071389964 0.037559792
000180 13 4f 2b be b4 f0 7b be 59 7c 35 bb dd 25 d5 3c
       -0.16729383 -0.2460354 -0.0027692525 0.026019031
000190 3d 53 4b bf b1 f6 f4 be 66 cf 80 3e 45 3c e4 be
       -0.79423887 -0.4784446 0.25158232 -0.44577232
0001a0 11 68 21 3f 1b ce a2 3e b2 89 a7 3e 26 ce 35 bc
       0.6304942 0.3179787 0.3272224 -0.011096513
0001b0 e6 7b 18 3f 59 30 da be 43 67 97 3c 7e 38 2e 3e
       0.59564054 -0.4261501 0.018481856 0.17013738
0001c0 3d 9b 86 bd 9a 31 a7 3e 8c 34 6e be f8 d2 2f 3e
       -0.06572578 0.3265503 -0.23262233 0.17170322
0001d0 1e 06 22 3e 79 85 c7 3e 16 d5 0b 3f 44 53 19 bf
       0.15822646 0.3896902 0.5462202 -0.5989268
0001e0 99 4d 11 bc f6 e8 1b 3f 04 18 cc 3e b5 2d d3 be
       -0.008868598 0.60902345 0.39862072 -0.4124581
0001f0 79 36 8c 3e a9 b7 a3 be 3c 1f 70 3e 59 20 68 3e
       0.2738531 -0.3197606 0.23449415 0.2266859
000200 45 e0 fa 3c 64 6d 0c 3f c1 6c fd 3d d1 86 76 bf
       0.030624518 0.54854417 0.12374259 -0.96299464
000210 98 8f 22 3e 6e 72 bb bd c4 62 3c 3f 94 6e 62 3f
       0.15875089 -0.09152685 0.73588204 0.8844998
000220 f2 c2 0e bf 36 11 06 3e ee 9c 87 be fa d0 75 3f
       -0.5576621 0.13092503 -0.26486915 0.96022
000230 5c 44 e4 3e af 23 bd be 1d 04 45 3f bf c7 2e be
       0.44583404 -0.36941287 0.769594 -0.17068385
000240 d8 7a da bd cd 37 80 3e 6b 7c d9 be 93 99 0f be
       -0.10667962 0.25042573 -0.42477736 -0.14023428
000250 a1 5f cc 3e f0 a5 03 3f 7a 05 83 be 1e d8 1b bf
       0.3991671 0.51425076 -0.25590116 -0.60876644
000260 95 3f aa be 23 82 a7 3e d9 6d 7a be d8 89 c9 3e
       -0.33251634 0.32716474 -0.24455966 0.3936298
000270 75 56 d9 3e 48 c4 9e 3e da 20 09 3f bd 43 d5 be
       0.42448774 0.31009126 0.5356575 -0.41653243
000280 d0 f1 a8 be f5 51 88 3d a7 3e 5a 3f 27 71 20 3f
       -0.32996988 0.06656257 0.8525185 0.62672657
000290 3c 3c 29 be 18 07 4d bd 60 bb 93 be fa 5f 9e 3e
       -0.16526884 -0.050055593 -0.28853893 0.309326
0002a0 bc df a0 be 7d 33 74 be bc 11 e5 3e f0 cf a7 be
       -0.31420696 -0.23847766 0.44740093 -0.3277583
0002b0 72 1e 1c 3e e2 35 c1 bd 8e 5d 79 be 86 f0 74 be
       0.15245989 -0.094341055 -0.24352095 -0.23919877
0002c0 23 90 01 be f4 70 4b bf d7 2f e6 be f5 3a ef 3e
       -0.1265264 -0.7946923 -0.44958374 0.46724668
0002d0 11 3c 6c 3d 51 a6 50 be bd 4e 52 3d 7f d9 b6 3e
       0.05767447 -0.20375945 0.051344622 0.3571281
0002e0 9c 32 67 3f 7a c0 4e 3e bb 30 53 3e 5a 27 93 be
       0.903116 0.20190611 0.20624058 -0.2874096
0002f0 eb 42 3b 3f 53 9f d4 bd 88 42 74 3d 9b 85 31 be
       0.73148984 -0.10381951 0.05963376 -0.17336123
000300 e3 82 63 3e 5e 38 1b be 5b 38 4d 3e 9a 34 f3 be
       0.22217898 -0.15158221 0.20041029 -0.4750107
000310 4f 26 a5 be cf b9 02 3f c4 9e b7 3e 3b e3 72 be
       -0.3225579 0.5106477 0.35863316 -0.23719494
000320 82 bf 65 3e 5d 12 72 3e 09 53 d8 3e bb 69 a6 3e
       0.22436336 0.23639818 0.4225085 0.3250254
000330 fc bb 83 3e 4a 68 e5 bd 83 00 13 bf 02 5e d4 3d
       0.25729358 -0.11201532 -0.57422656 0.10369493
000340 56 f4 2c bc c5 0c c4 be f4 6a cc 3d af 36 50 3e
       -0.010556301 -0.38290992 0.09981337 0.2033336
000350 31 ec 1e bf 54 00 92 bd f0 d5 17 be 9a 99 33 be
       -0.6207915 -0.07128969 -0.14827704 -0.17539063
000360 d1 0c 12 bf a6 3c 98 be c7 15 df 3d 61 b0 7f 3e
       -0.57050806 -0.2973377 0.108928256 0.24969627
000370 82 b1 e1 be 65 a5 59 3e 02 f1 7c 3e 58 a4 17 3f
       -0.4408074 0.212545 0.24701312 0.59235144
000380 7f 2f 17 bf fd b8 c3 bd 34 75 19 3f 76 d5 aa 3e
       -0.5905685 -0.09556768 0.5994446 0.33365983
000390 6d f8 90 3e 69 0f 29 3f 53 c4 24 be 8e e2 06 be
       0.28314534 0.6603914 -0.16090517 -0.13172361
0003a0 fd 5c f3 be 58 41 b1 bb c4 16 ec 3e 4c a3 a0 3c
       -0.47531882 -0.005409401 0.4611112 0.019609116
0003b0 65 2f e8 3e c4 51 b1 3e f1 6c 0c 3f 04 d9 27 3f
       0.4534866 0.34632695 0.5485373 0.65565515
0003c0 33 bc e1 bd 44 f7 f2 be 4a 31 69 3d f9 29 3d be
       -0.11022224 -0.47454274 0.05693177 -0.18473043
0003d0 71 10 49 bf 98 97 72 be ff 57 39 3e 00 a1 11 3e
       -0.7854071 -0.23690641 0.18099974 0.14221573
0003e0 4e be 38 3f 5e f7 1b 3f 56 fc 01 3f a8 b4 6a be
       0.7216538 0.6092433 0.5077566 -0.22920477
0003f0 d4 63 28 be b0 53 5f 3c d9 93 ed be 12 40 fb bc
       -0.16444331 0.0136307925 -0.4640186 -0.0306702

network_body._body_endoder.seq_layers.0.bias f4 [128]
000000 cd b6 e7 3c 5e 20 64 3c 4a 56 3b 3b a3 a0 14 3c
       0.028285408 0.013923733 0.0028585368 0.009071502
000010 83 f7 00 bc 16 4c 97 3c d7 d1 2a bc 2e 0a 5b bc
       -0.007871511 0.018468898 -0.010426006 -0.013369126
000020 37 f9 bf 3c 5a 37 f3 3c be bf 4d 3c 11 3d 87 3c
       0.023434265 0.02968948 0.012557922 0.01650861
000030 1d 76 99 bb 90 9c 54 3b 32 4d a2 3d c7 77 15 3d
       -0.0046832697 0.0032441951 0.0792488 0.03649118
000040 93 1b 1b 3d db b8 c4 3b 0b 81 6c bb b7 24 f7 3c
       0.037868094 0.006003482 -0.0036087658 0.030168874
000050 be bd cb 3b 9d 07 59 3c 19 e7 8d 3c 78 0c ac 3c
       0.0062176874 0.013246444 0.01732211 0.02100204
000060 4c aa 31 3c 06 2b 89 bb 8d d3 36 bc 6d 06 b5 bc
       0.010843825 -0.004186037 -0.011158836 -0.02209779
000070 f1 a7 28 3d a8 1f a2 bb e7 66 c0 3c 63 20 a9 3c
       0.041175786 -0.0049476214 0.023486568 0.020645326
000080 87 9c 44 3c f7 9d 9a 3b cd ed f4 3b a8 0e a5 3b
       0.01200021 0.004718538 0.007474637 0.0050371476
000090 10 ca ab 3c 64 4e ba 3c 73 51 34 3b 25 4d da bb
       0.020970374 0.022742458 0.0027514368 -0.0066620284
0000a0 3f f8 18 3d 4e 1b 42 3a 0b 85 e0 3b 6a e1 1a bb
       0.03734612 0.00074045814 0.0068517975 -0.0023632892
0000b0 c5 a5 8c 3d 41 d8 20 3d a1 02 83 ba 46 8c d2 bc
       0.068675555 0.039268736 -0.000999529 -0.025701653
0000c0 cb 2b e1 3b e7 0a 92 3d d8 34 11 bc b7 66 82 ba
       0.0068716756 0.07130986 -0.008862697 -0.0009948824
0000d0 24 0e 9c bb ad fc 5d 3c 88 67 47 bc f3 70 8a 3c
       -0.004762428 0.013549012 -0.01217068 0.016899562
0000e0 16 47 40 bc 74 00 83 bc f7 d6 02 bd d7 c9 79 3b
       -0.011735698 -0.015991427 -0.031943288 0.003811469
0000f0 da ea b5 3b 0b ab e0 3c a5 57 91 3c ae b4 0e 3c
       0.005551678 0.02742531 0.017741987 0.00871007
000100 22 a7 8a 3c 47 9e 9f ba 9a 7d 20 3c 5f 40 8d 3c
       0.016925398 -0.0012177908 0.009795571 0.017242609
000110 ad 02 cd bb 59 b5 98 3c 8f 53 6a 3c d6 00 cf 3b
       -0.0062564225 0.01864116 0.0143021485 0.0063172383
000120 78 c1 40 bc ef cf bb 3c 84 50 42 bc 9d 58 99 3a
       -0.011764877 0.022926299 -0.011860017 0.0011699382
000130 78 6b be 3b 6d ee b2 3c 6b b5 e2 3c a5 96 c8 3b
       0.005811151 0.021842206 0.027674397 0.006121474
000140 f0 a3 22 3c 0b 0e d8 3c fd 7c 72 bb 25 45 92 bb
       0.009926781 0.026373884 -0.0037000768 -0.004463809
000150 89 3b b8 3c 76 bd 78 3c 74 13 d1 bb 98 9e 04 3d
       0.022489326 0.01518189 -0.006380493 0.03237781
000160 e0 4f a9 3b 6f fb 90 3b b2 04 91 3c 5c 0e 22 3d
       0.0051669925 0.0044245045 0.017702434 0.039564475
000170 51 89 5f 3c f7 a0 43 3d b6 bf 2d 3d 9e 48 ae 3a
       0.013643579 0.04776093 0.042419158 0.0013296788
000180 47 5a 99 3b e8 a9 3c 3c 15 24 3d 3a 50 ee a5 3b
       0.0046799514 0.011515118 0.00072151545 0.0050638095
000190 b5 a7 08 3b 8b e9 4a 3c dd 9b cb ba b9 03 f0 3b
       0.0020851914 0.012384783 -0.0015534122 0.0073246625
0001a0 47 41 bc bb 43 c8 81 3c be 65 03 bc f8 bf 44 3c
       -0.0057450864 0.015842563 -0.008019863 0.01200866
0001b0 3d 57 9e 3c b6 98 2d 3c 85 65 3b 3b 26 f6 c7 bb
       0.019328708 0.010595491 0.0028594446 -0.006102341
0001c0 06 7a 56 3c b1 98 3a bb 46 cf 70 3c bc 61 a4 3c
       0.013090616 -0.0028472359 0.014697855 0.020066135
0001d0 9e e2 db 3b f0 e8 78 3c 18 e2 8d 3c 63 60 53 3b
       0.0067103645 0.015192255 0.017319724 0.0032253496
0001e0 c4 04 d4 bc 64 ac dd 3b b4 63 9f 3c 2f 4b 81 bc
       -0.025881179 0.0067649353 0.019456722 -0.01578292
0001f0 59 c8 4c bc b5 e8 ea ba 18 f3 21 3d fc d2 59 bc
       -0.0124989385 -0.0017922135 0.039538473 -0.0132949315

network_body._body_endoder.seq_layers.2.weight f4 [128, 128]
000000 d0 62 6a bd 64 e0 c1 3d e8 07 a9 3c 89 eb 1c be
       -0.05722314 0.09466627 0.020633653 -0.15324225
000010 51 c5 2a 3d 79 c0 05 bd 0d 16 10 3d 97 e1 75 bc
       0.04169208 -0.03265426 0.03517728 -0.015007398
000020 23 44 6e bd dd 64 08 3d 5c 12 ec 3d 09 2e 59 3d
       -0.05817045 0.033299316 0.11526939 0.05302242
000030 8f b8 10 3d 6a c8 46 3d 95 11 d3 3d 6f eb da 3d
       0.03533226 0.048530973 0.10306088 0.10689437
000040 47 8d 1b bd c2 ae e9 3d 2d 2b aa 3d ce 68 19 be
       -0.03797653 0.114102855 0.083090164 -0.14981386
000050 eb 57 57 3e c3 94 36 3d 4d 05 7a bd 95 d9 1c 3d
       0.21029632 0.044575464 -0.06104021 0.03829344
000060 e9 a4 18 3c 7d 9f b9 bc 08 4e 21 3e b9 49 06 bd
       0.009316661 -0.022659058 0.15752423 -0.03278515
000070 cb a3 1e be 43 e3 11 bd 20 fd 95 3d d4 e5 a3 3d
       -0.1549217 -0.035617124 0.073236704 0.080028206
000080 9b f7 18 3e 2a f6 00 3c b2 6f ef 3c 26 30 0a bd
       0.14938204 0.00787119 0.029228065 -0.033737324
000090 14 17 97 3d f5 eb 9b 3d fa 66 4d bb a9 0b 0e 3d
       0.07377449 0.076133646 -0.0031341896 0.03467909
0000a0 03 39 75 bd 83 ca ba bd 54 82 e8 3b a0 4a 2a bd
       -0.059868824 -0.09120657 0.0070956144 -0.041575074
0000b0 23 bb 35 be a3 c9 d7 3c 88 f7 a7 3d 90 79 97 bd
       -0.17747168 0.026341265 0.0820151 -0.07396233
0000c0 4d db 79 3c 7b be 72 3c aa 49 0d 3e 19 b4 bb bd
       0.015250039 0.014815922 0.13797632 -0.0916521
0000d0 0e 35 9b 3d 6e a3 61 3d 0f af 86 3d 87 a9 5f 3d
       0.07578479 0.0550875 0.065763585 0.054605033
0000e0 29 bc e2 3d 0a 10 e1 3d 80 a2 ad bc 07 02 a6 bd
       0.11071045 0.10989387 -0.02119565 -0.081058554
0000f0 26 1b 29 bd 11 35 47 3c ee ae 16 bd 03 0f 71 3c
       -0.041285656 0.012158648 -0.03678792 0.014713052
000100 13 e2 46 be 73 a1 87 3c cf 55 a8 3c b5 9a 2b 3d
       -0.19422178 0.016556477 0.02054873 0.041895587
000110 2f c8 ce bd 3f 6b 24 bd 34 78 43 be 02 de ed 3c
       -0.10096776 -0.04014134 -0.19088823 0.029036526
000120 c9 18 3d 3c 64 01 55 be 59 70 b9 bc 90 80 a8 bd
       0.011541554 -0.20801312 -0.02263658 -0.08227646
000130 ea 1e b5 3d 78 e1 5a bd c1 9c c9 bc 6c 7b 20 be
       0.08843787 -0.05343768 -0.024610879 -0.15672082
000140 d3 82 a5 bd a6 d5 6b bd e2 2d 22 be f6 58 c7 bd
       -0.08081593 -0.057576798 -0.15837815 -0.09733765
000150 ce b4 2c 3d f4 f1 f2 3d 50 a7 8d 3d 3f 56 cb 3d
       0.042164616 0.11862555 0.06916678 0.099285595
000160 18 1c 02 3d 19 59 53 3b 57 17 88 3d ad ee 3a bd
       0.031765074 0.0032249151 0.06645077 -0.045637775
000170 be a7 a1 bd e4 a6 a9 bc 87 36 54 be 7f ef 58 bd
       -0.078933224 -0.020709462 -0.20723926 -0.052962776
000180 c9 9a e2 3d 68 1e 53 bd 4b 32 dc bd c9 86 3e 3c
       0.11064679 -0.05154267 -0.1075178 0.011628815
000190 ff 28 85 3c 3c d1 2b bd b1 4e d6 3c 62 35 3d bd
       0.0162549 -0.04194759 0.02616057 -0.046193488
0001a0 bf 4b 28 3e 8b 68 d3 3d b0 97 eb 3d 9c ff a1 bc
       0.16435145 0.10322674 0.115035415 -0.019775204
0001b0 98 b8 f9 bc ce 88 b9 3d 6b a6 0b 3e 2a 26 32 3c
       -0.030483529 0.090592965 0.13637702 0.010873357
0001c0 bc 71 d6 bb 50 70 82 3d 70 34 da bd 44 40 b0 bd
       -0.00654432 0.06369078 -0.10654533 -0.08606008
0001d0 a3 37 d3 bd 5b 3c d9 3c 4f eb ec bc ae 34 67 3c
       -0.10313346 0.026518038 -0.028920798 0.014111681
0001e0 e3 5f 0d be 0c db 2d 3e 58 5f 38 3e 52 49 eb 3b
       -0.13806109 0.16978091 0.18005121 0.0071803713
0001f0 f8 f5 ea 3c 6a 6b 93 bd 52 e3 bb 3c 5d 33 9d 3d
       0.02868174 -0.07198222 0.022935543 0.076758124
000200 5a fe 15 bb 6f a8 e4 3d f6 18 3b 3d 24 fe 0a bc
       -0.00228872 0.11164939 0.0456781 -0.008483443
000210 6f 57 0e be f8 37 49 3d 81 85 f4 b8 db cd ef 3d
       -0.13900541 0.04912564 -0.00011659694 0.11709186
000220 3c 75 b8 bd 06 7a 2f 3d f0 d9 af 3d 07 75 b0 bc
       -0.09006736 0.04284098 0.0858649 -0.021540178
000230 e7 36 22 3d 46 aa 32 bd 38 62 e0 bd 83 9b a3 bd
       0.03960314 -0.043619417 -0.10956234 -0.07988646
000240 86 45 f6 b8 a5 bc 38 3d 8a 87 df bb 7a ab 85 bd
       -0.00011743144 0.04510178 -0.0068215774 -0.06526847
000250 0d 25 e6 bc 1b 41 92 3d b1 21 80 3e f1 4b fa bc
       -0.028093839 0.07141324 0.25025705 -0.03055379
000260 a7 8c 1e 3e 19 d8 08 3d a0 48 00 3b a1 35 02 bc
       0.15483342 0.03340921 0.0019574538 -0.007947356
000270 ae e0 96 bd f0 11 1d bd 67 11 a7 bd ed 96 0a 3e
       -0.07367073 -0.038347185 -0.08157616 0.13534136
000280 a4 b7 84 bd f9 dc 25 be 2b 40 f3 bd 85 6e 86 bd
       -0.06480339 -0.16197576 -0.118774734 -0.06564049
000290 c1 88 76 bd 12 5b 53 3d bc 89 2e be 33 50 f5 3d
       -0.060189012 0.051600523 -0.17044729 0.119781874
0002a0 0b 46 14 be a6 d3 aa bd 2d 7b 44 3d 5f 33 96 bd
       -0.14479844 -0.0834115 0.047969032 -0.07334017
0002b0 2c d2 58 3d 55 36 84 3e ab 59 08 3e e1 65 7b bd
       0.05293481 0.25822702 0.13315456 -0.061376456
0002c0 0e b5 1f 3d 98 c3 d1 3d 45 41 ed 3c cd a1 37 bd
       0.038991027 0.10242385 0.028961787 -0.04483204
0002d0 1d 6b 9a 3d f1 c6 a6 3d 3b 21 a6 3b 9e 9d b2 3d
       0.075399615 0.08143414 0.0050698793 0.08721469
0002e0 79 c0 e9 bd c4 e9 f3 bc 6c 70 10 3d 6c ef c8 bb
       -0.11413664 -0.029774554 0.035263464 -0.006132057
0002f0 81 87 bf 3d 84 ea c2 3d ec 6c 46 bd 2a f5 62 bd
       0.09352017 0.095173866 -0.04844372 -0.055409588
000300 99 8a 0d 3e ff aa 1f 3d 27 41 87 be 9f b2 09 3e
       0.13822402 0.038981434 -0.26416895 0.13447045
000310 81 9e 03 3d 2e 41 54 bd 2c b0 10 be 44 01 11 3e
       0.032133583 -0.051819973 -0.14129704 0.14160639
000320 6c 30 8a 3c ba 5d 63 3d cc a4 91 3d b0 d9 ad bc
       0.016868792 0.055509306 0.07111511 -0.021221966
000330 fc 18 14 3d 2d 31 5f bc 82 f5 db 3c e8 07 42 bc
       0.03615664 -0.013622564 0.026850466 -0.011842705
000340 76 87 e8 3c 81 f6 d9 bd 6f d5 29 3d e4 e5 a0 3a
       0.028384905 -0.1064272 0.04146331 0.0012275544
000350 48 3e 49 3d 38 94 8d 3c 0c c9 11 3e 63 9b e0 3d
       0.04913166 0.01728259 0.1423685 0.10967138
000360 e1 fd c9 bd 31 4b bf bd 2e 38 d6 3d 7c cf 0d 3d
       -0.09862877 -0.093405135 0.10459934 0.0346217
000370 a9 cf 24 be e5 5f 1b 3d 35 97 36 3e a9 9f 2d bc
       -0.16094841 0.03793325 0.17831118 -0.010597148
000380 1a 8f b3 bc 00 5f c3 bb 79 6c 6b 3c e7 ce d9 3d
       -0.021918822 -0.0059622526 0.014369124 0.106351666
000390 c4 6f ab bd d7 e1 97 bd 08 27 68 bd 44 db a1 bd
       -0.08370927 -0.074161224 -0.056677848 -0.0790315
0003a0 af 11 88 3d 51 e8 14 3e 2b 28 91 3d 90 41 0a 3e
       0.06643998 0.14541747 0.070877396 0.13501573
0003b0 38 41 ce bd aa eb 90 bd ac 63 9c bd b4 3b 22 bc
       -0.10071033 -0.07076199 -0.076361984 -0.00990193
0003c0 06 e5 b5 bd b6 4b f9 3d f3 ff de bc 68 b4 f4 3c
       -0.088815734 0.12172644 -0.027221655 0.02987118
0003d0 e6 f2 5e bd 02 a8 c2 3d a1 d9 1e 3e e6 4e 1e 3d
       -0.054430865 0.09504701 0.15512706 0.038649462
0003e0 b3 3e 65 bd 06 5a e6 bd 8d 7b 14 be ea 63 06 3e
       -0.055967998 -0.11247639 -0.14500256 0.13124052
0003f0 ce a3 a3 3c c8 8c 29 3d 1b dc df 3d ec b9 57 3d
       0.01997557 0.041394025 0.10930654 0.052667543

network_body._body_endoder.seq_layers.2.bias f4 [128]
000000 3b 2d d6 3b 68 44 02 3c f6 6e 95 bb d3 28 24 bb
       0.0065361536 0.00795088 -0.0045603467 -0.0025048747
000010 e5 36 ea bb e6 d5 06 3a 78 a2 9c 3b b2 83 09 bc
       -0.007147657 0.00051435677 0.00478011 -0.008393215
000020 38 96 68 3c 85 e0 9b 3b 82 c3 a7 bb 3e 71 21 3c
       0.014195971 0.0047569894 -0.005119742 0.009853659
000030 9a 72 2f 3b bf a0 37 3b 2a fa 2b 3c 8c 40 05 3b
       0.0026771189 0.0028019396 0.0104966555 0.0020332662
000040 64 26 ca 3c 87 80 18 3c d1 d7 fa bb c0 f9 c9 bb
       0.02467651 0.009307987 -0.007655122 -0.0061638057
000050 dc f3 23 bc 16 63 64 ba 54 43 77 bb 59 c4 99 3c
       -0.010006871 -0.0008712275 -0.003772934 0.018770384
000060 14 99 29 3c fe 6b 3a bc 5c db 87 3c 49 aa e0 bb
       0.010351438 -0.011378286 0.01658409 -0.006856237
000070 a2 ed 6b 3c b9 10 55 bc ac 00 9f 3c 6e ee 43 3c
       0.014399918 -0.013004475 0.0194095 0.011958702
000080 92 a3 be 3a 3a fe 03 3c fe 15 b1 3b 80 4c 98 3b
       0.0014544597 0.008056218 0.005404233 0.0046477914
000090 98 7f 95 3a 3f 70 f2 ba 76 45 c2 3c 7a d9 75 3c
       0.0011405824 -0.0018496587 0.023714762 0.015005464
0000a0 3e 12 d0 3b 25 db 03 3c 88 51 d5 ba 55 8a 07 bc
       0.006349831 0.008047854 -0.0016274909 -0.008272727
0000b0 22 60 0d bc 4f 3e 90 bb 4a 6d eb 3b 92 46 97 ba
       -0.008628877 -0.004401959 0.007184659 -0.0011541417
0000c0 33 ae 91 3b 54 3a 18 bc a8 67 cb bb fe ff 84 3b
       0.004445815 -0.00929125 -0.006207425 0.004058837
0000d0 ad 37 0a bc 71 ca 0e bc b9 d9 90 3c 7c 9e 2f 3c
       -0.008436126 -0.008715258 0.017681943 0.010718938
0000e0 03 14 41 3c 7b a2 a8 bb d6 3c 69 3c 80 a8 4b bb
       0.011784556 -0.0051463223 0.014235696 -0.0031075776
0000f0 c4 14 f9 bb a5 ab 85 bb 0e 82 24 bc bb 10 aa bc
       -0.0076013524 -0.0040792995 -0.010040773 -0.02075993
000100 f9 0a 6f 3a e8 22 8f bb 34 77 88 bb 6b b8 c7 3c
       0.00091187615 -0.004368175 -0.0041646007 0.02437993
000110 12 9d 03 3c 46 b9 e3 bb a0 b0 41 3c 59 a0 db 3c
       0.008033054 -0.0069495765 0.011821896 0.026809858
000120 b4 8c 85 ba fc ad 07 3d 3b 5a 39 3b 4a 08 81 bc
       -0.0010189028 0.03312491 0.0028282541 -0.015751023
000130 01 8f 4e 3c 74 c4 71 3c a1 c4 27 3c 1f 60 a3 3b
       0.012607337 0.014756311 0.010239751 0.0049858238
000140 ef 6c 57 3b ea d9 80 3c 60 29 2c bb 9c b5 40 ba
       0.0032871326 0.01572891 -0.0026269779 -0.00073512807
000150 73 0e c2 3c 0a 56 88 bb ff 94 2b ba 1c bf 6d 39
       0.02368853 -0.0041606473 -0.00065453345 0.00022673275
000160 41 19 85 ba 6b cf 19 bb 9c f0 4c ba 20 10 4b 3b
       -0.0010154621 -0.0023469578 -0.0007817836 0.0030984953
000170 2b c1 45 3c b3 a4 a9 3b 80 26 0f 3c 58 d0 eb bb
       0.012069981 0.0051771044 0.008737206 -0.0071964674
000180 09 6d 08 bc 1c 9b a0 bb 12 8d 10 3c e3 24 10 3c
       -0.008326777 -0.004901303 0.008822696 0.008797857
000190 e0 5c 01 ba 15 26 8d 39 ec 4e 9b 3c 86 c2 b1 3c
       -0.0004934799 0.0002692199 0.018958531 0.021699201
0001a0 f5 11 26 3c 2b 9c 74 3b 3a 5f 96 3c 10 7e 2b 3c
       0.010136117 0.0037324529 0.018355954 0.010467067
0001b0 93 77 04 3a 0a b6 ee 3a 42 af 58 ba d3 ed e6 3b
       0.00050532183 0.0018212211 -0.00082658615 0.007047394
0001c0 69 1b aa 3b 74 08 76 bc 9c f5 e1 3a b3 39 a2 bb
       0.005191256 -0.015016664 0.0017239335 -0.004950726
0001d0 2d d2 e4 ba 70 d6 94 bc 43 77 18 3c 23 db 85 ba
       -0.0017457657 -0.018168658 0.009305778 -0.0010212403
0001e0 f1 16 92 3b f2 5c 2c bc bf 56 1c bc a2 3e a8 3b
       0.0044583012 -0.010520207 -0.009542166 0.0051344195
0001f0 c0 95 f6 bb e6 13 1e bc 8a c4 3e bb 92 44 df bb
       -0.007525176 -0.009648299 -0.0029108846 -0.006813594

action_model._discrete_distribution.branches.0.weight f4 [3, 128]
000000 24 46 05 3c c8 68 3a bc ee 94 d6 bb 79 82 3c bc
       0.008134399 -0.011377521 -0.0065485155 -0.0115057165
000010 f9 e4 a9 3b a3 c3 9f 3c 63 0a 4b bc a8 df 1e 3c
       0.0051847664 0.019502467 -0.012392613 0.0096968785
000020 83 66 af bc fd 76 10 3c 3e 04 7f 3c 34 74 09 bc
       -0.021411186 0.0088174315 0.015564976 -0.008389521
000030 bf 2d 04 bc a3 94 27 bb 96 9a a6 bc 5c 36 bd 3c
       -0.008067547 -0.0025570772 -0.020337384 0.02309721
000040 3a 75 08 bc d1 7e 1d bc 76 40 34 3b c6 4f 8f 3b
       -0.00832873 -0.009612755 0.0027504242 0.0043735234
000050 11 c0 50 3c 70 b8 18 3d b2 f6 36 bb 2c df 56 bc
       0.012741105 0.03728527 -0.0027918038 -0.013114732
000060 60 a4 b7 3c ea d7 18 bb b3 e3 2f 3c 1b 93 f0 3b
       0.022417247 -0.0023322054 0.01073544 0.007341755
000070 49 fb 18 39 ec a8 83 3c 28 eb 48 bc aa 22 8b 3b
       0.0001458946 0.01607176 -0.012263097 0.0042460756
000080 bc bb 5d bc c0 05 6a bc 52 cf 4f bb 87 1e 8b bc
       -0.013533529 -0.0142835975 -0.0031709266 -0.01698233
000090 3f 5d 19 bc 90 a3 5f 3c 8f 5b 7f 3b e2 c7 b1 bc
       -0.0093606105 0.013649836 0.0038964485 -0.021701757
0000a0 8c 7c a2 3a 2f d5 ac 3c f3 d2 9e 39 04 46 9a 3b
       0.0012396737 0.021097748 0.00030293278 0.0047080535
0000b0 0c 29 64 38 37 ff f9 bb c1 d7 0d 3d ef 9d 81 bc
       5.4397664e-05 -0.007629301 0.034629587 -0.015822379
0000c0 59 f2 aa 3c d1 c8 4e b8 d2 fe bc ba f5 ae 9a 3c
       0.020867513 -4.9301252e-05 -0.0014419204 0.018882254
0000d0 15 18 25 38 78 75 b9 b8 9c 74 be 3c 52 a0 89 bb
       3.9361494e-05 -8.843368e-05 0.023248963 -0.00420002
0000e0 2f 99 cf 3a 7f d6 97 3b 1c 34 c6 bc 1c 2f 53 bb
       0.0015838499 0.004633724 -0.02419477 -0.0032224124
0000f0 83 dc 3c 3b b8 d8 5f 3c d5 9d a7 bb cb 42 b1 3c
       0.0028817959 0.01366251 -0.0051152506 0.021638295
000100 29 14 29 3b a3 fd 31 bb 70 da 66 bb bc 6f 92 bc
       0.002579937 -0.0027159236 -0.0035225414 -0.017875545
000110 f7 69 52 3c 09 2c 01 bc 76 c2 ab bc 2c b4 84 bc
       0.012842647 -0.007884034 -0.02096675 -0.016199194
000120 cd 28 a7 3a f5 75 26 3d 68 b1 ca 3c d3 1c 0f 3c
       0.0012753248 0.040639836 0.024742797 0.0087349
000130 21 56 a7 bc 26 fe 05 3d 5c 24 c1 bc d4 5a 1e 3d
       -0.020426812 0.032713078 -0.023576908 0.03866084
000140 71 80 9f bc 9b 61 0e 3d 99 a0 59 3c 07 25 e1 3c
       -0.019470425 0.034761053 0.013282918 0.027483476
000150 c4 f7 94 bc 20 88 e5 3b cf 07 a4 3b 10 fe 40 bb
       -0.01818455 0.0070047528 0.0050058137 -0.0029448308
000160 3d 40 5d 3c 2a bc d9 bb bf c7 dd bb a1 18 33 bc
       0.013504085 -0.0066447454 -0.0067681964 -0.010931165
000170 27 84 e9 3c 18 46 32 bc 4b 62 92 3a 03 c1 a5 bb
       0.028505398 -0.010880969 0.001116821 -0.005058409
000180 83 68 6d ba 1f fa a3 b9 7a c4 a7 ba 50 15 05 3b
       -0.0009056406 -0.00031276137 -0.0012799643 0.0020306893
000190 26 ea b9 3b f3 7c 44 3c 91 a1 03 3d b4 bf 24 3b
       0.0056736646 0.011992681 0.032136504 0.0025138678
0001a0 93 c0 45 bc 05 9a bf bb d9 fc 87 bc ba 26 11 3d
       -0.012069839 -0.005847218 -0.01660006 0.035437323
0001b0 61 bb cc ba e1 47 2c bc 8c 09 23 bc ee 6a 07 bc
       -0.0015619808 -0.010515184 -0.009951007 -0.00826524
0001c0 53 d5 b6 bb d1 7b 42 3c e6 c8 a0 3c 5a ce e4 3a
       -0.0055796294 0.01187034 0.019627046 0.0017456517
0001d0 0f 9e 19 3b 4b 14 70 3c 8f 95 0f bc 95 c5 be bb
       0.0023440158 0.014653276 -0.008763685 -0.0058218935
0001e0 4f 06 09 3b 5f 84 0f 3c 52 2c ef bb 5d fc bc 3a
       0.0020908301 0.008759587 -0.0072989846 0.0014418472
0001f0 3d 64 98 3b 26 20 06 bc c7 bd d0 3a d5 83 ac bb
       0.004650621 -0.008186376 0.0015925699 -0.005264739
000200 e7 dc 7a bc 73 43 99 3c 88 98 cb 3b 81 fd 4f 3c
       -0.015311456 0.01870892 0.0062132515 0.012694717
000210 6a c1 63 3a b2 5e af bc 98 c9 f9 3b ca 4e 1b bc
       0.0008688184 -0.021407459 0.007622909 -0.009479234
000220 ad e8 24 3c f7 74 42 3c fe 7f af bc a7 31 7d 3c
       0.01006524 0.011868707 -0.021423336 0.015453733
000230 46 86 90 3b fd b5 a9 bb 09 f9 36 ba db 14 98 bc
       0.004410538 -0.0051791654 -0.0006979858 -0.018564632
000240 2f 62 27 3c 9b 55 b6 3c 0d 78 67 bb f9 e2 94 3b
       0.01021628 0.022257617 -0.0035319359 0.004543659
000250 96 bd 37 38 2a 64 ff b9 7d 42 4a 3c 0d f1 86 3b
       4.3807166e-05 -0.00048712018 0.012344954 0.004118091
000260 f1 80 1e bd ce 55 5f bc 27 2a 0a bc f0 1c 0b 3c
       -0.038697187 -0.013631297 -0.008432901 0.008490786
000270 e6 d4 a2 3c 0a 1d fe ba 66 dd c4 3c db 3a de 3b
       0.019876909 -0.0019387316 0.024031352 0.0067819185
000280 5d 8f 62 bb 03 6b 8c 3a 45 8d ff bb e3 94 4f bb
       -0.0034570314 0.0010713044 -0.007798823 -0.0031674437
000290 51 86 b0 3c 7f 6a 05 bc 5a fc 6a bc 6c 58 8c 3c
       0.021548422 -0.008143066 -0.014342392 0.017132007
0002a0 6e 5f ad bc 24 e8 9d bc b9 c7 67 bc 14 42 b0 b9
       -0.021163668 -0.019275732 -0.014146739 -0.00033618568
0002b0 03 e2 4c ba dc 21 17 bc 2d 64 21 bd a1 9f 30 3b
       -0.0007815661 -0.009224381 -0.039402176 0.0026950615
0002c0 a8 91 ab bc eb 43 55 bc 1c a5 55 3b af 54 df bc
       -0.020943478 -0.013016681 0.0032599634 -0.02726206
0002d0 bd 97 c1 3b 53 e9 91 bc ac fa ca bc ab 8d 6b 3c
       0.005907981 -0.017811453 -0.024777733 0.014377038
0002e0 19 b6 16 bb ba 70 51 b9 09 22 82 ba 6f 89 70 bb
       -0.0022996722 -0.00019973787 -0.0009928356 -0.003670301
0002f0 6d ef 03 3b 12 bc 04 bc d2 37 2a bc 26 11 c1 bc
       0.0020131723 -0.00810148 -0.010389285 -0.023567747
000300 00 82 02 bc 0f 1e 95 3a 0b 1a 20 bc 3d ee b9 3b
       -0.007965565 0.0011376756 -0.009771834 0.005674152
000310 67 42 7d 3c fc b2 9d bc c7 82 4d 3b 97 76 5f 3c
       0.015457726 -0.019250385 0.0031358467 0.013639114
000320 4f 81 11 3b df 7e a3 bc 27 fd 14 3c 91 83 26 bc
       0.0022202318 -0.019957958 0.009093559 -0.010163204
000330 bb 07 2d 3c e4 20 12 bd aa 49 d8 3a 7d 6c b0 bc
       0.010560925 -0.0356759 0.0016501446 -0.021536106
000340 51 13 c2 b9 3d a5 89 bc 24 10 97 bb 10 27 39 bc
       -0.00037016955 -0.016802425 -0.0046100784 -0.011300817
000350 8f f7 47 bc 04 d4 62 bc 47 a3 80 3c 57 af 7a ba
       -0.012205019 -0.013844494 0.015702857 -0.0009562871
000360 ad e0 26 bc 86 6c f3 bb 68 b0 73 bb b8 21 9a b9
       -0.010185403 -0.0074287085 -0.0037184004 -0.0002939829
000370 01 43 72 bc 55 98 52 bb 9e 5f 16 3c 5f cc d5 3b
       -0.014786483 -0.0032134254 0.00917807 0.006524607
000380 24 d5 0c 3c 1f 95 d9 bc c9 3c 1c 3c a0 ed ba 3b
       0.008595739 -0.026560364 0.009535977 0.0057045966
000390 ca 75 f6 bb a7 00 1b bb 85 63 c5 bc 0a eb 06 3c
       -0.007521366 -0.0023651512 -0.024095306 0.008234749
0003a0 26 1f 58 3c 6c f4 8a b9 35 4c 66 bb 53 d6 08 bd
       0.01319102 -0.0002650352 -0.0035140638 -0.03340752
0003b0 d6 32 21 3c 4d 89 45 bb 40 7c 31 3c e5 90 dc 3b
       0.00983878 -0.0030141652 0.010832846 0.00673114
0003c0 12 d1 0a 3c 8d 59 a5 bc 07 00 cc bc 86 a9 3c b8
       0.008472698 -0.020184303 -0.024902357 -4.4980574e-05
0003d0 ed f3 c0 3c 48 9b 8f bc e4 e0 bb 3b 30 86 84 3a
       0.023553813 -0.017530099 0.005733596 0.0010110792
0003e0 73 c0 e6 ba 84 00 a1 b9 ad b9 b9 bb c7 01 b1 3c
       -0.0017604962 -0.00030708697 -0.005667886 0.021607293
0003f0 ea 77 75 38 af b9 d8 bb 9f 93 9b bb f3 b5 bb 3b
       5.852423e-05 -0.006613932 -0.0047478224 0.005728477

action_model._discrete_distribution.branches.0.bias f4 [3]
000000 63 9b 6c bc d7 48 12 3c f9 09 2c 3c
       -0.014441344 0.008928499 0.010500425

action_model._discrete_distribution.branches.1.weight f4 [2, 128]
000000 20 c1 da 3c 82 01 9c 3c 5e fa de 3b ff bb 57 3c
       0.026703417 0.019043688 0.0068047484 0.01316738
000010 ac 76 69 bc b4 e2 96 3c 83 c2 98 3c e1 36 7c bb
       -0.014249485 0.018418647 0.018647438 -0.0038484859
000020 a7 e7 d5 3c be 24 32 bc 22 8f 36 bc ba 0a 3c 3c
       0.026111437 -0.010873018 -0.011142524 0.011477167
000030 50 f9 c1 bc a2 95 51 bb 25 dd b8 ba b4 fc 04 3d
       -0.023678452 -0.0031980057 -0.0014103992 0.03246756
000040 ca c3 e6 bc 49 18 3c 3d ed 2d 34 bb 37 0c 43 3c
       -0.028169531 0.045921598 -0.0027493194 0.011904768
000050 f9 01 15 3b 81 ef 69 3d 32 0f e5 3a ef 14 0d bd
       0.0022736771 0.057113174 0.0017475842 -0.034443792
000060 3b 57 97 3c 73 e3 55 3c d2 e3 72 bd c9 06 aa 3c
       0.018474212 0.013054716 -0.059299298 0.020755189
000070 79 bc 43 bd 65 bf 6e bb d2 84 ea bc 31 1f 32 bd
       -0.047787163 -0.0036429998 -0.028627787 -0.043486778
000080 91 03 07 bc 14 92 a7 bc a1 d7 88 3c 6b 3e 6e 3c
       -0.008240596 -0.020455398 0.016704382 0.014541249
000090 08 eb 6f 3c 45 c7 10 bb 1c c4 3a bd c6 ee 31 bc
       0.014643438 -0.002209143 -0.04559718 -0.010860151
0000a0 24 0c 1a bd 37 16 6b bb fa eb 94 3c 0c de 19 bb
       -0.037609234 -0.0035871395 0.018178929 -0.0023478298
0000b0 8a 13 1a 3c 01 35 fc 3b 58 58 35 3d 33 94 28 3c
       0.009404073 0.0076967482 0.044273704 0.01028924
0000c0 8d 7a d8 3c 8c 7d a4 3c c8 0c 02 bb 8e 5c 50 3c
       0.026425624 0.020079397 -0.0019844044 0.012717379
0000d0 66 ef 12 bb 83 0a 1e 3c 04 87 a3 bb c4 19 a8 bb
       -0.0022420525 0.009646061 -0.0049904604 -0.0051300246
0000e0 33 6d c5 bc 13 38 f5 b9 40 59 13 3c 4e 45 58 39
       -0.024099922 -0.0004677182 0.008993447 0.00020625183
0000f0 64 54 01 bc 70 64 93 3c 4c d2 d8 ba dc 21 ed bc
       -0.007893655 0.017992228 -0.0016542166 -0.02894681
000100 97 6e 9a bb 4f 51 69 3c 46 98 8e 3c 6b f4 a3 bd
       -0.0047128904 0.014240577 0.017406594 -0.080056034
000110 7c 3e f5 bb 17 9a 86 3b cc 8a da bb 5e be 83 3d
       -0.0074842554 0.0041077244 -0.006669378 0.06432794
000120 a4 8c 70 3b a2 d9 3f bd d9 48 1b 3d 31 09 94 3d
       0.0036704922 -0.04683841 0.03791127 0.072283156
000130 1e d5 5d ba 92 4d e7 ba dc a9 3e bc 5a 98 54 bc
       -0.0008462238 -0.0017647019 -0.011637177 -0.012975777
000140 15 5a 7b 3b 7d 7d 24 bc a9 7b 33 3c 64 02 0f bc
       0.0038353254 -0.010039684 0.010954776 -0.008728597
000150 de 3c a0 bd d2 2b 7c 3c 91 dd 26 3c 03 6b 98 3b
       -0.078241095 0.015391307 0.0101846615 0.0046514287
000160 dc 1e 81 bc 02 83 d4 3b 85 81 68 3c 31 69 ca ba
       -0.015761785 0.006485344 0.014191036 -0.0015442726
000170 55 e7 64 bd 85 ab 5b 3b 9d ac b6 bc 7f ba c0 bb
       -0.055884678 0.0033518982 -0.022299105 -0.005881607
000180 1b 35 84 bc ed b8 c0 bc 00 ce 85 bb 1e 15 df 3b
       -0.016138604 -0.02352568 -0.004083395 0.0068079373
000190 47 e5 5b 3c 1b bb 8c 3c 0f 91 8e bd 22 4a eb bc
       0.013421363 0.017179063 -0.069612615 -0.028721873
0001a0 42 30 55 3d a4 60 fb bb f4 cf 52 bc ff f5 82 3c
       0.052047975 -0.0076714326 -0.012866963 0.01598644
0001b0 4b 48 ee 38 87 d4 4d 3c 50 0d cc bc 53 3e e2 ba
       0.0001136219 0.0125628775 -0.024908692 -0.0017261006
0001c0 d4 9f 55 bc 13 89 3d bc 34 6c d1 3c 07 5d 20 3b
       -0.013038594 -0.011568326 0.02556429 0.002446951
0001d0 2f 52 c3 3b 2a 56 3c 3c fb 8b 13 3c a3 92 7e bc
       0.005960725 0.0114951525 0.009005542 -0.015537891
0001e0 04 5c 0c 3a fa 07 08 3c 51 03 04 3c 0f fb d1 3b
       0.00053542876 0.008302683 0.008057431 0.0064081023
0001f0 08 58 00 ba 62 b7 83 3c 9a 24 76 3c 12 c5 4f bc
       -0.000489593 0.016078655 0.015023375 -0.012681263
000200 ab 51 ec bc 72 7c 29 bd 81 fb 29 3c 59 5f c1 3a
       -0.028847536 -0.041378446 0.010374905 0.0014753147
000210 4b 8e 80 3b b2 a4 81 bc f5 6c af bc b1 ca 21 bb
       0.0039232126 -0.015825603 -0.02141426 -0.0024687464
000220 38 3b 76 bc 1c 35 83 3c aa 51 61 3a a4 22 0b bd
       -0.015028767 0.016016535 0.0008595238 -0.033968583
000230 99 fa da 3c 11 30 c8 3c a2 58 53 3b c4 4d ed bc
       0.026730822 0.024436982 0.0032248874 -0.028967746
000240 1b d7 15 3d 7a d2 1e bd 97 e5 42 3c 2a 95 6e bc
       0.036582094 -0.038774945 0.011895559 -0.014561931
000250 00 bd 21 3c f0 e3 59 bd bd f5 b5 bb 45 c7 b7 3c
       0.009871721 -0.053195894 -0.005552976 0.022433886
000260 56 b4 85 3b c3 89 03 bc 1c fa 59 3d fc 2c 85 3a
       0.0040803356 -0.00802845 0.05321704 0.0010160501
000270 80 aa f3 3c 53 e4 73 bc 56 b7 6a 3c fe c2 0a 3d
       0.029744387 -0.01488598 0.014325937 0.033877365
000280 ce 3c 2b bc 13 96 95 3c 85 28 11 bd 96 ff 4b bc
       -0.010451509 0.018260038 -0.035439033 -0.012451073
000290 18 b5 3e bc a0 66 ee 3b bb 6c 48 3d b3 c2 9a 3c
       -0.011639856 0.0072754174 0.04893182 0.018891668
0002a0 51 37 aa 3c 47 b7 23 3b 7a a2 c2 bc b0 e0 a4 b9
       0.02077833 0.0024981068 -0.023759115 -0.00031447923
0002b0 98 f0 98 3b 39 41 38 3b 9a 52 19 bd 80 66 68 bc
       0.004667353 0.0028115048 -0.03743229 -0.014184594
0002c0 f7 f5 41 bc 0b 67 cb 3b 83 7c 81 bc 72 4e 33 bc
       -0.011838428 0.006207352 -0.015806442 -0.010943996
0002d0 08 40 41 bc 80 80 04 3b da ef d8 3c 9b ca 8e bb
       -0.011795051 0.0020218194 0.026481558 -0.0043576485
0002e0 1a 35 db 3c 5b 5c a1 3b 52 d8 67 3c 8c 26 1f 3c
       0.02675872 0.0049243397 0.014150696 0.00971378
0002f0 b5 05 23 bc 0c 32 7e bc ab 1f 9a 38 ae 22 f1 3c
       -0.009950091 -0.015514862 7.349191e-05 0.029435482
000300 2d 48 ac 3a c5 d4 cd bb 84 0e cb bc 1a 9d 45 3d
       0.0013144069 -0.0062814676 -0.024787195 0.048245527
000310 ec 0d 7d 3c 28 f8 5e bc ff b9 ae ba cd 8c 45 bd
       0.015445214 -0.01360897 -0.0013330578 -0.04822998
000320 5e 71 8e 3a 36 f6 eb 3c 00 7b 3e bd de bb 63 bd
       0.0010867526 0.028803926 -0.04650402 -0.055599086
000330 5c 87 b9 bb 9a d1 15 3a ff 25 94 3b ba 71 18 3c
       -0.005661888 0.0005715132 0.004521131 0.009304458
000340 fd 0e 4a bc 0a 5d 94 3c cf 1a 8a bc 19 97 41 bb
       -0.012332675 0.01811077 -0.016858486 -0.0029539524
000350 26 d3 58 3d 56 52 b7 3b 66 2b 6e bc e9 f8 ba 3b
       0.05293574 0.005594532 -0.014536714 0.005705942
000360 dc 43 86 3c 38 58 c1 bb d9 8d 9f bc 97 36 7e 3b
       0.01638978 -0.005900409 -0.019476818 0.0038789862
000370 30 3e 6a 3d 89 c1 f2 ba 83 e3 20 bc f2 fa b9 bb
       0.057188213 -0.0018520813 -0.009819868 -0.005675667
000380 a7 e1 88 ba dd 0d 6d 3b f2 5c 9b b9 cd 6a b2 3c
       -0.0010443226 0.0036171593 -0.00029633153 0.021779442
000390 04 32 14 bd 3e 49 82 b9 8e 03 0c 3d 0c 3a 14 3d
       -0.03618051 -0.00024850102 0.034183078 0.03618817
0003a0 e3 47 3d bd b6 93 1d 3c 97 91 b8 3c 25 2f ca bb
       -0.046211135 0.009617737 0.02253036 -0.006170171
0003b0 f9 92 32 bc 4c b7 a1 3b f5 45 a3 3a d8 05 2e bc
       -0.010899299 0.004935181 0.0012456762 -0.01062151
0003c0 47 51 57 3c 58 02 c9 3b 89 e5 37 bc bc 0f 19 3c
       0.013141937 0.0061343126 -0.011224159 0.00934213
0003d0 61 f3 45 bc 67 ae e9 bc 2b fa 60 bb d6 49 13 3c
       -0.012081952 -0.028525544 -0.00343288 0.008989772
0003e0 a1 8c 08 bd 37 d1 16 3c c3 00 a7 bb 0e ae 23 bc
       -0.03333724 0.009205154 -0.0050965264 -0.009990228
0003f0 df 4f d5 3b 3a a5 1f bb f6 eb c4 bb 7b 99 19 bc
       0.0065097655 -0.0024359957 -0.006009574 -0.0093749715

action_model._discrete_distribution.branches.1.bias f4 [2]
000000 3a 25 99 ba 4d 25 99 3a
       -0.0011684068 0.001168409
