results/Test4/BossAi/BossAi-156444.onnx (onnx, 79397 bytes, 9 tensors)

discrete_act_size_vector f4 [1, 2]
3.0 2.0
00000000: 0000 4040 0000 0040

network_body._body_endoder.seq_layers.0.weight f4 [128, 6]
-1.0601056 -0.07543835 -0.08230848 0.050688062 0.7089053 -0.42467108 -0.17765933 -0.38982943
-0.24630849 0.851027 0.1958152 -0.39988387 0.51480764 0.2753346 0.078080565 0.17305571
0.42325145 -0.6676362 0.13673514 0.35038346 0.12041704 0.036655 -0.26174065 -0.15621333
0.35164788 -0.1309859 0.26197636 -0.7364434 0.13598444 0.7475102 -0.20789294 0.27286214
0.538324 0.59524333 -0.16783676 0.5286864 -0.30400452 0.38317287 -0.026874475 0.3730151
0.6437282 -0.85107553 -0.66519576 0.010167209 0.18950364 0.21391693 0.38800943 -0.12905116
0.1414768 -0.3270928 0.19736938 0.02476477 -0.29921532 0.7452417 -0.3104572 -0.3938162
0.06438632 -0.0719756 0.3993094 -0.4151588 -0.05633163 -0.2897789 -0.40756577 -0.03318933
-0.20547523 -0.61022097 -0.4112901 0.01641142 -0.73581684 -0.04538326 -0.11148604 0.3656565
0.5288051 0.8000287 0.35713628 0.28966486 0.21805982 0.39117527 0.48216736 0.23850869
0.5683468 0.17574218 0.3684092 -1.0852903 0.5821615 -0.225121 -0.4928651 0.11277893
0.45997408 -0.21654953 0.21641622 0.53106904 -0.53683835 0.36755633 -0.025472492 0.03151366
-0.18307601 -0.2684224 -0.02690784 0.001844412 -0.7706911 -0.5020226 0.25365013 -0.45236793
0.62980914 0.3124368 0.35275602 -0.015856966 0.59444404 -0.42013428 0.020673836 0.17512026
-0.08993663 0.33123803 -0.24142167 0.15312596 0.14163291 0.37553853 0.5325391 -0.60756063
-0.009328468 0.60577685 0.3990921 -0.416124 0.28299966 -0.32486188 0.23123975 0.22590159
0.027808093 0.5460288 0.102474384 -0.96568453 0.16006213 -0.09696165 0.7351003 0.88010365
-0.5389859 0.12657124 -0.2634492 0.957876 0.44613525 -0.36993927 0.7980396 -0.17073338
-0.11408578 0.24172604 -0.4376816 -0.148306 0.38562864 0.50723517 -0.25668463 -0.61818534
-0.34573087 0.3183073 -0.23365831 0.3863436 0.4228557 0.31159785 0.5367293 -0.41554502
-0.34506357 0.06759656 0.85115427 0.6317756 -0.16381092 -0.045883074 -0.31188437 0.3125677
-0.3082666 -0.23950817 0.45228365 -0.32721975 0.15806869 -0.09415407 -0.23590696 -0.23800404
-0.12593651 -0.79433095 -0.45158318 0.470923 0.047175184 -0.21318094 0.042859018 0.34564748
0.877229 0.18970165 0.20504376 -0.29613328 0.7285426 -0.11197698 0.08092868 -0.17959116
0.22083862 -0.15246134 0.20032771 -0.4766259 -0.33551005 0.5098361 0.35751182 -0.23121664
0.2273017 0.24169709 0.40151227 0.3309887 0.25757015 -0.112395905 -0.57400715 0.10315662
-0.009871816 -0.38332516 0.10027569 0.20537828 -0.6201416 -0.069464505 -0.15474866 -0.17252326
-0.5785489 -0.30086067 0.11165272 0.24716523 -0.43804327 0.207741 0.24735829 0.5948737
-0.58224237 -0.09436389 0.6008129 0.33461937 0.28151944 0.66214186 -0.16017313 -0.13013524
-0.49429113 -0.0040510437 0.46040824 0.02599829 0.45636633 0.35183588 0.52775216 0.6617634
-0.1177617 -0.48381388 0.046944275 -0.19490074 -0.7793727 -0.24291669 0.18261397 0.13823543
0.72115195 0.60626626 0.53086907 -0.23118402 -0.1678879 0.018611362 -0.4581 -0.026749235
00000000: 8ab1 87bf 6c7f 9abd 5991 a8bd 499e 4f3d
00000010: d17a 353f 7d6e d9be 54ec 35be b997 c7be
00000020: 4b38 7cbe e8dc 593f c883 483e 94bd ccbe
00000030: 6fca 033f a8f8 8c3e b4e8 9f3d 8435 313e
00000040: 6ab4 d83e 35ea 2abf 4c04 0c3e 7665 b33e
00000050: 369d f63d 8e23 163d df02 86be 63f6 1fbe
00000060: 310b b43e 2b21 06be c421 863e 8e87 3cbf
00000070: 813f 0b3e d45c 3f3f e3e1 54be 96b4 8b3e
00000080: 9acf 093f de61 183f 66dd 2bbe fe57 073f
00000090: 7ba6 9bbe 3c2f c43e dc27 dcbc d6fb be3e
000000a0: 5fcb 243f 16e0 59bf 454a 2abf 5e94 263c
000000b0: 3e0d 423e 0a0d 5b3e 2ca9 c63e fd25 04be
000000c0: 4bdf 103e b578 a7be 331b 4a3e 7ddf ca3c
000000d0: c032 99be 29c8 3e3f 3ff4 9ebe 47a2 c9be
000000e0: fadc 833d f267 93bd 4872 cc3e b28f d4be
000000f0: ffbb 66bd e65d 94be 76ac d0be 89f1 07bd
00000100: 1968 52be 7137 1cbf 9e94 d2be 3e71 863c
00000110: 7e5e 3cbf cce3 39bd cb52 e4bd 5437 bb3e
00000120: c55f 073f aece 4c3f 91da b63e f44e 943e
00000130: 134b 5f3e 2048 c83e a4de f63e 9f3b 743e
00000140: 2d7f 113f c2f5 333e 21a0 bc3e cbea 8abf
00000150: 8908 153f 1f86 66be d058 fcbe a4f8 e63d
00000160: b981 eb3e 29bf 5dbe 379c 5d3e 24f4 073f
00000170: 3d6e 09bf 5830 bc3e b0ab d0bc 7814 013d
00000180: 4778 3bbe a96e 89be d56d dcbc 32c0 f13a
00000190: 034c 45bf 8e84 00bf 6ede 813e c59c e7be
000001a0: 2c3b 213f b7f7 9f3e 709c b43e 78e6 81bc
000001b0: 7c2d 183f d71b d7be 2d5c a93c ba52 333e
000001c0: b230 b8bd 0898 a93e 3e37 77be 0dcd 1c3e
000001d0: 3808 113e 9646 c03e 7c54 083f 1889 1bbf
000001e0: 6ed6 18bc 3114 1b3f cd55 cc3e 340e d5be
000001f0: 55e5 903e 4c54 a6be 1dca 6c3e bf52 673e
00000200: cccd e33c 8bc8 0b3f 17de d13d 1a37 77bf
00000210: 54e7 233e d493 c6bd 892f 3c3f 794e 613f
00000220: fbfa 09bf e49b 013e d0e2 86be 5d37 753f
00000230: d76b e43e ae68 bdbe 534c 4c3f bbd4 2ebe
00000240: cea5 e9bd 0887 773e cd17 e0be 87dd 17be
00000250: 1e71 c53e 2ada 013f 2b6c 83be 6541 1ebf
00000260: a303 b1be 2df9 a23e 2044 6fbe d4ce c53e
00000270: 8b80 d83e c189 9f3e 1767 093f 51c2 d4be
00000280: 2cac b0be 1170 8a3d 3fe5 593f 0cbc 213f
00000290: 0dbe 27be e4ef 3bbd 4faf 9fbe e008 a03e
000002a0: 1fd5 9dbe a141 75be b991 e73e 5989 a7be
000002b0: c2dc 213e d9d3 c0bd 9891 71be 55b7 73be
000002c0: 80f5 00be 4659 4bbf e935 e7be d21c f13e
000002d0: c43a 413d 1b4c 5abe f08c 2f3d b5f8 b03e
000002e0: 1492 603f 2641 423e fef6 513e c89e 97be
000002f0: c581 3a3f 3054 e5bd f0bd a53d bfe6 37be
00000300: 8523 623e d31e 1cbe b522 4d3e 4f08 f4be
00000310: f9c7 abbe 9e84 023f ca0b b73e 0ec4 6cbe
00000320: c7c1 683e 717f 773e 0493 cd3e 5a77 a93e
00000330: 3ce0 833e d32f e6bd 22f2 12bf c743 d33d
00000340: 66bd 21bc 3243 c4be 575d cd3d af4e 523e
00000350: 9ac1 1ebf 6843 8ebd 6f76 1ebe f0a9 30be
00000360: c81b 14bf 690a 9abe 2eaa e43d e218 7d3e
00000370: 3547 e0be 0fba 543e 7e4b 7d3e a549 183f
00000380: d60d 15bf db41 c1bd e0ce 193f 3b53 ab3e
00000390: 5123 903e 2182 293f 6d04 24be 2c42 05be
000003a0: ba13 fdbe 9ebe 84bb a1ba eb3e 5efa d43c
000003b0: d9a8 e93e d523 b43e c41a 073f 5469 293f
000003c0: 0c2d f1bd 74b6 f7be a448 403d 0f94 47be
000003d0: f884 47bf 27bf 78be 28ff 3a3e 978d 0d3e
000003e0: 6a9d 383f 4434 1b3f 09e7 073f 81bb 6cbe
000003f0: ceea 2bbe db76 983c 158c eabe 3621 dbbc

network_body._body_endoder.seq_layers.0.bias f4 [128]
0.00044130004 0.01016809 0.0035908201 0.0044115265 -0.00513097 0.01706017 0.0033088357 -8.192485e-05
0.018907074 0.01418851 0.017600337 0.020089101 -0.0019407782 -0.00031190776 0.04762178 0.032339893
0.0154963285 -0.00060083333 0.0024137304 0.011574675 0.002969024 0.012461178 0.0118856765 0.018653665
0.0021388954 -0.013607062 -0.009651057 -0.017043626 0.04014533 -0.003757242 0.01405883 0.011909747
0.011120272 0.010698258 0.007094087 0.007081482 0.01744687 0.025263028 0.004503254 -0.0002671784
0.028068908 -0.0032443283 0.0118333 -0.007939579 0.048757683 0.03649194 0.004207513 -0.022809288
0.008540815 0.051425777 -0.0008895403 -7.543091e-05 0.0019396478 0.021597475 -0.0073281596 0.026958609
-0.018387368 -0.0067815664 -0.022595618 -0.0017188957 0.011561556 0.01497039 0.016944375 0.00074927765
0.016177058 -0.009000161 0.0071866466 0.022687461 -0.008324198 0.012223012 0.019554334 0.002143409
-0.0069772964 0.017250437 -0.006795424 -0.015561008 0.0062926663 0.0020433124 0.025107069 0.0049855257
0.0024263188 0.020429129 -0.002725671 -0.007439687 0.023342717 0.0042646932 -0.0039555444 0.027381137
-0.00014078178 0.011183724 0.011957017 0.0047058477 0.008233568 0.024953382 0.016215155 0.0041232794
0.004078135 0.008843101 0.009523061 0.0054581505 -0.004582481 0.012821257 -0.0066649364 -0.017479686
-0.002781976 0.01129174 -0.00046880072 0.014332351 0.03007264 0.009833808 -0.0029290766 -0.0010054684
0.011731595 0.00022125906 0.009816508 0.022810806 0.0027890538 0.01586977 0.021189054 0.004524445
-0.020039136 0.0063457326 0.0119112255 -0.008536847 -0.0033333492 0.00047708844 0.03630084 -0.0135634225
00000000: 4a5e e739 1098 263c f753 6b3b 918e 903b
00000010: b221 a8bb c5c1 8b3c 0dd9 583b 12cf abb8
00000020: 02e3 9a3c ed76 683c 952e 903c e691 a43c
00000030: b661 feba 8d87 a3b9 0e0f 433d d676 043d
00000040: 50e4 7d3c 3e81 1dba ad2f 1e3b b5a3 3d3c
00000050: f593 423b f829 4c3c 24bc 423c 92cf 983c
00000060: b62c 0c3b 28f0 5ebc 781f 1ebc 139f 8bbc
00000070: 6e6f 243d 103c 76bb 0257 663c 1921 433c
00000080: cd31 363c bf47 2f3c 8475 e83b c70b e83b
00000090: bdec 8e3c 69f4 ce3c 0890 933b 1414 8cb9
000000a0: c4f0 e53c cc9e 54bb 75e0 413c 0215 02bc
000000b0: 23b6 473d 9378 153d 2ddf 893b 8bda babc
000000c0: c6ee 0b3c d6a3 523d 0a30 69ba a930 9eb8
000000d0: c83b fe3a 30ed b03c 0f21 f0bb 4dd8 dc3c
000000e0: 1ba1 96bc e737 debb 721a b9bc 924c e1ba
000000f0: ae6c 3d3c 5e46 753c eece 8a3c 2c6b 443a
00000100: c085 843c 6975 13bc f67d eb3b 0edb b93c
00000110: 3862 08bc 0743 483c 6930 a03c 7078 0c3b
00000120: cea1 e4bb ca50 8d3c 26ac debb 99f3 7ebc
00000130: b632 ce3b 18e9 053b 57ad cd3c 9f5d a33b
00000140: e002 1f3b fd5a a73c 2ca1 32bb 9ec8 f3bb
00000150: 3a39 bf3c d7be 8b3b 839d 81bb 684e e03c
00000160: d29e 13b9 f03b 373c 5de7 433c 8333 9a3b
00000170: 16e6 063c 096b cc3c a5d5 843c 931c 873b
00000180: e0a1 853b a7e2 103c 9d06 1c3c 49da b23b
00000190: a328 96bb 4010 523c 8a65 dabb 8f31 8fbc
000001a0: d051 36bb fe00 393c 5ec9 f5b9 3dd2 6a3c
000001b0: e65a f63c fb1d 213c c0f5 3fbb ecc9 83ba
000001c0: e035 403c c701 6839 6bd5 203c badd ba3c
000001d0: 8fc8 363b 5201 823c ab94 ad3c cc41 943b
000001e0: 1d29 a4bc ddef cf3b 4d27 433c 22de 0bbc
000001f0: 5274 5abb ba21 fa39 31b0 143d 1e39 5ebc

network_body._body_endoder.seq_layers.2.weight f4 [128, 128]
-0.05827765 0.10333523 0.01522954 -0.15320292 0.038554937 -0.03349014 0.04219686 -0.009743227
-0.059145864 0.030432155 0.113098234 0.05806992 0.032287303 0.04465313 0.09611525 0.09936027
-0.0493371 0.11046902 0.07994958 -0.126769 0.2071364 0.039659806 -0.061931364 0.031383473
-0.0026175496 -0.021032346 0.15603478 -0.0351692 -0.16451524 -0.038599588 0.06023171 0.07753007
0.14876907 0.0034042196 0.030000057 -0.0321195 0.065460496 0.06948107 -0.0016983727 0.030882828
-0.07042491 -0.094882146 0.019700991 -0.04399218 -0.17585655 0.02078533 0.08133912 -0.07690715
0.014632 0.008798768 0.14461951 -0.09190268 0.0686953 0.054987237 0.06375124 0.052137356
0.10686261 0.106890336 -0.026694164 -0.07941957 -0.044218753 0.020684699 -0.037312247 0.005235733
-0.19339351 0.02691028 0.019160759 0.037447143 -0.10268153 -0.04376754 -0.19500165 0.03067825
0.0071389447 -0.2138316 -0.030568032 -0.08692244 0.085953444 -0.053733367 -0.028158069 -0.15929648
-0.08135228 -0.06957202 -0.1665462 -0.09932099 0.03629736 0.118018955 0.0736978 0.09070195
0.034206357 0.0028378223 0.061425447 -0.04041298 -0.07635471 -0.014033796 -0.19063893 -0.0554558
0.10379255 -0.042705912 -0.109165184 0.013356578 0.017134337 -0.03754673 0.025939694 -0.037024032
0.15976931 0.0928465 0.11098647 -0.024587452 -0.035030622 0.09591136 0.1343295 0.0118727945
-7.00491e-05 0.06384516 -0.1098767 -0.09104732 -0.10494901 0.023288952 -0.043559715 0.014595722
-0.13219069 0.15802515 0.17837259 0.0072722635 0.025717856 -0.06602626 0.013065744 0.07303962
-0.024999402 0.10673327 0.040052656 -0.0054185614 -0.14013024 0.05291238 0.013822223 0.1205592
-0.08739204 0.030194419 0.08046212 -0.031990927 0.039338715 -0.04664288 -0.12451039 -0.08636425
-0.018356876 0.0433279 -0.0083856 -0.048250515 -0.02962362 0.06591442 0.2528373 -0.035295524
0.14548066 0.016969578 0.0028879207 -0.008119325 -0.083483115 -0.05171992 -0.094296895 0.1346241
-0.062630266 -0.16465059 -0.11913536 -0.07188999 -0.07066765 0.04025878 -0.16544393 0.11845057
-0.16146103 -0.08471109 0.04509098 -0.07387955 0.035902184 0.25004867 0.12337558 -0.06265263
0.040795576 0.08530613 0.028741071 -0.044571113 0.06525411 0.07452001 0.0062371846 0.09289417
-0.114922374 -0.033052295 0.02487447 0.0019339405 0.09321063 0.10130636 -0.04703993 -0.06827309
0.12584883 0.04278435 -0.2692374 0.12881397 0.031742077 -0.05311696 -0.15723616 0.13938732
0.015069766 0.052367207 0.064947635 -0.03558925 0.0366863 -0.03163003 0.027567528 -0.009854303
0.029870996 -0.12161258 0.03406944 0.0017939045 0.041229624 0.010540843 0.14708446 0.098854035
-0.093187526 -0.09977759 0.104046956 0.018708462 -0.14810888 0.05763035 0.2041614 -0.010778484
-0.025458595 0.0010545976 0.019081522 0.10959618 -0.08047201 -0.06687626 -0.05263031 -0.061810803
0.06113694 0.1313298 0.07217796 0.13304588 -0.110299274 -0.06682583 -0.075952016 -0.010926248
-0.08802361 0.12056456 -0.02702175 0.024302665 -0.05288392 0.090342015 0.14048028 0.042255588
-0.04394196 -0.14047165 -0.14277129 0.12516263 0.018579243 0.036803182 0.101206854 0.04973705
00000000: 8cb4 6ebd 6ca1 d33d 5285 793c 3ae1 1cbe
00000010: c8eb 1d3d f52c 09bd 9dd6 2c3d 0ea2 1fbc
00000020: ef42 72bd db4c f93c 0ca0 e73d b9da 6d3d
00000030: b13f 043d 33e6 363d 12d8 c43d 667d cb3d
00000040: b315 4abd 953d e23d 9bbc a33d bccf 01be
00000050: 901b 543e 5272 223d beab 7dbd f58b 003d
00000060: 328b 2bbb 074c acbc 95c7 1f3e 940d 10bd
00000070: af76 28be 9a1a 1ebd 87b5 763d 16c8 9e3d
00000080: eb56 183e 5419 5f3b aec2 f53c bd8f 03bd
00000090: 2710 863d 174c 8e3d ee9b deba fcfd fc3c
000000a0: ef3a 90bd 9251 c2bd f963 a13c 2531 34bd
000000b0: bd13 34be ff45 aa3c 2095 a63d 7f81 9dbd
000000c0: 0ebb 6f3c b528 103c 2317 143e 7937 bcbd
000000d0: 1fb0 8c3d 4c3a 613d 0390 823d fb8d 553d
000000e0: c9da da3d 52e9 da3d b8ad dabc baa6 a2bd
000000f0: b91e 35bd f572 a93c bad4 18bd 8390 ab3b
00000100: f308 46be f372 dc3c 06f7 9c3c 2d62 193d
00000110: b24a d2bd 9845 33bd 83ae 47be f450 fb3c
00000120: cfed e93b acf6 5abe cf69 fabc 6404 b2bd
00000130: 5c08 b03d 8517 5cbd c0ab e6bc 9e1e 23be
00000140: 069c a6bd c67b 8ebd 168b 2abe ce68 cbbd
00000150: 8aac 143d ecb3 f13d dfee 963d f2c1 b93d
00000160: f71b 0c3d c2fa 393b 4099 7b3d 1588 25bd
00000170: dc5f 9cbd 02ee 65bc da36 43be 9f25 63bd
00000180: 3091 d43d 65ec 2ebd ff91 dfbd 8cd5 5a3c
00000190: 4f5d 8c3c 9aca 19bd 7b7f d43c 83a6 17bd
000001a0: 919a 233e 4e26 be3d e04c e33d a06b c9bc
000001b0: 457c 0fbd 2d6d c43d ac8d 093e 1c86 423c
000001c0: 53e7 92b8 40c1 823d 0907 e1bd 0477 babd
000001d0: 82ef d6bd 79c8 be3c ac6b 32bd e522 6f3c
000001e0: ff5c 07be 58d1 213e 4ea7 363e 2b4c ee3b
000001f0: 41ae d23c c738 87bd b411 563c cc95 953d
00000200: 8ccb ccbc f996 da3d 410e 243d 308e b1bb
00000210: 4d7e 0fbe a7ba 583d 9b76 623c bee7 f63d
00000220: 99fa b2bd 495a f73c 53c9 a43d eb08 03bd
00000230: a221 213d 9b0c 3fbd 4eff febd bddf b0bd
00000240: 2961 96bc 9978 313d c163 09bc 55a2 45bd
00000250: 3cad f2bc 24fe 863d e473 813e 0a92 10bd
00000260: e2f8 143e c903 8b3c 4543 3d3b eb06 05bc
00000270: 32f9 aabd 44d8 53bd bb1e c1bd e6da 093e
00000280: 4c44 80bd 2a9a 28be 3dfd f3bd 0f3b 93bd
00000290: 33ba 90bd 64e6 243d 226a 29be 3696 f23d
000002a0: 0a56 25be 027d adbd 52b1 383d 294e 97bd
000002b0: 2b0e 133d 6106 803e 56ac fc3d 0650 80bd
000002c0: 4319 273d fbb4 ae3d 6572 eb3c 3390 36bd
000002d0: f2a3 853d f29d 983d 4c61 cc3b 4c3f be3d
000002e0: 6c5c ebbd d861 07bd 8bc5 cb3c 467c fd3a
000002f0: 37e5 be3d b579 cf3d f1ac 40bd c3d2 8bbd
00000300: 84de 003e a53e 2f3d 7cd9 89be cfe7 033e
00000310: fb03 023d 2b91 59bd 8402 21be 8dbb 0e3e
00000320: 2ee7 763c ff7e 563d 4403 853d 09c6 11bd
00000330: 6044 163d 7e8e 01bd 4cd5 e13c f173 21bc
00000340: 05b4 f43c 0410 f9bd 668c 0b3d 7221 eb3a
00000350: 65e0 283d 80b3 2c3c 4f9d 163e fc73 ca3d
00000360: 1ad9 bebd 3158 ccbd 9216 d53d 7d42 993c
00000370: dba9 17be cd0d 6c3d b00f 513e 3d98 30bc
00000380: 8b8e d0bc 6c3a 8a3a da50 9c3c f673 e03d
00000390: 82ce a4bd 6cf6 88bd e192 57bd 532d 7dbd
000003a0: ba6a 7a3d 527b 063e 0ad2 933d 2e3d 083e
000003b0: 96e4 e1bd fbdb 88bd bb8c 9bbd 0104 33bc
000003c0: b945 b4bd 8dea f63d b85c ddbc 6216 c73c
000003d0: cf9c 58bd 3c05 b93d 10da 0f3e 3214 2d3d
000003e0: 7cfc 33bd cdd7 0fbe a332 12be a22a 003e
000003f0: 7f33 983c efbe 163d 8a45 cf3d 14b9 4b3d

network_body._body_endoder.seq_layers.2.bias f4 [128]
0.005107492 0.011498636 -0.004701882 -0.0024834736 -0.0073785586 -0.00069411186 0.006670562 -0.0075929076
0.01999187 0.005119648 -0.004426257 0.013234155 0.0003282124 -0.000945667 0.010035864 0.0036600966
0.01787713 0.013485549 -0.008875458 -0.0100061 -0.010212619 -0.0033593576 -0.0014801559 0.013260746
0.009411888 -0.011041645 0.008188247 -0.006845916 0.0049566524 -0.01034245 0.014114131 0.0046262513
0.002203896 0.004092452 0.008245783 0.0046597207 0.0051660836 0.0017977448 0.018242735 0.011846904
-9.4682066e-05 0.0006160517 -0.00409356 -0.0061759176 -0.00867917 -0.0019210335 0.008801851 0.0020783271
-0.0011855693 -0.0066870153 -0.0010162086 0.0016309882 -0.0055524893 -0.0067016887 0.014552745 0.010207537
-0.003003583 -0.005763106 0.013110116 -0.0036791724 -0.007068364 -0.002148644 -0.008723822 -0.01103475
0.0011741043 -0.0008512377 -0.0017711113 0.019722925 0.0010398803 -0.0035224075 0.010216262 0.03173021
-0.00030432077 0.026624508 0.0036994286 -0.013011866 0.012750303 0.012642735 0.009502532 0.0065410933
0.006734748 0.004460017 -0.0016810062 -0.0021689343 0.018418977 -0.0050404775 0.0027574466 -4.592255e-05
-0.008541117 0.0007246838 0.0049262797 0.0017312573 0.018921968 0.00468799 0.006127809 -0.0057434225
-0.0048500495 -0.0030139005 0.008232068 0.0038466228 0.0034015637 -3.9647075e-05 0.026643734 0.016082685
0.015070769 0.0007590742 0.013923435 0.0067624967 0.0006271333 0.005520485 -0.0019485257 0.0092477
0.0015902916 -0.015162158 0.005438432 -0.006220167 -3.3495686e-05 -0.014719344 0.012804008 -0.004466763
0.0061832177 -0.009314672 -0.0039472934 0.002717585 -0.006076874 -0.01362179 -0.0003669353 -0.0054178163
00000000: c05c a73b c664 3c3c 3f12 9abb c6c1 22bb
00000010: d6c7 f1bb 0ff5 35ba bb94 da3b edcd f8bb
00000020: fdc5 a33c b8c2 a73b 230a 91bb 12d4 583c
00000030: ec13 ac39 a3e6 77ba 776d 243c 3bde 6f3b
00000040: 0f73 923c 7ef2 5c3c 5e6a 11bc a0f0 23bc
00000050: d452 27bc ab28 5cbb ca01 c2ba 9a43 593c
00000060: 5234 1a3c 04e8 34bc ff27 063c b553 e0bb
00000070: 6a6b a23b 6173 29bc f53e 673c cf97 973b
00000080: 3d6f 103b fa19 863b 5219 073c 92b0 983b
00000090: 4048 a93b 4ea2 eb3a ca71 953c 8419 423c
000000a0: 0c90 c6b8 887e 213a 4523 86bb 5a5f cabb
000000b0: 1433 0ebc 30cb fbba a435 103c 8b34 083b
000000c0: 1b65 9bba c01e dbbb 4d32 85ba e2c6 d53a
000000d0: a8f1 b5bb d799 dbbb a36e 6e3c 833d 273c
000000e0: c3d7 44bb 70d8 bcbb d0cb 563c 451e 71bb
000000f0: bc9d e7bb 44d0 0cbb 5dee 0ebc 19cb 34bc
00000100: 67e4 993a 9825 5fba a224 e8ba f991 a13c
00000110: 984c 883a 31d8 66bb 1c62 273c 89f7 013d
00000120: 3e8d 9fb9 a41b da3c 1d72 723b b92f 55bc
00000130: a6e6 503c 7923 4f3c 82b0 1b3c ab56 d63b
00000140: 29af dc3b 5625 923b 3555 dcba ae24 0ebb
00000150: 65e3 963c 972a a5bb 47b6 343b f69c 40b8
00000160: 0bf0 0bbc b5f8 3d3a a16c a13b 5beb e23a
00000170: 3e02 9b3c b69d 993b cacb c83b 5233 bcbb
00000180: 2aed 9ebb dc84 45bb ccdf 063c 9f17 7c3b
00000190: c5ec 5e3b b94a 26b8 f643 da3c d6bf 833c
000001a0: 63eb 763c 9bfc 463a 1e1f 643c ef97 dd3b
000001b0: 3466 243a 2fe5 b43b ac65 ffba aa83 173c
000001c0: 5571 d03a b36a 78bc e034 b23b 8bd2 cbbb
000001d0: b87d 0cb8 6729 71bc e7c7 513c ed5d 92bb
000001e0: 979c ca3b 919c 18bc 4c58 81bb 8319 323b
000001f0: 8420 c7bb ee2d 5fbc 3961 c0b9 f087 b1bb

action_model._discrete_distribution.branches.0.weight f4 [3, 128]
0.010000947 -0.009521212 -0.0058713723 -0.0116602285 0.0054541826 0.018737053 -0.01122474 0.010436916
-0.018930389 0.008131973 0.01560252 -0.007302221 -0.0074913385 -0.0030413438 -0.019765299 0.02358378
-0.008958161 -0.0068381387 0.0026120686 0.004683836 0.012641242 0.028363643 -0.00072402065 -0.013307486
0.020877011 -0.0029851978 0.0077705486 0.0071343966 -0.00023163858 0.01658115 -0.012408446 0.0039416226
-0.012814697 -0.01442739 -0.0018435738 -0.018284028 -0.0077403546 0.012647976 0.0034520773 -0.02138801
0.0011819545 0.020000763 -0.00067769445 0.0061285067 0.0007170429 -0.007344422 0.031711984 -0.015454601
0.017135516 0.0008313492 -0.0007198936 0.017281843 0.0008892448 -0.00060500694 0.025774894 -0.0038995831
0.0013643522 0.0036859065 -0.024037382 -0.0026595644 0.00362883 0.014771466 -0.004968597 0.021844415
0.0034289174 -0.0018711083 -0.0022745947 -0.019505877 0.012502432 -0.0073881834 -0.020759616 -0.013579604
0.0017340602 0.032238986 0.02125183 0.0019180164 -0.019944591 0.029610049 -0.022545308 0.036175832
-0.018778292 0.029028678 0.01327891 0.028114961 -0.019075224 0.007178305 0.006631873 -0.0029463132
0.015091449 -0.005748134 -0.0054125637 -0.010780822 0.032511987 -0.010449261 0.0021019403 -0.0042223977
0.0035200233 -0.00076830154 -0.00074832473 0.0017810628 0.0065370393 0.0166184 0.035043832 0.002280846
-0.009253105 -0.005929748 -0.017560447 0.032943968 -0.0023017726 -0.00973463 -0.0092972135 -0.0075920443
-0.0056403414 0.011697352 0.016006183 0.00026820778 0.0028892308 0.014918118 -0.007987056 -0.006020248
0.003306187 0.009039557 -0.0067139785 0.0052439347 0.0045758835 -0.0071043377 0.0028288946 -0.006740696
-0.015708748 0.017835988 0.006107714 0.012911774 0.0002732093 -0.020221902 0.007414837 -0.009782002
0.009426177 0.012506655 -0.021518828 0.014993725 0.0027360702 -0.006236349 -0.0017184828 -0.01827483
0.007491921 0.021697428 -0.0036074216 0.0031896553 -0.00015927093 -0.011474299 0.010200265 0.0018075131
-0.037299175 -0.013096139 -0.011229019 0.008574294 0.015413465 -0.001996087 0.021771893 0.0040447586
-0.0042147054 -0.0006334927 -0.008086049 -0.0019075627 0.021324255 -0.007354908 -0.016647382 0.015468395
-0.024333803 -0.017318077 -0.012465409 -0.0018619873 -0.0013432482 -0.009839339 -0.035440505 0.002855365
-0.017129665 -0.013556902 0.0029979593 -0.025052797 0.00556143 -0.017295092 -0.034337834 0.013481437
-0.0049087387 0.0009777936 -0.0018503069 -0.0047996663 0.0013982428 -0.008413187 -0.0110428035 -0.024500323
-0.008276652 0.00052184984 -0.01010693 0.0025430303 0.014561789 -0.019887662 0.0021390312 0.0132469665
0.0024481325 -0.011066185 0.0106872 -0.017040435 0.009728121 -0.032680053 0.00062585366 -0.019837124
-0.001524825 -0.012358849 -0.0047388873 -0.010854382 -0.0153081855 -0.013299613 0.015027528 -0.0018171692
-0.013757128 -0.007965576 -0.004021561 -0.0011186589 -0.01566373 -0.0032598965 0.0072122607 0.0060668183
0.004146041 -0.026071005 0.009053996 0.0042458046 -0.0074312626 -0.006979266 -0.02412843 0.0060232305
0.012698316 -0.0012929142 -0.004762659 -0.030708712 0.010686277 -0.0036526327 0.010116105 0.006131021
0.0073712235 -0.019998616 -0.020978205 0.0011138656 0.022863818 -0.017147338 0.0047783717 -9.191514e-06
-0.0017253676 -0.0007312032 -0.006298829 0.01781104 0.00016517304 -0.0075536077 -0.0048341 0.007056618
00000000: 03db 233c dcfe 1bbc a464 c0bb 8b0a 3fbc
00000010: 00b9 b23b 737e 993c f9e7 37bc 99ff 2a3c
00000020: e713 9bbc f83b 053c b6a1 7f3c 7847 efbb
00000030: e779 f5bb 4851 47bb d6ea a1bc c532 c13c
00000040: 40c5 12bc 7712 e0bb 3d2f 2b3b dd7a 993b
00000050: 361d 4f3c df5a e83c 34cc 3dba a407 5abc
00000060: 4406 ab3c 4fa3 43bb 16a0 fe3b a8c7 e93b
00000070: 02e4 72b9 31d5 873c cb4c 4bbc ba28 813b
00000080: bcf4 51bc dc60 6cbc 12a4 f1ba 63c8 95bc
00000090: cda2 fdbb 7539 4f3c 3f3c 623b e835 afbc
000000a0: d0eb 9a3a a4d8 a33c 4ea7 31ba a4d1 c83b
000000b0: eff7 3b3a 7aa9 f0bb 6de4 013d 4b35 7dbc
000000c0: c85f 8c3c e7ee 593a 3eb7 3cba a792 8d3c
000000d0: 351c 693a 5499 1eba df25 d33c 2690 7fbb
000000e0: 10d4 b23a 408f 713b 0bea c4bc 164c 2ebb
000000f0: aad1 6d3b 0504 723c 9dcf a2bb 0ff3 b23c
00000100: b0b7 603b fa3f f5ba 5e11 15bb caca 9fbc
00000110: 00d7 4c3c 9318 f2bb 1210 aabc fd7c 5ebc
00000120: 6849 e33a 070d 043d 5118 ae3c f365 fb3a
00000130: d762 a3bc c690 f23c f0b0 b8bc 1c2d 143d
00000140: efd4 99bc 8dcd ed3c c98f 593c 5951 e63c
00000150: a543 9cbc fd37 eb3b 2f50 d93b ef16 41bb
00000160: 2042 773c d85a bcbb e05b b1bb 0ba2 30bc
00000170: 4a2b 053d 6133 2bbc b5c0 093b 0a5c 8abb
00000180: 31b0 663b d867 49ba 392b 44ba 8d72 e93a
00000190: a934 d63b 5023 883c 1f8a 0f3d 3f7a 153b
000001a0: 569a 17bc 554e c2bb edda 8fbc 41f0 063d
000001b0: 56d9 16bb ff7d 1fbc 5753 18bc afc6 f8bb
000001c0: 9dd2 b8bb 40a6 3f3c 661f 833c 3d9e 8c39
000001d0: 4059 3d3b 1f6b 743c 24dc 02bc 8045 c5bb
000001e0: 9dac 583b a61a 143c ef00 dcbb 50d5 ab3b
000001f0: 4bf1 953b 81cb e8bb fa64 393b 0ee1 dcbb
00000200: a2af 80bc c71c 923c 3823 c83b e88b 533c
00000210: 883d 8f39 67a8 a5bc 29f8 f23b b144 20bc
00000220: 4070 1a3c b7e8 4c3c 4148 b0bc 3ea8 753c
00000230: a44f 333b 4a5a ccbb b73e e1ba 19b5 95bc
00000240: ca7e f53b cebe b13c 7e6a 6cbb 8909 513b
00000250: f701 27b9 b3fe 3bbc 031f 273c 13ea ec3a
00000260: 05c7 18bd 3091 56bc ebf9 37bc 327b 0c3c
00000270: c288 7c3c c8d0 02bb f85a b23c e589 843b
00000280: 831b 8abb fa10 26ba 597b 04bc 2f07 faba
00000290: 34b0 ae3c 7101 f1bb 1760 88bc 276f 7d3c
000002a0: af57 c7bc a4de 8dbc b73b 4cbc ed0d f4ba
000002b0: ee0f b0ba 2e35 21bc 102a 11bd 1321 3b3b
000002c0: 8353 8cbc c51d 5ebc 6979 443b 863b cdbc
000002d0: a83c b63b 70ae 8dbc d4a5 0cbd 3fe1 5c3c
000002e0: 7cd9 a0bb 4f29 803a ff85 f2ba 8546 9dbb
000002f0: 3e45 b73a 77d7 09bc e0ec 34bc e7b4 c8bc
00000300: cb9a 07bc c0cc 083a 8997 25bc f8a8 263b
00000310: 9294 6e3c 73eb a2bc fd2e 0c3b ce09 593c
00000320: d970 203b f24e 35bc 5e19 2f3c 6298 8bbc
00000330: b262 1f3c 85db 05bd 5410 243a 7781 a2bc
00000340: a3dc c7ba c57c 4abc ab48 9bbb 94d6 31bc
00000350: 2fcf 7abc 9fe6 59bc 0536 763c 152e eeba
00000360: 9465 61bc 0c82 02bc 4cc7 83bb f79f 92ba
00000370: 3951 80bc fda3 55bb d454 ec3b 29cc c63b
00000380: 83db 873b dc92 d5bc 3657 143c 6420 8b3b
00000390: f381 f3bb 54b2 e4bb fca8 c5bc 855e c53b
000003a0: 990c 503c 0077 a9ba 1410 9cbb d690 fbbc
000003b0: 7f15 2f3c 0261 6fbb 05be 253c bbe6 c83b
000003c0: 4e8a f13b 23d4 a3bc 7cda abbc 21ff 913a
000003d0: e74c bb3c 9378 8cbc e393 9c3b 4135 1ab7
000003e0: bb25 e2ba 37ae 3fba 6866 cebb 75e8 913c
000003f0: 4d32 2d39 4184 f7bb 5f67 9ebb 343b e73b

action_model._discrete_distribution.branches.0.bias f4 [3]
-0.013729297 0.007911445 0.01147249
00000000: d8f0 60bc 019f 013c 1cf7 3b3c

action_model._discrete_distribution.branches.1.weight f4 [2, 128]
0.020204231 0.013606977 0.0066290037 0.013198855 -0.0150562255 0.011266974 0.017694885 -0.0042827274
0.025332702 -0.012530448 -0.011829402 0.0061194017 -0.019513173 -0.00560174 -0.0010812464 0.029162256
-0.023822151 0.047079977 0.00030409367 0.007348816 0.0009733621 0.03355208 -0.002949703 -0.030574197
0.013952274 0.009372452 -0.04475551 0.020715615 -0.029453373 -0.0043500457 -0.028286854 -0.03334525
-0.008812609 -0.015689371 0.009641756 0.010058551 0.011693425 -0.005161177 -0.042505473 -0.009669332
-0.026244802 -0.005652651 0.011722935 -0.0057415925 0.004999155 0.006432964 0.03485457 0.009417374
0.025437655 0.01891118 -0.0036614677 0.0075518154 -0.002588506 0.008915285 0.00860399 -0.006098539
-0.0057095536 -0.0009035515 0.009510219 0.0034290266 -0.008819127 0.014806384 -0.0016465681 -0.029465266
-0.0048740967 0.014071559 0.017954364 -0.06546745 -0.005423156 0.0030689312 -0.0067452244 0.062382203
0.004200624 -0.049990926 0.01989545 0.04140442 -0.0015405982 -0.0020174107 -0.01227341 -0.015952604
0.0033973348 0.0076278583 0.0069060065 -0.0078062457 -0.06740207 0.01146509 0.008903885 0.0024581128
-0.0050985697 0.006628261 0.011972346 -0.00091195345 -0.052634228 0.0032890947 -0.021060953 -0.0033373446
-0.01976949 -0.023563711 -0.004533344 0.0063981833 0.004944098 0.010144387 -0.06595339 -0.022923639
0.051917586 -0.006990732 -0.015483745 0.013205 -0.004401019 0.013268209 -0.025003446 -0.0017711278
-0.012331067 -0.011149606 0.020494506 0.005412071 0.0049494095 0.005191842 0.007747387 -0.015275151
-0.003925936 0.0069208196 0.0063953353 0.0043218653 -0.0013405109 0.008246329 0.014470371 -0.015495519
-0.022348348 -0.0359417 0.010550648 0.0014438313 0.0047299536 -0.008673933 -0.020461706 -0.002034506
-0.014250041 0.01767395 0.0015464043 -0.028610842 0.022565544 0.026840717 0.0028957315 -0.02566244
0.032234725 -0.039933324 0.008842146 -0.010005978 0.011172041 -0.029634781 -0.0008556902 0.018564275
0.00860228 -0.0043461947 0.038673252 0.0010556306 0.011410651 -0.014178931 0.01398498 0.023735844
-0.009879499 0.013494021 -0.028376404 -0.007968374 -0.008689839 0.010227446 0.04584011 0.017700834
0.009413885 0.0045636194 -0.017303128 0.0030792835 0.00907227 0.004075287 -0.02801316 -0.013312729
-0.010850463 0.00737558 -0.0141293835 -0.0057784333 -0.011448599 0.0027525886 0.01288711 -0.0033891345
0.00836836 0.0053601717 0.013633926 0.006491006 -0.00902462 -0.012329035 6.5843094e-05 0.02995394
0.001475613 -0.006112439 -0.025334965 0.03365698 0.013384119 -0.012570185 -0.0012572096 -0.04628436
0.0005566215 0.031956434 -0.0284882 -0.024720388 -0.004967516 0.00082422496 0.005157349 0.012281285
-0.011894688 0.00044322884 -0.012809719 -0.003876302 0.0420967 0.009520745 -0.013255941 0.007899258
0.0057265623 -0.0060433256 -0.017258119 0.0032466652 0.05393775 -0.0017892784 -0.01105802 -0.008219928
0.0025865787 0.0036551836 0.00015361716 0.022189206 -0.02770327 0.006786172 0.030523743 0.030389959
-0.046080746 0.008937037 0.025147146 -0.003388737 -0.006384658 0.004229848 0.0013404283 -0.010576483
0.012434409 0.005715592 -0.006154395 0.0063770106 -0.011070637 -0.02222226 -0.0021747185 0.008727029
-0.028875886 0.010587023 -0.0034344294 -0.007903985 0.007360684 0.005396331 -0.0054565608 -0.006560714
00000000: 5883 a53c ccef 5e3c 1d38 d93b 0340 583c
00000010: 63ae 76bc 1d99 383c ddf4 903c 1f56 8cbb
00000020: 8786 cf3c 824c 4dbc 1cd0 41bc 4385 c83b
00000030: 17da 9fbc cd8e b7bb 9cb8 8dba afe5 ee3c
00000040: ac26 c3bc efd6 403d c36e 9f39 56ce f03b
00000050: 3a29 7f3a e86d 093d ce4f 41bb bd76 fabc
00000060: 1498 643c ea8e 193c 8e51 37bd cbb3 a93c
00000070: 3348 f1bc d48a 8ebb d5b9 e7bc 0795 08bd
00000080: c362 10bc ff86 80bc 75f8 1d3c 9fcc 243c
00000090: c795 3f3c 171f a9bb 381a 2ebd 1e6c 1ebc
000000a0: 57ff d6bc e039 b9bb 8e11 403c f823 bcbb
000000b0: f4cf a33b 9dcb d23b aac3 0e3d 544b 1a3c
000000c0: a162 d03c 9eeb 9a3c 3cf5 6fbb 3875 f73b
000000d0: eda3 29bb 6a11 123c c0f7 0c3c 41d6 c7bb
000000e0: 3517 bbbb 51dc 6cba c0d0 1b3c 85b9 603b
000000f0: 1a7e 10bc 7a96 723c a8d1 d7ba 2461 f1bc
00000100: e3b6 9fbb 658c 663c 0815 933c cc13 86bd
00000110: bbb4 b1bb 1f20 493b 0b07 ddbb 7b84 7f3d
00000120: 63a5 893b 49c3 4cbd c8fb a23c ae97 293d
00000130: e6ed c9ba 8936 04bb 6a16 49bc 09af 82bc
00000140: d2a5 5e3b 1df3 f93b c84b e23b 89cb ffbb
00000150: 190a 8abd 13d8 3b3c 9ae1 113c 4a18 213b
00000160: e711 a7bb e231 d93b a927 443c 2910 6fba
00000170: fd96 57bd da8d 573b 0588 acbc 5ab7 5abb
00000180: a0f3 a1bc af08 c1bc 728c 94bb daa7 d13b
00000190: 1a02 a23b a534 263c 9212 87bd 5bca bbbc
000001a0: 89a7 543d 8312 e5bb 89af 7dbc c959 583c
000001b0: 6c36 90bb e762 593c 07d4 ccbc 3025 e8ba
000001c0: 3e08 4abc d6ac 36bc 18e4 a73c be57 b13b
000001d0: a82e a23b 5420 aa3b cbdd fd3b a044 7abc
000001e0: 23a5 80bb 0bc8 e23b f68f d13b 6f9e 8d3b
000001f0: 15b4 afba 9c1b 073c 2315 6d3c ebe0 7dbc
00000200: e213 b7bc 9b37 13bd a0dc 2c3c f03e bd3a
00000210: bafd 9a3b 1d1d 0ebc 4f9f a7bc 5955 05bb
00000220: 0179 69bc f6c8 903c b8b0 ca3a 4961 eabc
00000230: 60db b83c 10e1 db3c 50c6 3d3b 0a3a d2bc
00000240: 8f08 043d 2091 23bd a6de 103c 1df0 23bc
00000250: f00a 373c a4c4 f2bc 6650 60ba 1b14 983c
00000260: 94f0 0c3c 866a 8ebb d867 1e3d 165d 8a3a
00000270: bdf3 3a3c bf4e 68bc 4221 653c ac71 c23c
00000280: 9fdd 21bc 0716 5d3c a275 e8bc c88d 02bc
00000290: d45f 0ebc 0591 273c d7c2 3b3d 5701 913c
000002a0: b23c 1a3c 6a8a 953b 4abf 8dbc cecd 493b
000002b0: dca3 143c fc89 853b db7b e5bc a21d 5abc
000002c0: 24c6 31bc d9ae f13b ee7e 67bc 0359 bdbb
000002d0: e892 3bbc c664 343b 7524 533c 3e1c 5ebb
000002e0: 721b 093c 61a4 af3b d560 5f3c 81b2 d43b
000002f0: 00dc 13bc b9ff 49bc 3e15 8a38 f761 f53c
00000300: 5b69 c13a db4a c8bb 468b cfbc e7db 093d
00000310: 1049 5b3c 2df3 4dbc f4c8 a4ba ab94 3dbd
00000320: 3dea 113a c0e4 023d 1660 e9bc 6982 cabc
00000330: 8bc6 a2bb cd10 583a fbfe a83b 7137 493c
00000340: f0e1 42bc 2b61 e839 dbdf 51bc 8e09 7ebb
00000350: 976d 2c3d e6fc 1b3c 722f 59bc e46b 013c
00000360: e3a5 bb3b 1707 c6bb e660 8dbc 01c6 543b
00000370: d5ed 5c3d 3886 eaba b32c 35bc e0ac 06bc
00000380: 9783 293b ce8b 6f3b 4b14 2139 23c6 b53c
00000390: f8f1 e2bc 895e de3b ee0c fa3c 5df4 f83c
000003a0: 2abf 3cbd a66c 123c 6301 ce3c 9315 5ebb
000003b0: 6536 d1bb 899a 8a3b 4fb1 af3a fc48 2dbc
000003c0: b1b9 4b3c dc49 bb3b cfaa c9bb 3ef6 d03b
000003d0: 9e61 35bc 750b b6bc b985 0ebb d0fb 0e3c
000003e0: 1f8d ecbc 3175 2d3c 2a14 61bb b77f 01bc
000003f0: e531 f13b b5d3 b03b f3cc b2bb 42fb d6bb

action_model._discrete_distribution.branches.1.bias f4 [2]
0.0012923265 -0.0012923257
00000000: 4863 a93a 4163 a9ba
