results/GoodAIWithMegaJump  V2/BossAi/BossAi-120526.onnx (onnx, 79397 bytes, 9 tensors)

discrete_act_size_vector f4 [1, 2]
0	0x40400000	3.0
1	0x40000000	2.0

network_body._body_endoder.seq_layers.0.weight f4 [128, 6]
0	0xbf8855c8	-1.0651178
1	0xbda5ee8e	-0.08102141
2	0xbdb6c09a	-0.089234546
3	0x3d380587	0.044927146
4	0x3f342a04	0.7037661
5	0xbedc5fd6	-0.43041867
6	0xbe351185	-0.17682464
7	0xbec5d520	-0.38639164
8	0xbe7c7294	-0.24653083
9	0x3f5abd60	0.85445213
10	0x3e3f4ca3	0.18681578
11	0xbecbf239	-0.3983324
12	0x3f03880c	0.51379466
13	0x3e8c6430	0.27420187
14	0x3da079f1	0.078357585
15	0x3e3006b9	0.17190064
16	0x3ed8ed40	0.42368507
17	0xbf2b3f28	-0.66893244
18	0x3e0de3a2	0.13856366
19	0x3eb30e8e	0.34972042
20	0x3df22e3c	0.11825225
21	0x3d136a06	0.035989784
22	0xbe832dea	-0.25620967
23	0xbe21ed1c	-0.15813106
24	0x3eb4135a	0.35171014
25	0xbe05d351	-0.13068892
26	0x3e86cebc	0.263296
27	0xbf3c736b	-0.73613614
28	0x3e0b60fa	0.13611212
29	0x3f3fb048	0.7487836
30	0xbe58c6aa	-0.21169534
31	0x3e895d05	0.2682878
32	0x3f095331	0.53642565
33	0x3f17329c	0.590616
34	0xbe2fecd9	-0.17180194
35	0x3f065c21	0.5248433
36	0xbe9cd24d	-0.30629197
37	0x3ec31199	0.38099363
38	0xbccabe2d	-0.024748886
39	0x3ebdd6a3	0.37077817
40	0x3f2417ea	0.6409899
41	0xbf5b7ec3	-0.857403
42	0xbf2a99dd	-0.66641027
43	0x3c2405f7	0.010011188
44	0x3e40f498	0.18843305
45	0x3e5ae8af	0.21377824
46	0x3ec7e07d	0.39038458
47	0xbe0414fe	-0.12898633
48	0x3e11162b	0.14168613
49	0xbea9034b	-0.33010325
50	0x3e4649ad	0.19364043
51	0x3cb231f3	0.021752333
52	0xbe9635ee	-0.2933802
53	0x3f3de108	0.74171495
54	0xbea13fe4	-0.31494057
55	0xbecd3363	-0.40078267
56	0x3d70d0ea	0.058792986
57	0xbda1b45c	-0.07895729
58	0x3ec8f61a	0.3925026
59	0xbed8d5dd	-0.42350665
60	0xbd671cec	-0.056424066
61	0xbe94f9c4	-0.29096806
62	0xbed15451	-0.4088464
63	0xbd0cd48b	-0.034382384
64	0xbe567781	-0.20944025
65	0xbf1b7f4e	-0.60741127
66	0xbed28b65	-0.41121975
67	0x3c88ee9d	0.016715342
68	0xbf3bc196	-0.73342264
69	0xbd388083	-0.045044433
70	0xbde723b2	-0.11286105
71	0x3ebbf7f8	0.36712623
72	0x3f06ce12	0.5265819
73	0x3f4cd26b	0.8000857
74	0x3eb7699e	0.35822767
75	0x3e94539b	0.28970036
76	0x3e5a481e	0.21316573
77	0x3ec85b8b	0.39132342
78	0x3ef70b00	0.4825058
79	0x3e74245f	0.23842
80	0x3f118712	0.56846726
81	0x3e33e055	0.17566045
82	0x3ebd5454	0.369784
83	0xbf8af3bd	-1.0855633
84	0x3f10f0f8	0.5661769
85	0xbe7ba90b	-0.24576204
86	0xbf05037e	-0.51958454
87	0x3dbcf5e4	0.092265874
88	0x3ee6ee91	0.45103887
89	0xbe70a2ae	-0.23499557
90	0x3e54a9bf	0.20767878
91	0x3f05ca1d	0.52261525
92	0xbf0d3776	-0.5516275
93	0x3eb7daf6	0.3590924
94	0xbcd190ea	-0.025581796
95	0x3cc27590	0.023737699
96	0xbe404ddc	-0.18779701
97	0xbe8cc523	-0.27494153
98	0xbcf2c7e8	-0.029636338
99	0xbb9a06b3	-0.0047005056
100	0xbf43f574	-0.76546407
101	0xbf01dfd9	-0.5073219
102	0x3e82b570	0.2552905
103	0xbee92dfd	-0.455429
104	0x3f20701d	0.6267107
105	0x3e9e65a5	0.30936924
106	0x3eb84959	0.3599346
107	0xbca69fd2	-0.02033988
108	0x3f1709ea	0.589995
109	0xbed78c81	-0.42099383
110	0x3cbf1bcf	0.02332869
111	0x3e326a09	0.17423262
112	0xbdc9ae73	-0.09847727
113	0x3eaa6cf0	0.33286238
114	0xbe84cb9a	-0.25936586
115	0x3e0c86af	0.13723253
116	0x3dfcee95	0.123501934
117	0x3eb8242c	0.35965097
118	0x3f027fd0	0.50976276
119	0xbf2030a8	-0.62574244
120	0xbc05b9dd	-0.008161989
121	0x3f1aa766	0.6041168
122	0x3ecbc0c0	0.39795494
123	0xbed5e7e5	-0.41778484
124	0x3e93e514	0.2888571
125	0xbea81786	-0.32830447
126	0x3e68f775	0.22750647
127	0x3e6183c5	0.22022922
128	0x3ccd8965	0.025089929
129	0x3f0a53b9	0.54034
130	0x3dcee865	0.101029195
131	0xbf786d89	-0.9704214
132	0x3e23424d	0.1594326
133	0xbdcd0531	-0.10010756
134	0x3f3b72ba	0.73221934
135	0x3f607f1d	0.8769396
136	0xbf0a289f	-0.5396823
137	0x3dfaee42	0.12252475
138	0xbe873ba4	-0.2641269
139	0x3f73e053	0.95264167
140	0x3ee25e7e	0.44212717
141	0xbec01be7	-0.37521288
142	0x3f4f2cbc	0.80927634
143	0xbe3473f4	-0.17622358
144	0xbdea0e29	-0.11428482
145	0x3e73ffab	0.23827998
146	0xbee3810e	-0.44434398
147	0xbe1b63d3	-0.15174799
148	0x3ec2ed65	0.38071743
149	0x3f00f94d	0.503804
150	0xbe855784	-0.26043332
151	0xbf20bdde	-0.62789714
152	0xbebc81c5	-0.36817756
153	0x3e9df875	0.3085362
154	0xbe63ffbe	-0.22265527
155	0x3ec1454d	0.37748185
156	0x3ed7bd61	0.42136672
157	0x3e9f9db6	0.3117501
158	0x3f09a7c4	0.53771615
159	0xbed4af71	-0.415401
160	0xbeb2edf3	-0.34947166
161	0x3d89bb93	0.0672523
162	0x3f59069f	0.8477573
163	0x3f21b671	0.6316901
164	0xbe25861f	-0.16164444
165	0xbd3c55da	-0.045980312
166	0xbea4b681	-0.3217049
167	0x3ea0c788	0.3140223
168	0xbea11e1d	-0.31468287
169	0xbe7ed796	-0.24886927
170	0x3ee41ca4	0.445531
171	0xbeac5b68	-0.33663487
172	0x3e28892a	0.16458574
173	0xbdd27e5e	-0.10278009
174	0xbe6e7629	-0.23287262
175	0xbe70c7f4	-0.23513776
176	0xbe00d29d	-0.12580343
177	0xbf4a9b17	-0.791429
178	0xbee8f261	-0.4549742
179	0x3ef1f227	0.4725506
180	0x3d3b25b3	0.04569025
181	0xbe5cbf3f	-0.2155733
182	0x3d2e1c3e	0.042507403
183	0x3eafc732	0.3433166
184	0x3f5fc40e	0.8740853
185	0x3e414b60	0.1887641
186	0x3e537b26	0.20652446
187	0xbe992a9f	-0.2991533
188	0x3f39cbf4	0.7257683
189	0xbdeb81d1	-0.1149937
190	0x3db2f015	0.08737198
191	0xbe3c176a	-0.18368307
192	0x3e5f5f67	0.21813737
193	0xbe1d4966	-0.1536003
194	0x3e4dabe0	0.20085096
195	0xbef49fc9	-0.47778156
196	0xbeaf8680	-0.34282303
197	0x3f026f42	0.50951016
198	0x3eb62961	0.35578445
199	0xbe6cb1fd	-0.23114772
200	0x3e6a07c5	0.22854526
201	0x3e778855	0.241731
202	0x3ecb5545	0.39713493
203	0x3ea9d6fd	0.33171836
204	0x3e83d98a	0.25751907
205	0xbde67e1e	-0.11254524
206	0xbf12c223	-0.5732748
207	0x3dd2fa1a	0.10301609
208	0xbc33b0f3	-0.010967481
209	0xbec414de	-0.3829717
210	0x3dc9b5df	0.09849142
211	0x3e4fbc9b	0.20286791
212	0xbf1f708f	-0.62281126
213	0xbd936779	-0.0719747
214	0xbe1d67db	-0.15371649
215	0xbe33735c	-0.17524475
216	0xbf15b5f5	-0.5848077
217	0xbe9e3285	-0.30897918
218	0x3ddd7216	0.10812776
219	0x3e74d0e5	0.23907812
220	0xbedbc7bc	-0.42925823
221	0x3e4ddb25	0.20103128
222	0x3e752ee1	0.23943664
223	0x3f160093	0.58594626
224	0xbf16ff68	-0.5898347
225	0xbdd31957	-0.103075676
226	0x3f1a27ba	0.6021687
227	0x3ea971a4	0.33094513
228	0x3e8ee750	0.27910852
229	0x3f296090	0.6616297
230	0xbe2371b8	-0.15961349
231	0xbe05d143	-0.13068108
232	0xbf00af6d	-0.5026768
233	0xbb7619e7	-0.003755206
234	0x3eeaed33	0.45884094
235	0x3cd834b9	0.026392328
236	0x3eea3fd4	0.45751822
237	0x3eb45549	0.35221317
238	0x3f05c3cc	0.5225189
239	0x3f29d90d	0.6634682
240	0xbdf2c614	-0.11854187
241	0xbef7dffc	-0.48413074
242	0x3d262ae9	0.040568266
243	0xbe47a963	-0.1949821
244	0xbf4871e1	-0.78298765
245	0xbe75b060	-0.23993063
246	0x3e3dbeae	0.1852977
247	0x3e0d7a72	0.1381624
248	0x3f381038	0.7189975
249	0x3f1b2f98	0.606195
250	0x3f09b631	0.5379363
251	0xbe6e5d27	-0.23277722
252	0xbe2e9d53	-0.17052202
253	0x3cad7c4f	0.021177439
254	0xbee7284b	-0.4514793
255	0xbcc668e4	-0.024219938

network_body._body_endoder.seq_layers.0.bias f4 [128]
0	0xbbaf629f	-0.0053523327
1	0x3c5e8e64	0.013583753
2	0x3b1ee473	0.0024245053
3	0x3b7576d6	0.0037454865
4	0xbb9de7ea	-0.004818906
5	0x3c4b4175	0.012405743
6	0x3a88cf73	0.0010437801
7	0xb95e165d	-0.00021179901
8	0x3c82344a	0.015894074
9	0x3bec62ab	0.0072139106
10	0x3c8666c7	0.01640643
11	0x3ca77cca	0.020445246
12	0xbafb3b56	-0.0019167464
13	0xb9cc964d	-0.00039021895
14	0x3cde9d80	0.027174711
15	0x3cc38dcf	0.02387133
16	0x3c128d9c	0.008944895
17	0xbb709a5b	-0.0036713097
18	0x3ac61b7e	0.0015114394
19	0xbb8d182c	-0.00430586
20	0x3aab73c4	0.0013080765
21	0x3bdda99d	0.0067646042
22	0x3c0ebfb7	0.008712701
23	0x3c5ae85a	0.013361061
24	0xbaaa84d7	-0.001300956
25	0xbcbfb31e	-0.02340084
26	0xbc1bd6a7	-0.009511626
27	0xbc8c7817	-0.017147107
28	0x3cfb8774	0.030704238
29	0xba5bf5bd	-0.0008390805
30	0x3c40a6c0	0.011758506
31	0x3c11bcb8	0.008895092
32	0x3c231c8a	0.009955535
33	0x3c2f8b37	0.010714344
34	0x3be3ffae	0.0069579696
35	0x3b95cdda	0.0045716586
36	0x3c19a262	0.009377094
37	0x3c887b2b	0.016660294
38	0x3b811dba	0.0039403113
39	0x38d4fecc	0.000101564074
40	0x3ce6412b	0.028107246
41	0xbb593675	-0.0033144031
42	0x3c6af7db	0.01434132
43	0xbc5210fe	-0.012821434
44	0x3d099585	0.03358986
45	0x3cde89f5	0.027165392
46	0x3baf2a08	0.0053455867
47	0xbca569e9	-0.020192103
48	0x3be1c945	0.0068904483
49	0x3ce8f15d	0.028435403
50	0xbba5614f	-0.0050470005
51	0x391baf92	0.00014847357
52	0xba2684d3	-0.000635219
53	0x3c40d8c8	0.011770435
54	0xbb8e8663	-0.0043495162
55	0x3ce19b11	0.027539762
56	0xbc99be27	-0.01876743
57	0xbc515aa2	-0.012777956
58	0xbc88774a	-0.016658444
59	0xbb08c549	-0.0020869544
60	0x3c219634	0.009862471
61	0x3c812036	0.01576243
62	0x3c751a3f	0.014959871
63	0xbb654314	-0.0034982609
64	0x3be5ce37	0.007013108
65	0xbc2aaa8d	-0.010416639
66	0x3bb9ecbf	0.0056739743
67	0x3ca370df	0.019951282
68	0xbbc5cd15	-0.0060364106
69	0x3c2909dd	0.010317293
70	0x3c857cc3	0.016294843
71	0x3af188e8	0.0018427642
72	0xbbda6457	-0.0066647935
73	0x3c39bc0a	0.011336336
74	0xbbaf5360	-0.0053505152
75	0xbc8bcf73	-0.017066693
76	0x3b8abc23	0.0042338534
77	0x3a99432b	0.0011692991
78	0x3ca46cf3	0.020071482
79	0x3b7eb8c5	0.0038867455
80	0xb9762825	-0.00023475343
81	0x3c7aa0e8	0.015297152
82	0xbb216c2c	-0.0024631126
83	0xbc082b3a	-0.008311087
84	0x3c8c373f	0.017116187
85	0x3b62ad46	0.0034588142
86	0xbaaa6c3a	-0.0013002225
87	0x3c981c38	0.018568143
88	0xba0b3fed	-0.0005311955
89	0x3c224be4	0.009905789
90	0x3c051e13	0.008124846
91	0xbbc07111	-0.0058728536
92	0x3bf9974f	0.0076169143
93	0x3c58281e	0.013193158
94	0xbb514d10	-0.0031936802
95	0x3b6fdda4	0.0036600614
96	0x3b2b307f	0.0026121435
97	0x3bbac381	0.0056995754
98	0x3c335e54	0.010947783
99	0x3b0839f0	0.0020786487
100	0xbba0255d	-0.0048872666
101	0x3c05f685	0.008176451
102	0xbc0ab50c	-0.0084660165
103	0xbcaa852d	-0.020815456
104	0xbb875697	-0.0041301954
105	0x3bf26b49	0.0073980433
106	0x39a569a9	0.00031549975
107	0x3c377a7c	0.011198636
108	0x3cab47b6	0.020908218
109	0x3bc81c8f	0.00610692
110	0xbb75e5cb	-0.0037521
111	0xb8f7b39a	-0.00011811331
112	0x3c1ec7cc	0.00969119
113	0xbb0dc19b	-0.002163029
114	0x3bde102f	0.0067768316
115	0x3c9fcb57	0.01950614
116	0x3b0b8c23	0.0021293245
117	0x3c36c238	0.011154704
118	0x3cb1b40c	0.021692298
119	0x3affc811	0.001951458
120	0xbc8e54f7	-0.017374499
121	0x3c1d26ec	0.009591799
122	0x3beb4439	0.0071797636
123	0xbad82199	-0.0016489505
124	0xbb459e58	-0.0030154195
125	0x3a00a36f	0.0004907166
126	0x3ce88e82	0.028388266
127	0xbc4efcc4	-0.012633506

network_body._body_endoder.seq_layers.2.weight f4 [128, 128]
0	0xbd750487	-0.05981877
1	0x3de10d34	0.109888464
2	0x3c4cf8d6	0.012510499
3	0xbe1e77ba	-0.1547536
4	0x3d1ab050	0.0377658
5	0xbd03f101	-0.03221226
6	0x3d278e2c	0.04090707
7	0xbc31bd4f	-0.010848357
8	0xbd737c1d	-0.059444536
9	0x3cda23d4	0.026628412
10	0x3df08c88	0.11745554
11	0x3d88f2b1	0.06686915
12	0x3cfc9ac6	0.03083552
13	0x3d317087	0.043320205
14	0x3dc0ee1b	0.09420415
15	0x3dc2a2c0	0.09503698
16	0xbd31f3e2	-0.043445475
17	0x3de1fa86	0.11034112
18	0x3d9f46ab	0.07777151
19	0xbdeff96e	-0.11717497
20	0x3e54da97	0.2078651
21	0x3d1717a8	0.036887795
22	0xbd7dfb15	-0.06200703
23	0x3d072e57	0.033003177
24	0xbb8200d9	-0.003967386
25	0xbc66c64c	-0.014085364
26	0x3e1ef76f	0.15524076
27	0xbd1aa68f	-0.0377565
28	0xbe232175	-0.15930732
29	0xbd153394	-0.03642614
30	0x3d7090f6	0.058731996
31	0x3d9fa91f	0.07795929
32	0x3e17d682	0.14827922
33	0x3b095979	0.002095787
34	0x3cf2eb4e	0.029653218
35	0xbd01a4ee	-0.03165143
36	0x3d7aeb62	0.061259635
37	0x3d88f807	0.066879325
38	0xbba48883	-0.0050211563
39	0x3cf47182	0.029839281
40	0xbd8e025a	-0.06934042
41	0xbdc2d809	-0.09513862
42	0x3ce33fbb	0.02774035
43	0xbd381481	-0.04494143
44	0xbe30b8fc	-0.17258066
45	0x3c83809b	0.016052535
46	0x3dbdb2f0	0.09262645
47	0xbd9ef892	-0.07762255
48	0x3c6725f6	0.014108172
49	0x3a70e3ed	0.0009189237
50	0x3e167dce	0.14696428
51	0xbdbe4208	-0.09289938
52	0x3d84286a	0.06453021
53	0x3d7951ab	0.0608689
54	0x3d893583	0.0669966
55	0x3d39088d	0.04517417
56	0x3dde9aef	0.10869395
57	0x3dd3465f	0.103161566
58	0xbd0129bc	-0.03153394
59	0xbdab9256	-0.08377521
60	0xbd3bd53f	-0.045857664
61	0x3cc720b7	0.024307592
62	0xbcfc5975	-0.030804375
63	0x3ab30bfe	0.001366019
64	0xbe3c0acb	-0.18363492
65	0x3cfcef38	0.030875787
66	0x3c967969	0.01836844
67	0x3d0701b4	0.03296061
68	0xbdd50bce	-0.10402642
69	0xbd2f3a72	-0.042780347
70	0xbe3e704e	-0.18597528
71	0x3cf5417b	0.02993845
72	0x3b8cf7a6	0.004301983
73	0xbe576a23	-0.21036582
74	0xbd00312b	-0.03129689
75	0xbda4aa57	-0.08040302
76	0x3dab6dae	0.08370529
77	0xbd3f19d6	-0.0466555
78	0xbcfa3a06	-0.030545246
79	0xbe247214	-0.16059142
80	0xbda3f357	-0.08005398
81	0xbd9544dc	-0.072885245
82	0xbe2b1cca	-0.16710201
83	0xbdc40aff	-0.0957241
84	0x3d0332eb	0.03203098
85	0x3df5873a	0.11988683
86	0x3d8fa0aa	0.07013066
87	0x3db0d119	0.08633632
88	0x3d031ed5	0.032011826
89	0x3930e8a4	0.00016871333
90	0x3d82b411	0.06382001
91	0xbd0aeaf7	-0.033915486
92	0xbda8abee	-0.08235918
93	0xba2e401b	-0.00066471257
94	0xbe359b78	-0.17735088
95	0xbd6744a7	-0.056461956
96	0x3dd28232	0.10278739
97	0xbd25cf99	-0.040481184
98	0xbddaf4eb	-0.10691246
99	0x3c6572ad	0.014004392
100	0x3c94c5fb	0.01816081
101	0xbcc84a1f	-0.024449406
102	0x3cf3624e	0.029709961
103	0xbcf46456	-0.029833
104	0x3e20af1f	0.15691803
105	0x3dbc33c7	0.09189563
106	0x3dd7592d	0.10515056
107	0xbccf502a	-0.02530678
108	0xbcd8e7f9	-0.0264778
109	0x3dcbaae6	0.09944706
110	0x3e09fb97	0.1347488
111	0x3c29f3b7	0.010373048
112	0x3b5db7f5	0.003383157
113	0x3d7da9e0	0.061929584
114	0xbddce5a8	-0.10785991
115	0xbdc402a6	-0.09570818
116	0xbdd8b4a5	-0.1058133
117	0x3c9ff882	0.019527677
118	0xbd383463	-0.044971835
119	0x3c5fd8db	0.013662542
120	0xbe0a636c	-0.13514489
121	0x3e1ca45a	0.1529707
122	0x3e36733f	0.178174
123	0x3c14bd9c	0.0090784095
124	0x3cc7ec0b	0.024404546
125	0xbd83dbeb	-0.064384304
126	0x3c7db801	0.0154857645
127	0x3d93d2fc	0.072179765
128	0xbcb24d6b	-0.021765431
129	0x3ddf689a	0.10908623
130	0x3d131ba4	0.035915032
131	0xbbd7dd56	-0.0065876646
132	0xbe110755	-0.14162953
133	0x3d605a34	0.054773524
134	0x3c54bf0a	0.012985
135	0x3df83e7c	0.12121293
136	0xbdb36b48	-0.08760697
137	0x3cff2667	0.031146241
138	0x3dab54e7	0.08365803
139	0xbd070fcc	-0.03297405
140	0x3d198fe8	0.037490755
141	0xbd465489	-0.048420463
142	0xbe00e657	-0.12587868
143	0xbdb72159	-0.089419074
144	0xbcbef22b	-0.023308834
145	0x3d2f83ef	0.04285043
146	0xbc3e1220	-0.011601001
147	0xbd3f3145	-0.046677846
148	0xbceba858	-0.028766796
149	0x3d7fdb55	0.06246503
150	0x3e81ac27	0.25326654
151	0xbd0c6e86	-0.03428509
152	0x3e11a151	0.14221694
153	0x3c3dde86	0.011588698
154	0x3b0cf533	0.0021508455
155	0xbc3e9e08	-0.011634357
156	0xbd9ff0d2	-0.07809605
157	0xbd6763b4	-0.05649157
158	0xbdc7e508	-0.09760481
159	0x3e0a39cb	0.13498609
160	0xbd815210	-0.0631448
161	0xbe2ad89e	-0.16684195
162	0xbded8643	-0.11597874
163	0xbd868997	-0.06569212
164	0xbd81b2b5	-0.06332914
165	0x3d1afa22	0.0378362
166	0xbe2ce997	-0.16885982
167	0x3def50fc	0.116853684
168	0xbe28ee10	-0.16497064
169	0xbdae712b	-0.08517679
170	0x3d444fae	0.04792755
171	0xbd99f2a4	-0.07516983
172	0x3d19eef9	0.037581418
173	0x3e78bd8a	0.24291053
174	0x3dfd77e8	0.12376386
175	0xbd829a96	-0.06377141
176	0x3d2d9a2e	0.042383365
177	0x3d91354e	0.07090245
178	0x3ca28c4c	0.01984229
179	0xbd2d37c9	-0.04228953
180	0x3d6e5c9a	0.05819378
181	0x3daaf483	0.08347418
182	0x3c0e0dac	0.008670252
183	0x3dbb99e9	0.091602154
184	0xbde744ae	-0.112923965
185	0xbd17468b	-0.03693251
186	0x3cc0c500	0.023531437
187	0xba53f2f9	-0.0008085217
188	0x3dba594b	0.090990625
189	0x3dd060d4	0.101747185
190	0xbd6e7760	-0.058219314
191	0xbd9662b8	-0.07343048
192	0x3dfa2161	0.12213398
193	0x3d3966af	0.045263942
194	0xbe89dcc9	-0.26926258
195	0x3df9ec39	0.12203259
196	0x3cf5e254	0.030015148
197	0xbd54d121	-0.051957253
198	0xbe1cf3b9	-0.15327348
199	0x3e0f4cfd	0.13994212
200	0x3c32aeff	0.01090598
201	0x3d64e156	0.05587896
202	0x3d7f50c3	0.06233288
203	0xbd13ba38	-0.036066264
204	0x3d0c2d40	0.03422284
205	0xbd11d252	-0.035600968
206	0x3cc6eb09	0.024281995
207	0xbc37cc37	-0.011218122
208	0x3d011011	0.031509463
209	0xbe025e7b	-0.12731354
210	0x3d0935ab	0.033498447
211	0x3bdce5d6	0.0067412658
212	0x3d0c92f2	0.034319825
213	0x3c07aa17	0.008280299
214	0x3e16a7ce	0.1471245
215	0x3dbf4186	0.093386695
216	0xbdc38795	-0.095473446
217	0xbdc2087a	-0.09474273
218	0x3dd9adc5	0.10628847
219	0x3c8bfced	0.017088378
220	0xbe17fc3a	-0.1484231
221	0x3d8e3c94	0.06945148
222	0x3e5f1cd4	0.21788341
223	0xbc4212e3	-0.011845323
224	0xbcea19ac	-0.028576694
225	0x3bbed5c4	0.0058238227
226	0x3c809a6d	0.015698636
227	0x3ddf3280	0.10898304
228	0xbda02e36	-0.07821314
229	0xbd8471da	-0.06467028
230	0xbd450f5e	-0.04811036
231	0xbd5d2ded	-0.053998876
232	0x3d675a7e	0.056482784
233	0x3e01252a	0.12611833
234	0x3d8c4f80	0.06851101
235	0x3e071539	0.1319169
236	0xbdd3d521	-0.103433855
237	0xbd7ca7a1	-0.0616833
238	0xbd9a7db3	-0.075435065
239	0xbbaa34ac	-0.0051942673
240	0xbdbbdf77	-0.09173482
241	0x3dfc007f	0.12304782
242	0xbccd6c05	-0.025075922
243	0x3c908365	0.017640779
244	0xbd5b3d19	-0.053525064
245	0x3dadb10c	0.08481035
246	0x3e125260	0.14289236
247	0x3d2bc4f9	0.041935895
248	0xbd32aac1	-0.043619875
249	0xbe10b3dd	-0.14131112
250	0xbe126160	-0.14294958
251	0x3dfdbb28	0.12389213
252	0x3c8a1f8e	0.01686075
253	0x3d36427d	0.044497002
254	0x3dd26a12	0.102741376
255	0x3d477920	0.0486995

network_body._body_endoder.seq_layers.2.bias f4 [128]
0	0x3b4c550e	0.0031178626
1	0x3c1f94ee	0.009740097
2	0xbb452211	-0.003008012
3	0xbac1b91f	-0.0014779902
4	0xbbb785c7	-0.0056006643
5	0xba00a2bc	-0.0004907062
6	0x3bc54447	0.006020102
7	0xbbf9982c	-0.0076170173
8	0x3c889d39	0.016676532
9	0x3bca18b4	0.0061674956
10	0xbb95957a	-0.004564938
11	0x3c3c9da9	0.0115121985
12	0xb920f55f	-0.00015350197
13	0xbb055654	-0.0020345645
14	0x3c0081a8	0.007843412
15	0x3b32feee	0.0027312594
16	0x3c7194d3	0.014744955
17	0x3c47e9c4	0.01220173
18	0xbc0d0c50	-0.008608893
19	0xbc14d41c	-0.009083774
20	0xbc24ae56	-0.010051331
21	0xb82f88d6	-4.185069e-05
22	0x39f75342	0.00047173543
23	0x3c203956	0.009779295
24	0x3c2d6c99	0.010584974
25	0xbc347263	-0.0110136
26	0x3b85701f	0.0040722038
27	0xbbd78502	-0.006577135
28	0x3b49c8c0	0.0030789822
29	0xbc1f2969	-0.009714463
30	0x3c309eb4	0.010780025
31	0x3b207311	0.0024482647
32	0x3a8430a8	0.0010085301
33	0x3b0cd668	0.00214901
34	0x3bfb6033	0.00767138
35	0x3b8ccbba	0.004296747
36	0x3bd3f6a9	0.006468613
37	0x3b8ab612	0.0042331303
38	0x3c8a60ff	0.016891954
39	0x3c1eae2a	0.009685079
40	0xba797c1a	-0.0009517089
41	0x3a5da532	0.0008455097
42	0xbb560a63	-0.003266
43	0xbbca4031	-0.006172203
44	0xbc05e31f	-0.008171826
45	0xbb114587	-0.0022166686
46	0x3c43174c	0.01190741
47	0x3ac223ba	0.0014811673
48	0xba194a2b	-0.00058475387
49	0xbbd6c804	-0.0065546054
50	0xbb1acd14	-0.0023620771
51	0x3b08adc9	0.0020855537
52	0xbbc1c839	-0.005913761
53	0xbbcf51d3	-0.006326893
54	0x3becb3b9	0.007223573
55	0x3bff9941	0.0078002517
56	0xbbc0d3e2	-0.0058846334
57	0xbba83645	-0.0051334226
58	0x3c2bd652	0.01048811
59	0xbb8b1969	-0.0042449725
60	0xbbd8e13f	-0.0066186483
61	0xbb1f58e3	-0.0024314455
62	0xbc0fd0b3	-0.008777785
63	0xbc5201b0	-0.012817785
64	0x3a03e590	0.0005031461
65	0xba8a6ad5	-0.0010560403
66	0xbb026fd5	-0.0019903083
67	0x3c68fd1a	0.0142205
68	0xbb2a2178	-0.002595989
69	0xbb5fd79e	-0.0034155617
70	0x3c05b979	0.008161896
71	0x3d00244e	0.031284623
72	0xba311fe1	-0.00067567645
73	0x3cd8f176	0.026482325
74	0x3b86eded	0.0041177184
75	0xbbfb3228	-0.007665891
76	0x3c2ff4b0	0.01073949
77	0x3bbb999b	0.0057250983
78	0x3c2c000e	0.01049806
79	0x3c0a6c20	0.008448631
80	0x3b97f94c	0.004637873
81	0x3b4d2779	0.0031304045
82	0xbab0a13f	-0.001347579
83	0xbac107d4	-0.0014727064
84	0x3c80cf6f	0.015723912
85	0xbbb40850	-0.005494155
86	0x3aee63e0	0.0018187724
87	0xbad19260	-0.0015989058
88	0xbc11e5ce	-0.008904887
89	0x3a11e90e	0.0005566039
90	0x3b9bd202	0.0047552595
91	0xba857c62	-0.0010184164
92	0x3c5ee1f3	0.013603675
93	0x3b8e8940	0.0043498576
94	0x3b46a7ac	0.0030312343
95	0xbbc79ad2	-0.006091454
96	0xbbd6628f	-0.006542511
97	0xbb9a6acf	-0.0047124396
98	0x3c0da417	0.008645079
99	0x3ab31508	0.0013662884
100	0x3b290fd9	0.00257968
101	0x3a0db8ea	0.00054062775
102	0x3cbd022a	0.023072321
103	0x3c45fc19	0.012084031
104	0x3c5b47a9	0.013383784
105	0xbadb143d	-0.0016714406
106	0x3c5161f0	0.012779698
107	0x3c47d7d8	0.012197457
108	0xb9af895e	-0.00033480948
109	0x3b62956a	0.003457392
110	0xbb05b58a	-0.0020402395
111	0x3bfcee34	0.0077188257
112	0x3a195160	0.00058486126
113	0xbc718dbd	-0.014743266
114	0x3bbbf118	0.0057355277
115	0xbbcd899c	-0.006272508
116	0xb8b8377a	-8.784137e-05
117	0xbc54476b	-0.0129564805
118	0x3c2c0445	0.010499065
119	0xbb99ca63	-0.004693316
120	0x3b771108	0.003769936
121	0xbc101272	-0.00879346
122	0xbb95903b	-0.0045643128
123	0x3b328628	0.0027240608
124	0xbbc65f63	-0.0060538515
125	0xbc5da90d	-0.013529074
126	0xba5dbfa1	-0.0008459036
127	0xbb7cd9c8	-0.0038581956

action_model._discrete_distribution.branches.0.weight f4 [3, 128]
0	0x3c2d68aa	0.010584036
1	0xbbf5fb73	-0.0075067817
2	0xbbdcc634	-0.006737495
3	0xbc466e82	-0.012111308
4	0x3b9cf28a	0.004789655
5	0x3c8d680b	0.017261526
6	0xbc35fe93	-0.0111080585
7	0x3c255c55	0.010092814
8	0xbc9661e9	-0.018357234
9	0x3bd84020	0.006599441
10	0x3c7b11d8	0.0153240785
11	0xbbce61af	-0.006298266
12	0xbbbf6f05	-0.005842092
13	0xbaa48994	-0.0012553209
14	0xbc96788c	-0.018368028
15	0x3cc5892e	0.024113264
16	0xbc06bd25	-0.0082238065
17	0xbb9e5ac7	-0.004832599
18	0x3b2c1421	0.0026257115
19	0x3b849e19	0.004047167
20	0x3c4dee6e	0.012569053
21	0x3cb5173e	0.02210581
22	0xba829571	-0.000996275
23	0xbc477df7	-0.012176028
24	0x3caadbfe	0.020856854
25	0xbb563f0b	-0.0032691385
26	0x3c41b6fb	0.011823411
27	0x3be83749	0.0070866686
28	0x3a3d5936	0.00072230713
29	0x3c8a5e69	0.016890721
30	0xbc3f673c	-0.011682328
31	0x3ba4e697	0.0050323713
32	0xbc422425	-0.011849438
33	0xbc4e3092	-0.012584822
34	0xb89519e0	-7.109693e-05
35	0xbc9e33e1	-0.019311847
36	0xbbee29ff	-0.00726819
37	0x3c690583	0.0142225055
38	0x3b940063	0.0045166477
39	0xbc9d4673	-0.019198632
40	0x3af7370a	0.0018861007
41	0x3c9505ff	0.018191336
42	0xbaca7a10	-0.0015447754
43	0x3bcbcb33	0.0062192916
44	0x39a274a6	0.00030985958
45	0xbbda6b67	-0.0066656354
46	0x3cef95dc	0.029246263
47	0xbc67ce56	-0.014148315
48	0x3cad2d9c	0.021139912
49	0x3a73cad0	0.0009299936
50	0x394e35f6	0.00019665793
51	0x3c939645	0.01801599
52	0x3aa919da	0.0012901381
53	0xba171a9c	-0.0005764158
54	0x3c9ff3ed	0.019525493
55	0xbb141da6	-0.002260068
56	0x38c2b0aa	9.283547e-05
57	0x3b1d5aed	0.0024010495
58	0xbcb564d2	-0.022142801
59	0xbacab5d8	-0.0015465571
60	0x3b8c7e4c	0.0042875167
61	0x3c74280b	0.014902125
62	0xbb9a0a2e	-0.0047009205
63	0x3ca2751a	0.019831229
64	0x3b14ce3b	0.002270593
65	0xba021514	-0.00049622473
66	0xbac6e09a	-0.0015173138
67	0xbc73bccf	-0.014876558
68	0x3c520976	0.0128196385
69	0xbbcb79b8	-0.0062095784
70	0xbc9e1bd0	-0.019300371
71	0xbc1ede58	-0.009696566
72	0x3a39dc28	0.0007089996
73	0x3cc0ab27	0.023519112
74	0x3ca0410f	0.019562272
75	0xbb49f34d	-0.0030815185
76	0xbc97e112	-0.01853994
77	0x3cc704b1	0.02429423
78	0xbcbb240d	-0.022844339
79	0x3d068894	0.032845095
80	0xbc8a68bf	-0.01689565
81	0x3ce22578	0.027605757
82	0x3c66545c	0.014058199
83	0x3cd04ae3	0.025426334
84	0xbc69a940	-0.014261544
85	0x3bdd8955	0.006760756
86	0x3bef3136	0.0072995676
87	0xbacee9f6	-0.0015786279
88	0x3c688326	0.0141914245
89	0xbb8af11b	-0.004240168
90	0xbb9471a7	-0.00453015
91	0xbc1033dd	-0.008801428
92	0x3cd0868b	0.02545478
93	0xbc3c4d59	-0.0114930505
94	0x3b6de48f	0.0036299562
95	0xbb4c0337	-0.0031129846
96	0x3bc0606a	0.0058708685
97	0xbb15b65c	-0.002284429
98	0xba9418ef	-0.0011298935
99	0x3b2ccd49	0.0026367477
100	0x3c2a20c0	0.010383785
101	0x3c882eeb	0.016623935
102	0x3cf07ed1	0.029357346
103	0x3b55ae58	0.0032605138
104	0xbbd33717	-0.006445776
105	0xbb99bc86	-0.004691663
106	0xbc8bbe4d	-0.017058516
107	0x3d042b37	0.032267775
108	0xbafd076e	-0.0019304582
109	0xbc0ac759	-0.00847038
110	0xbc15249f	-0.009102969
111	0xbbd59743	-0.006518276
112	0xbb9160c2	-0.0044365833
113	0x3c3cca8d	0.011522901
114	0x3c85d261	0.016335668
115	0x3a648f84	0.0008718895
116	0x3b746a56	0.0037294826
117	0x3c634bb7	0.013873032
118	0xbbdd7b8a	-0.006759112
119	0xbb9890fd	-0.004655956
120	0x3b783808	0.0037875194
121	0x3c2373d7	0.009976349
122	0xbbbc09b7	-0.005738463
123	0x3b9fc5f2	0.004875892
124	0x3b8fb27d	0.004385291
125	0xbbfe42c1	-0.0077594225
126	0x3b476edb	0.0030431065
127	0xbbf11b8b	-0.0073580197
128	0xbc7c7712	-0.015409248
129	0x3c92e957	0.01793353
130	0x3beb2a65	0.0071766847
131	0x3c569eee	0.013099415
132	0x3a4ab58b	0.00077327405
133	0xbc9ce32c	-0.019151293
134	0x3bfdd581	0.007746399
135	0xbc181df5	-0.009284486
136	0x3c24de5a	0.010062778
137	0x3c6149ec	0.0137505345
138	0xbcaee4f4	-0.021349408
139	0x3c724ae5	0.014788364
140	0x3afc736b	0.0019260471
141	0xbbec674f	-0.007214464
142	0xbb13f809	-0.002257826
143	0xbc94943c	-0.01813709
144	0x3c042aea	0.008066872
145	0x3cae6669	0.021289067
146	0xbb76f5eb	-0.00376832
147	0x3b75b6ac	0.0037492914
148	0x392f41a6	0.00016713756
149	0xbac5ab99	-0.0015081047
150	0x3c2c255b	0.010506953
151	0x3acccf78	0.0015625795
152	0xbd19e99e	-0.03757631
153	0xbc525576	-0.012837758
154	0xbc6872d1	-0.014187531
155	0x3c0d5b33	0.008627701
156	0x3c835090	0.016029626
157	0xbb13893a	-0.0022512213
158	0x3cb3ddaa	0.021956284
159	0x3b81e2e4	0.003963815
160	0xbb93d5f6	-0.00451159
161	0xbacab3b8	-0.0015464937
162	0xbc0f896f	-0.008760794
163	0xba462121	-0.0007558037
164	0x3cb38450	0.021913677
165	0xbc0da955	-0.008646329
166	0xbc879ab9	-0.01655327
167	0x3c6b2503	0.014352086
168	0xbcc80845	-0.024418006
169	0xbc82627b	-0.0159161
170	0xbc42962a	-0.011876622
171	0xbb099583	-0.0020993657
172	0xba8c38dd	-0.0010698099
173	0xbc2276e0	-0.009916037
174	0xbd09c0d8	-0.033631176
175	0x3b14817e	0.0022660191
176	0xbcb01bf9	-0.021497713
177	0xbc5a1033	-0.013309526
178	0x3b2e5b40	0.0026604682
179	0xbcd53094	-0.02602414
180	0x3bb06845	0.0053835236
181	0xbc8bb8b3	-0.017055845
182	0xbcf6c847	-0.030124797
183	0x3c4f5c75	0.012656321
184	0xbb779d1d	-0.0037782856
185	0x3b0f9b97	0.0021912807
186	0xbb38c51a	-0.0028193654
187	0xbbac41db	-0.005256874
188	0x3aa028a8	0.0012219148
189	0xbc05aa06	-0.0081582125
190	0xbc35e8b4	-0.011102844
191	0xbcb35c7c	-0.021894686
192	0xbbf4a088	-0.007465426
193	0xb94c5cb2	-0.00019489488
194	0xbc281128	-0.010257997
195	0x39072702	0.00012889135
196	0x3c719878	0.014745824
197	0xbca71d92	-0.020399842
198	0x3abcb2c4	0.0014396538
199	0x3c40ab4d	0.011759591
200	0x3b6f22b6	0.0036489195
201	0xbb79d55f	-0.0038121564
202	0x3c3ea17c	0.011635181
203	0xbc4f0dd6	-0.012637576
204	0x3c147586	0.009061223
205	0xbcec3969	-0.028835969
206	0x3a2cf854	0.0006598283
207	0xbc8e2cca	-0.017355341
208	0xbb1a02b6	-0.002350015
209	0xbc3d7344	-0.011563126
210	0xbba158ef	-0.004923932
211	0xbc141a80	-0.009039521
212	0xbc94a10c	-0.0181432
213	0xbc56832b	-0.013092796
214	0x3c72ab64	0.0148113705
215	0xbb216c51	-0.0024631212
216	0xbc579ddc	-0.013160195
217	0xbc0f4a9b	-0.008745815
218	0xbb87ba94	-0.004142115
219	0xbb14f1e7	-0.0022727193
220	0xbc0a7531	-0.008450792
221	0xbb237e5d	-0.0024947145
222	0x3bde6423	0.0067868396
223	0x3bafdd9e	0.005366995
224	0x3ad9d26b	0.0016618496
225	0xbccc6207	-0.024949087
226	0x3c18dcaf	0.009329959
227	0x3b82bf50	0.0039900914
228	0xbc1d3c69	-0.009596922
229	0xbbeedde9	-0.0072896373
230	0xbc8fbb17	-0.017545266
231	0x3bc2f6d7	0.0059498358
232	0x3c42ef57	0.011897883
233	0xbaf6d71a	-0.0018832416
234	0xbb934ffd	-0.0044956193
235	0xbcf91430	-0.030405134
236	0x3c238629	0.009980717
237	0xbb89508d	-0.0041905106
238	0x3c220b09	0.009890326
239	0x3bbcfd2b	0.0057674847
240	0x3be05811	0.006846436
241	0xbca24cef	-0.019812075
242	0xbcb2caf7	-0.021825297
243	0x3a1d874c	0.00060092355
244	0x3cb9100a	0.022590656
245	0xbc85dbd9	-0.016340183
246	0x3b8d03a7	0.004303414
247	0xba355767	-0.0006917626
248	0xbaa9e5d6	-0.0012962173
249	0xbaa82dc3	-0.0012831021
250	0xbbdb92aa	-0.0067008333
251	0x3c939031	0.018013092
252	0x39d45b56	0.00040503842
253	0xbbe52d29	-0.006993909
254	0xbb8fa81a	-0.004384053
255	0x3bf06e97	0.007337402

action_model._discrete_distribution.branches.0.bias f4 [3]
0	0xbc46d7ff	-0.012136458
1	0x3be70c50	0.0070510283
2	0x3c1e5ba9	0.009665408

action_model._discrete_distribution.branches.1.weight f4 [2, 128]
0	0x3c86b0f7	0.016441805
1	0x3bd44c28	0.006478805
2	0x3bd4d914	0.0064956043
3	0x3c5d6176	0.013512006
4	0xbc6e176a	-0.01453195
5	0x3c20c8a0	0.009813458
6	0x3c8110b5	0.015755037
7	0xbb9762de	-0.00461994
8	0x3ca282a1	0.01983768
9	0xbc50fd82	-0.0127557535
10	0xbc3e0da4	-0.011599932
11	0x3b5aa092	0.0033359868
12	0xbc95525d	-0.01822775
13	0xbb8b1db2	-0.0042454833
14	0xbaaf4000	-0.0013370514
15	0x3cd909a8	0.026493862
16	0xbc9b99be	-0.018994208
17	0x3d2807d0	0.041023076
18	0x39a98be4	0.00032338419
19	0x3bc1957c	0.0059077125
20	0x3a17c16c	0.0005789015
21	0x3cc00fc6	0.023445021
22	0xbb6030de	-0.0034208815
23	0xbcd82425	-0.026384423
24	0x3c5fb81b	0.013654734
25	0x3c0fda01	0.0087800035
26	0xbcd42e3c	-0.025900953
27	0x3cad7d4e	0.021177914
28	0xbcaf7c5c	-0.021421604
29	0xbba7b92d	-0.00511851
30	0xbcd5a4ee	-0.026079621
31	0xbcdf3211	-0.027245553
32	0xbc1c37cb	-0.009534786
33	0xbc5390bc	-0.012912925
34	0x3bdcafed	0.006734839
35	0x3c02c141	0.007980646
36	0x3bd1d508	0.006403569
37	0xbb576743	-0.0032867945
38	0xbd1df640	-0.03856492
39	0xbc08f203	-0.008358481
40	0xbcb8e523	-0.022570198
41	0xbbd263eb	-0.0064206026
42	0x3c1e733c	0.009671029
43	0xbba33b15	-0.0049814084
44	0x3b8756ab	0.0041302047
45	0x3bcffd86	0.006347361
46	0x3d004114	0.031312063
47	0x3c01c530	0.007920548
48	0x3cc0bb89	0.023526924
49	0x3c8e4d54	0.017370857
50	0xbb9a270a	-0.004704361
51	0x3bee663c	0.007275371
52	0xbb82c6b2	-0.0039909715
53	0x3c0bdc4b	0.008536409
54	0x3c1406df	0.009034841
55	0xbbc73811	-0.0060796817
56	0xbb077d97	-0.0020674223
57	0xbab63083	-0.0013899956
58	0x3c247163	0.010036799
59	0x3b8ba788	0.0042619146
60	0xbc2018d6	-0.009771546
61	0x3c5004b5	0.012696435
62	0xbaa3e81d	-0.0012505088
63	0xbcd4ca0a	-0.025975246
64	0xbb87d2a8	-0.004144985
65	0x3c58ae21	0.013225109
66	0x3c8587cf	0.01630011
67	0xbd4416dc	-0.047873363
68	0xbb6f597f	-0.003652185
69	0x3b2f39a0	0.0026737228
70	0xbbd3a293	-0.0064585893
71	0x3d554807	0.052070644
72	0x3b49af02	0.0030774479
73	0xbd5f9268	-0.054582983
74	0x3c694f0d	0.014240039
75	0x3d031acd	0.03200798
76	0xbaf8c7fb	-0.0018980497
77	0xbaba029e	-0.0014191454
78	0xbc4b2fb3	-0.012401509
79	0xbc43b22a	-0.011944333
80	0x3b251485	0.0025189233
81	0x3bea47d7	0.0071496773
82	0x3bd17869	0.006392528
83	0xbc13f74c	-0.009031128
84	0xbd5f91f5	-0.054582555
85	0x3c2000c0	0.009765804
86	0x3be25c05	0.0069079422
87	0x3b43995d	0.002984605
88	0xbb6f4504	-0.0036509642
89	0x3bc7ed27	0.006101269
90	0x3c104f95	0.008808036
91	0xba12d03d	-0.0005600488
92	0xbd26ba2c	-0.04070489
93	0x3b523979	0.0032077713
94	0xbca2be4d	-0.019866133
95	0xbb5142bd	-0.0031930648
96	0xbc8d24dc	-0.01722949
97	0xbcace698	-0.02110605
98	0xbb98a71a	-0.004658592
99	0x3c05bf3c	0.00816327
100	0x39a62655	0.00031690547
101	0x3c266ba5	0.0101575
102	0xbd75ef3f	-0.060042616
103	0xbc91e9b3	-0.017811632
104	0x3d2fb4df	0.0428971
105	0xbbbe940d	-0.005815989
106	0xbc6e2457	-0.014535031
107	0x3c3a3b6d	0.011366707
108	0xbbb81e95	-0.00561888
109	0x3c50b80a	0.012739191
110	0xbcc72d9e	-0.024313744
111	0xbb069f87	-0.0020541863
112	0xbc3c6187	-0.011497862
113	0xbc380e34	-0.011233855
114	0x3c91d5e1	0.01780218
115	0x3bdbeb30	0.006711386
116	0x3b8dd4e2	0.004328356
117	0x3b926b86	0.004468384
118	0x3be48002	0.0069732675
119	0xbc686734	-0.014184762
120	0xbbf08c0f	-0.007340915
121	0x3bedbc73	0.007255131
122	0x3bb4fdfe	0.0055234423
123	0x3b9829fd	0.0046436773
124	0xbaaf719d	-0.00133853
125	0x3bda85a9	0.0066687656
126	0x3c587e20	0.013213664
127	0xbc8043f6	-0.015657406
128	0xbc984181	-0.018585922
129	0xbcec0a4e	-0.028813507
130	0x3c2f0c23	0.010684046
131	0x3a943340	0.0011306778
132	0x3b89cfcb	0.004205679
133	0xbbec993f	-0.007220417
134	0xbc97bb27	-0.018521858
135	0xbade77b2	-0.0016972928
136	0xbc0f7138	-0.008755021
137	0x3c92a17d	0.01789927
138	0x3aac9ccf	0.0013169291
139	0xbcd3940f	-0.025827436
140	0x3cae53a6	0.021280121
141	0x3cd0c4c9	0.02548446
142	0x3b4e89fe	0.0031515355
143	0xbcbc5e03	-0.022994047
144	0x3ce08428	0.027406767
145	0xbd0ac201	-0.033876423
146	0x3c108dbb	0.008822854
147	0xbc0c53ae	-0.008564873
148	0x3c3d8170	0.011566505
149	0xbc9ff89e	-0.01952773
150	0xb9c9984e	-0.00038451183
151	0x3c6b8305	0.014374499
152	0x3c11d08d	0.00889982
153	0xbb760185	-0.0037537527
154	0x3ca25acc	0.019818686
155	0x3a1b8a5b	0.00059333973
156	0x3b5d7041	0.0033788832
157	0xbc5bb796	-0.0134104695
158	0x3c40f783	0.011777761
159	0x3c9079b2	0.017636154
160	0xbc160897	-0.009157321
161	0x3c2f98c4	0.0107175745
162	0xbcd0a562	-0.025469486
163	0xbbc104dc	-0.005890472
164	0xbb5ed250	-0.0033999868
165	0x3c08db4c	0.008353066
166	0x3d2b9edf	0.04189956
167	0x3c864446	0.016389977
168	0x3bbc108a	0.0057392763
169	0x3baeb475	0.0053315707
170	0xbc79e03b	-0.015251215
171	0x3b17fbfc	0.0023190966
172	0x3c22e082	0.009941222
173	0x3b885813	0.00416089
174	0xbcc876b5	-0.024470666
175	0xbc41977e	-0.011815904
176	0xbc1277ef	-0.008939727
177	0x3c1213f6	0.008915892
178	0xbc5668b7	-0.013086489
179	0xbbb44a01	-0.005501986
180	0xbc249887	-0.010046131
181	0x3b4d3950	0.0031314678
182	0x3c4c1557	0.01245626
183	0xbb5f58b5	-0.0034079973
184	0x3b9ade74	0.0047262255
185	0x3bbf94ff	0.005846619
186	0x3c56c032	0.013107346
187	0x3bb967bf	0.0056581195
188	0xbc044143	-0.0080722
189	0xbc276df6	-0.010219088
190	0xb9ad20cb	-0.00033021564
191	0x3cd8cadd	0.02646392
192	0x3a43b11c	0.0007465051
193	0xbbac8e57	-0.0052659917
194	0xbcc1fe0d	-0.023680711
195	0x3c839662	0.016062919
196	0x3c3e4515	0.01161315
197	0xbc47798b	-0.012174974
198	0xbaca5add	-0.0015438456
199	0xbd135837	-0.0359728
200	0x3adc2c8f	0.0016797947
201	0x3d15b3de	0.036548488
202	0xbcbb0bd3	-0.022832787
203	0xbc7b115c	-0.015323963
204	0xbb971005	-0.004610064
205	0x396cefa9	0.00022595994
206	0x3bad318a	0.0052854465
207	0x3c078b85	0.00827301
208	0xbc347d9f	-0.0110162785
209	0x3a718ad1	0.00092141057
210	0xbc497627	-0.012296236
211	0xbb2dc36f	-0.0026514193
212	0x3cefd6af	0.029277174
213	0x3c37d439	0.011220031
214	0xbc387bd8	-0.011259995
215	0x3bf19748	0.0073727705
216	0x3b8c367d	0.0042789564
217	0xbbb4c25d	-0.005516334
218	0xbc66e9b8	-0.014093809
219	0x3b3db600	0.0028947592
220	0x3d2c1102	0.042008407
221	0xbadfdd83	-0.0017079565
222	0xbc48c026	-0.012252843
223	0xbc090a07	-0.008364207
224	0x38435b20	4.657649e-05
225	0x3a9cf63e	0.0011975241
226	0x399234a9	0.00027886525
227	0x3ca75079	0.020424115
228	0xbcbd0a07	-0.02307607
229	0x3bddf093	0.0067730634
230	0x3cc9a12d	0.024612987
231	0x3ccf13b5	0.025277952
232	0xbd17cc80	-0.03706026
233	0x3bfe5ace	0.0077622896
234	0x3cc63bc9	0.02419843
235	0xbacb383a	-0.0015504428
236	0xbba94e3c	-0.005166797
237	0x3b9bf048	0.0047588684
238	0x3a2a9552	0.0006507236
239	0xbc28a5bf	-0.010293423
240	0x3c3e12f9	0.011601203
241	0x3bbe0c9c	0.005799843
242	0xbb62e3cb	-0.0034620638
243	0x3ba662cc	0.0050776955
244	0xbc2b34b8	-0.010449581
245	0xbcb01e43	-0.021498805
246	0xbab79448	-0.0014005983
247	0x3bfa3cbf	0.007636636
248	0xbcd0935f	-0.025460897
249	0x3c27faff	0.010252713
250	0xbb27f042	-0.0025625383
251	0xbc06c584	-0.008225802
252	0x3bf12145	0.0073587024
253	0x3be4853f	0.006973892
254	0xbb899ee3	-0.004199849
255	0xbbd1ad41	-0.0063988273

action_model._discrete_distribution.branches.1.bias f4 [2]
0	0x3aafb4b1	0.0013405291
1	0xbaafb4ad	-0.0013405286
