results/Test3/BossAi.onnx (onnx, 79397 bytes, 9 tensors)

discrete_act_size_vector f4 [1, 2]
0	0x40400000	3.0
1	0x40000000	2.0

network_body._body_endoder.seq_layers.0.weight f4 [128, 6]
0	0xbf0a66b6	-0.54062974
1	0x3e3cfc41	0.18455602
2	0xbea1b511	-0.31583455
3	0xbea8229e	-0.3283891
4	0x3e8e2567	0.2776291
5	0x3dd88eec	0.10574135
6	0x3eaef8f6	0.34174317
7	0xbe427725	-0.18990763
8	0xbe8f223e	-0.27955812
9	0xbe9322c7	-0.2873747
10	0x3f1c7db4	0.6112931
11	0x3dd0dfa6	0.101989076
12	0x3f3d26ca	0.7388731
13	0x3e6e3ddc	0.23265785
14	0xbd7c5f81	-0.061614517
15	0x3c045b56	0.008078417
16	0xbd24b7cc	-0.040214345
17	0xbda130d5	-0.07870642
18	0x3e96fddc	0.29490554
19	0x3d2d63f4	0.04233165
20	0xbe7481da	-0.2387766
21	0x3d864eb2	0.06557979
22	0xbd27ab27	-0.040934708
23	0xbe68fd56	-0.2275289
24	0xbeb385bc	-0.3506297
25	0xbde9c76a	-0.11414988
26	0x3e8e2701	0.27764133
27	0x3edf5970	0.43622923
28	0x3e4d862f	0.20070718
29	0x3e9a9d28	0.30198026
30	0xbf9ad40c	-1.2095962
31	0xbe67878f	-0.22610305
32	0x3e95a3ca	0.29226524
33	0x3f828664	1.0197263
34	0x3f40540a	0.75128233
35	0x3ee7a25c	0.45241058
36	0x3ce53341	0.027978541
37	0xbedee181	-0.4353142
38	0xbe393f98	-0.18090665
39	0x3e057126	0.13031444
40	0xbf1977bc	-0.59948325
41	0x3d65814f	0.05603152
42	0xbe54eb29	-0.20792831
43	0x3eba3c99	0.36374357
44	0xbe0da5a4	-0.13832718
45	0x3e68f23b	0.22748654
46	0xbd969337	-0.07352298
47	0x3ea92236	0.33033913
48	0x3f42fd16	0.7616743
49	0xbe89a1cf	-0.26881263
50	0xbebf132d	-0.37319317
51	0x3f5383e9	0.82623154
52	0x3f10093d	0.56264096
53	0xbe768519	-0.2407421
54	0xbe9b7fce	-0.30370945
55	0x3e54fb3b	0.20798962
56	0x3e65d68f	0.22445129
57	0x3e94e682	0.29082114
58	0x3d31a1d0	0.043367207
59	0x3d14e1e8	0.036348253
60	0x3ead7ef4	0.3388592
61	0xbed5c056	-0.41748303
62	0x3e2c23eb	0.16810577
63	0xbf1c290a	-0.6100012
64	0x3ef0d42f	0.47036883
65	0xbecd1299	-0.4005325
66	0x3ebb11d9	0.36537054
67	0xbeed10c0	-0.46301842
68	0x3f41b519	0.7566696
69	0xbec37c55	-0.38180795
70	0x3e276d79	0.16350354
71	0xbeb0bdec	-0.345199
72	0x3e57b059	0.21063365
73	0xbdc6781d	-0.096908785
74	0x3e98be3b	0.29832634
75	0x3de76446	0.112984225
76	0xbee5e57c	-0.44901645
77	0x3ea7d9eb	0.32783446
78	0x3e66f542	0.22554496
79	0x3e8c3a95	0.27388445
80	0xbe8f56e8	-0.27995992
81	0x3efcd037	0.49377605
82	0xbee28e71	-0.442493
83	0xbe0d4bb5	-0.13798411
84	0xbd8016f7	-0.0625438
85	0xbe34138b	-0.1758558
86	0xbe3d936f	-0.18513273
87	0x3d40205d	0.046905864
88	0x3f16ffd6	0.58984125
89	0xbe831fdb	-0.2561024
90	0x3e3e13f1	0.18562295
91	0x3e8a3e74	0.27000773
92	0x3d51dcad	0.051235843
93	0x3db5166f	0.088421695
94	0xbd95c7ba	-0.073134854
95	0xbd94eef5	-0.0727214
96	0xbd3beb40	-0.04587865
97	0x3d62e576	0.055394612
98	0x3e00e8f9	0.12588872
99	0x3f497cf8	0.7870631
100	0xbeb94a93	-0.36189708
101	0x3ea3c3ca	0.31985313
102	0xbd6504cd	-0.05591278
103	0xbe6da2dc	-0.23206657
104	0xbe683ca2	-0.2267938
105	0x3e7cdeac	0.24694318
106	0xbee990a4	-0.45618165
107	0xbeb60587	-0.35551092
108	0x3ef86fbe	0.48522753
109	0x3ebff386	0.3749048
110	0xbea41f39	-0.3205507
111	0xbea85a33	-0.32881317
112	0xbec6f97b	-0.38862213
113	0x3e74a8e1	0.23892547
114	0xbcc470f3	-0.02397964
115	0xbf0429d0	-0.516263
116	0xbe975db8	-0.2956369
117	0x3e66f89b	0.22555773
118	0xbedf2d20	-0.43589115
119	0xbe61c02f	-0.22045968
120	0x3e207b27	0.15671979
121	0x3ee8818f	0.45411345
122	0xbd3488d5	-0.044075806
123	0xbf0690c1	-0.52564627
124	0x3e8fdd82	0.28098685
125	0xbec0b999	-0.376416
126	0xbeab4411	-0.33450368
127	0x3f1f6681	0.62265784
128	0x3f401943	0.75038546
129	0xbf5a7b38	-0.85344267
130	0x3ecf4c26	0.40487784
131	0x3b530f7b	0.0032205272
132	0x3ebb0caf	0.36533114
133	0xbf061b6b	-0.52385587
134	0xbddf709f	-0.10910153
135	0x3ea1e3a9	0.31619003
136	0xbf0b98bd	-0.54529935
137	0x3e9e68d2	0.30939347
138	0x3db2d92d	0.08732829
139	0xbe0ae253	-0.13562898
140	0x3d678ca7	0.05653062
141	0xbe3f61fd	-0.18689723
142	0xbf581370	-0.8440466
143	0x3ee587b5	0.448301
144	0x3ec61856	0.38690442
145	0xbe7091ba	-0.2349309
146	0x3f989fbe	1.192375
147	0xbd0157a5	-0.031577725
148	0x3e306b68	0.17228472
149	0xbd8fe0ae	-0.07025276
150	0x3e4873e3	0.19575457
151	0xbed855cc	-0.42252958
152	0x3e229810	0.1587832
153	0xbf854b18	-1.0413542
154	0x3e4a02d2	0.19727638
155	0x3ede45ff	0.43412778
156	0xbf7207ad	-0.9454296
157	0x3e813d2c	0.25241983
158	0x3debb0d9	0.115083404
159	0x3ef90279	0.486347
160	0x3dced685	0.1009951
161	0x3dc95844	0.098312885
162	0x3ecaff7a	0.39648038
163	0x3d8cd6e5	0.068769254
164	0xbe9de3e8	-0.3083794
165	0x3e152b33	0.1456726
166	0x3ed5212f	0.4162688
167	0x3db83667	0.089947514
168	0x3e3533f2	0.17695597
169	0xbd977940	-0.073961735
170	0x3ec7b516	0.39005345
171	0x3eb68126	0.35645407
172	0xbeeff562	-0.468669
173	0xbca91390	-0.020639211
174	0xbe0c81d9	-0.13721408
175	0xbf79815b	-0.97463006
176	0xbeabe047	-0.33569548
177	0xbe3045d1	-0.17214133
178	0x3e4a9788	0.19784367
179	0xbdce9f99	-0.100890346
180	0xbe100737	-0.14065252
181	0xbe93c8a6	-0.2886402
182	0x3e1e96e0	0.15487242
183	0xbe1e0ebb	-0.15435307
184	0x3ed6d66d	0.4196047
185	0xbf9dd3db	-1.2330278
186	0x3f1fe5d3	0.6246006
187	0x3d38f5b1	0.045156185
188	0x3eb82253	0.35963687
189	0xbe5caf1f	-0.21551178
190	0xbef4c8ee	-0.47809547
191	0xbeb7b266	-0.35878295
192	0x3f492645	0.7857402
193	0x3e5c856a	0.21535268
194	0x3f3563e4	0.70855546
195	0xbf0de735	-0.5543092
196	0xbf8d4717	-1.103732
197	0xbeffb2fc	-0.49941242
198	0x3bc46643	0.005993636
199	0xbf72956e	-0.9475926
200	0x3dcf9771	0.10136307
201	0xbed83aa7	-0.42232248
202	0xbebee829	-0.372865
203	0x3f4ee1e5	0.8081344
204	0xbeb990e0	-0.36243343
205	0xbe8cd736	-0.27507943
206	0x3f0ec5fe	0.5577086
207	0x3dcaee27	0.09908705
208	0xbebeb234	-0.37245333
209	0xbe2fb206	-0.17157754
210	0x3e4a9343	0.19782738
211	0x3e315834	0.17318803
212	0x3f30e896	0.691049
213	0xbf37a74e	-0.7173966
214	0xbedc279c	-0.4299897
215	0x3d71e4d0	0.059056103
216	0xba48075f	-0.0007630493
217	0x3eed8923	0.4639369
218	0x3d867365	0.065649785
219	0xbe4dada6	-0.20085773
220	0x3e63ed8e	0.22258589
221	0xbd968c64	-0.07350996
222	0xbceb4983	-0.028721577
223	0xbef9ce89	-0.48790386
224	0xbee64891	-0.4497724
225	0xbe58b8a2	-0.21164182
226	0x3e02c01a	0.12768593
227	0xbdffb0f6	-0.124849245
228	0xbf2f48f1	-0.68470675
229	0xbf032507	-0.51228374
230	0x3e157a62	0.14597467
231	0xbe8d6209	-0.27613857
232	0x3e9e0e24	0.30870163
233	0x3f8c2ed9	1.0951797
234	0x3f185de1	0.5951825
235	0x3db3e99b	0.08784791
236	0x3f27f63f	0.65610117
237	0x3f2a5785	0.66539794
238	0x3f3a4d20	0.72773933
239	0x3d810a87	0.06300836
240	0x3ea286c0	0.3174343
241	0x3f4519ac	0.769923
242	0x3f0e7b84	0.5565722
243	0xbeed0bc0	-0.46298027
244	0xbdd9937c	-0.106238335
245	0x3e99b602	0.30021673
246	0x3ee345b3	0.44389114
247	0x3e34e62f	0.17665933
248	0xbefb69b0	-0.4910407
249	0xbea7613e	-0.32691377
250	0x3e338146	0.17529783
251	0xbe518455	-0.20460637
252	0xbed610d1	-0.41809705
253	0xbeaf0703	-0.34185037
254	0x3f2becde	0.67158306
255	0x3f0b46a2	0.5440465

network_body._body_endoder.seq_layers.0.bias f4 [128]
0	0x3c65b353	0.014019805
1	0x3afbe421	0.0019217768
2	0xbbe2fc08	-0.006927017
3	0xbb25d23b	-0.002530231
4	0xbae0ad4b	-0.0017141489
5	0x3c03b9c7	0.008039898
6	0x3b9fb18b	0.0048734597
7	0x3d0983e7	0.033573058
8	0xbc3e133b	-0.011601265
9	0x3c193d6f	0.009353026
10	0xbb634d09	-0.0034683368
11	0x3c0d8b78	0.008639209
12	0x3c1de9cc	0.009638261
13	0xbba1ba71	-0.0049355556
14	0x3b53d7ee	0.003232475
15	0x3b8cd92c	0.00429835
16	0x3c3b2d63	0.011424395
17	0x3c81d3fb	0.01584815
18	0x3c1d1a49	0.009588786
19	0x3c510b26	0.012759006
20	0xbc299140	-0.010349572
21	0xbaf53f95	-0.0018710966
22	0xbb34a765	-0.0027565595
23	0x3bdc58a3	0.0067244335
24	0xbbf780cb	-0.007553195
25	0x3ba24e6e	0.004953197
26	0x3b402d70	0.0029323958
27	0xbbd519cc	-0.0065033194
28	0x3c3971c1	0.011318625
29	0x3d1998cd	0.037499238
30	0x3b980d33	0.0046402453
31	0xbba79650	-0.005114354
32	0xbc11f385	-0.008908157
33	0xbb9a5417	-0.0047097313
34	0x3b0233b7	0.001986725
35	0xbc216dbd	-0.009852824
36	0x3b0b8421	0.0021288472
37	0xbbe05194	-0.0068456624
38	0xbc257df5	-0.010100831
39	0x3c8ae4fb	0.01695489
40	0x3c175083	0.009235504
41	0xbc4e4adf	-0.012591093
42	0xbb3eff41	-0.0029143842
43	0x3ba48c42	0.005021603
44	0xbbbf24a5	-0.005833226
45	0x3ca21900	0.019787312
46	0x3bc25b1c	0.0059312712
47	0xbc204042	-0.009780945
48	0xbc0ecc45	-0.008715694
49	0x3b7e4034	0.0038795592
50	0x3c63f082	0.013912322
51	0x3b2337d5	0.0024905105
52	0xb93b136c	-0.00017840945
53	0x3bb512a0	0.005525902
54	0xbb602f70	-0.0034207962
55	0xbc12462e	-0.008927865
56	0xbc30134c	-0.010746788
57	0xbc481bed	-0.012213689
58	0xba72ca2b	-0.0009261693
59	0x3a1c67b8	0.0005966383
60	0x3c8a2b24	0.016866274
61	0xbbffca39	-0.0078060892
62	0x3be7359d	0.0070559517
63	0xbc62c352	-0.013840513
64	0xbc394bdc	-0.01130959
65	0x37974e8f	1.8037184e-05
66	0xbb43bc00	-0.0029866695
67	0x3c1086e0	0.008821219
68	0x3c0e7c5c	0.008696642
69	0x3bed8c6d	0.007249406
70	0xbb0ae1bf	-0.0021191684
71	0xbc4ca6af	-0.012490912
72	0x3c941786	0.018077623
73	0x3b979f6c	0.004627159
74	0xbb573bd7	-0.0032842064
75	0xbbd40b39	-0.0064710644
76	0x3b590120	0.0033112243
77	0x3c69046a	0.014222244
78	0xba39de6c	-0.00070903334
79	0xbb68c9c2	-0.0035520648
80	0xbb994870	-0.0046778247
81	0xb9e8ec55	-0.0004442657
82	0xbc09ca9d	-0.008410123
83	0xbc05a8b5	-0.008157899
84	0x3bae20f3	0.0053139864
85	0x3afe1fa4	0.0019388092
86	0xbc1db48a	-0.009625563
87	0xbc53bfda	-0.012924159
88	0x3c2e9ca2	0.010657461
89	0xbb810506	-0.0039373664
90	0x3a164933	0.00057329534
91	0x3c4c5ec3	0.012473765
92	0x3a3a8f02	0.0007116647
93	0xbc192384	-0.0093468465
94	0xbb86793d	-0.004103808
95	0xbc0a8269	-0.008453944
96	0x3ac60e0e	0.001511039
97	0xbb7b358e	-0.0038331482
98	0xbb880a20	-0.0041515976
99	0x3bbe4969	0.005807091
100	0x3990f568	0.00027648662
101	0xbc5ceecb	-0.013484667
102	0x3cb65c12	0.0222607
103	0xbc3fce4a	-0.011706898
104	0x3bcb2fd0	0.006200768
105	0x3b955af4	0.0045579616
106	0x3ba2a183	0.0049631014
107	0xbb399816	-0.002831941
108	0x3bbb2720	0.005711451
109	0xbbf393b1	-0.0074333777
110	0x3c39a035	0.0113297
111	0x3c6de8cc	0.014520835
112	0x3c54af2e	0.012981219
113	0xbc318a8b	-0.010836254
114	0xbc3fd521	-0.011708529
115	0xbbd1085a	-0.0063791694
116	0xbc696972	-0.0142463315
117	0x3c97b55a	0.018519092
118	0xbc4c677c	-0.0124758445
119	0xbc37240a	-0.011178026
120	0x3c57516d	0.013141972
121	0xbb4ec554	-0.0031550722
122	0x3caa59db	0.0207948
123	0x3bbd30dd	0.005773647
124	0x3b454396	0.0030100099
125	0xbc42cf72	-0.011890279
126	0xbb17e3aa	-0.002317647
127	0xbb652844	-0.0034966627

network_body._body_endoder.seq_layers.2.weight f4 [128, 128]
0	0xbdea72ec	-0.11447701
1	0xbcdf24f8	-0.027239308
2	0xbdca92b3	-0.09891262
3	0xbe4db508	-0.20088589
4	0x3dda55b8	0.10660881
5	0xbe32e5fd	-0.17470546
6	0xbc9a1dfc	-0.018813126
7	0x3df6a8d9	0.12043924
8	0xbd3d24b8	-0.046177596
9	0x3dc570d7	0.09640663
10	0xbd8f01d1	-0.06982768
11	0x3d9dba57	0.07701557
12	0x3cf420e3	0.029800838
13	0x3bb62811	0.0055589755
14	0xbd4f7ed5	-0.050658066
15	0xbdab2213	-0.083561085
16	0xbcc15638	-0.023600683
17	0xbe03329d	-0.12812276
18	0xbd13398f	-0.035943564
19	0xbe0e5653	-0.13900118
20	0xbd0f3f57	-0.034972515
21	0x3b61981a	0.0034422935
22	0x3e4a3c1a	0.1974949
23	0xbde85708	-0.11344725
24	0x3cf219c5	0.029553303
25	0xbd8cad38	-0.06868976
26	0x3e7f9c96	0.24962077
27	0x3ba0fbd5	0.004912833
28	0xbdabe208	-0.083927214
29	0xbaabdd63	-0.0013112243
30	0x3d885001	0.066558845
31	0x3dd9fb87	0.10643678
32	0xbd9b2697	-0.0757572
33	0xbd0a9423	-0.03383268
34	0x3d221d02	0.039578445
35	0xbd9ae21c	-0.07562658
36	0x3e1f08d4	0.15530711
37	0xbd8bda5c	-0.06828758
38	0x3dd97081	0.106171615
39	0x3d5b6229	0.05356041
40	0x3c05b513	0.008160847
41	0xbc518cd0	-0.01278992
42	0xbd2aa5cf	-0.041662034
43	0x3d0493ea	0.032367624
44	0x3d1b1643	0.037863027
45	0x3dd069ad	0.10176406
46	0x3d8820aa	0.06646855
47	0xbdad59eb	-0.08464416
48	0x3d28d5a1	0.041219357
49	0x3cfc755a	0.030817676
50	0xbdaccd5a	-0.08437605
51	0x3bf968e0	0.007611379
52	0x3d864c2e	0.06557499
53	0x3d0f85d5	0.03503974
54	0x3c7fa02e	0.015602155
55	0x3e3f2957	0.18668114
56	0x3d419097	0.047257032
57	0xbe06816b	-0.13135307
58	0x3dad906c	0.08474812
59	0xbd5e4854	-0.054268196
60	0x3da15f00	0.07879448
61	0x3e0eeb7c	0.13957018
62	0xbdcc1a81	-0.09965993
63	0x3cea2db0	0.028586239
64	0xbc820236	-0.015870195
65	0x3e3142d4	0.17310649
66	0xbdd64c9b	-0.1046383
67	0xbdd51ec0	-0.10406256
68	0x3c02df4e	0.00798781
69	0x3ccad9c1	0.024762036
70	0xbda3df06	-0.08001523
71	0x3e069833	0.13143997
72	0xbca2c29d	-0.01986819
73	0x3c06a257	0.008217416
74	0x3d6e179f	0.058127996
75	0xba8807fc	-0.0010378356
76	0xbcfe2da2	-0.031027619
77	0xbd72e0f5	-0.059296567
78	0x3df215ac	0.1182054
79	0xbd8ce9ca	-0.06880529
80	0x3e411381	0.18855096
81	0x3cf9790c	0.030453227
82	0x3cf99827	0.03046806
83	0x3e403003	0.18768315
84	0xbc91bf09	-0.017791288
85	0xbd3b846d	-0.045780588
86	0x3d8f6a87	0.0700274
87	0x3dd1fa4e	0.1025282
88	0xbe07b698	-0.13253248
89	0x3d3edfa3	0.046599995
90	0xbcc08d80	-0.023504972
91	0x3e5df9fb	0.21677391
92	0xbd684c7f	-0.056713577
93	0xbdacb958	-0.08433789
94	0x3e2654fd	0.16243358
95	0x3d6e2697	0.05814227
96	0x3d681a98	0.056665987
97	0x3d1dec89	0.038555656
98	0x3df74f53	0.12075677
99	0x3e31dd30	0.17369533
100	0x3e485120	0.19562197
101	0x3d2c4529	0.042058144
102	0x3d46026e	0.04834216
103	0x3c47e3dd	0.012200323
104	0xbd24a7f1	-0.040199224
105	0xbb16a174	-0.0022984417
106	0x3e0631c1	0.13104917
107	0xbd8ede9f	-0.06976055
108	0xbe22c393	-0.15894918
109	0xbdcf7045	-0.101288356
110	0x3d0191e3	0.03163327
111	0xbdbb0701	-0.09132195
112	0xbe2c1161	-0.16803505
113	0xbdfa547d	-0.12223146
114	0x3df6db7a	0.120535806
115	0xbd77f69c	-0.06053792
116	0xbe04384f	-0.12912105
117	0xbadec606	-0.0016996271
118	0xbcdba061	-0.026809873
119	0xbe0a24f5	-0.1349066
120	0x3c8ec121	0.017426075
121	0x3e1c5488	0.15266621
122	0x3d20e811	0.039283816
123	0xbb8d0539	-0.004303601
124	0xbdaa2b65	-0.08309058
125	0xbd179fbb	-0.037017565
126	0x3d88367e	0.066510186
127	0xbe1acdca	-0.15117565
128	0x3d078bd4	0.033092335
129	0x3cb8a747	0.022540702
130	0xbd78c565	-0.060735125
131	0xbd59cc11	-0.05317313
132	0x3d19a120	0.037507176
133	0xbda8c680	-0.08240986
134	0xbdaa71b2	-0.08322467
135	0x3dd157cc	0.10221824
136	0x3e49289f	0.19644402
137	0xbcf760f5	-0.0301976
138	0xbd990c44	-0.074730426
139	0x3bb0dfdd	0.0053977803
140	0xbe52552f	-0.20540307
141	0x3db92ae1	0.090413816
142	0xbe2bffb0	-0.16796756
143	0x3e2c48fc	0.16824716
144	0x3e25d787	0.16195498
145	0x3ca2985d	0.019848043
146	0x3db3c1f8	0.08777231
147	0xbb8d71a7	-0.004316527
148	0xbc2ce53f	-0.010552703
149	0xbdba2d27	-0.090906434
150	0xbd0e2bb7	-0.03470966
151	0xbbea60f7	-0.0071526724
152	0x3c04c083	0.008102539
153	0x3d13994d	0.03603487
154	0xbc1654da	-0.009175504
155	0xbd620dd1	-0.055188958
156	0xbb22a118	-0.0024815258
157	0xbcde24e0	-0.027117193
158	0xbdda8927	-0.10670691
159	0x3df99e8e	0.12188445
160	0xbda72376	-0.081610605
161	0xbe2299a2	-0.15878919
162	0xbe2ef9e6	-0.17087516
163	0xbd962007	-0.073303275
164	0x3dc3624d	0.09540234
165	0xbd5eca0a	-0.0543919
166	0x3c1498ef	0.009069665
167	0x3cab8976	0.02093957
168	0x3c3ed98d	0.011648548
169	0x3c3beb69	0.0114697
170	0xbe466025	-0.19372614
171	0xbd9a9ad8	-0.07549065
172	0x3df90886	0.12159829
173	0xbd98aa89	-0.07454402
174	0xbd3a5fb5	-0.04550143
175	0x3d171461	0.03688467
176	0xbda31ca3	-0.079644464
177	0xbc34afc1	-0.011028231
178	0x3da15a7e	0.07878588
179	0x3df1e7d8	0.11811799
180	0xbcddd05f	-0.027076898
181	0x3d18ddab	0.037320774
182	0x3c3f82a6	0.011688864
183	0xbdc54c43	-0.096336864
184	0xbcf1f3a6	-0.029535126
185	0x3de28bb4	0.110618025
186	0x3da8dc9c	0.08245203
187	0x3d403e37	0.046934333
188	0x3c155fae	0.00911705
189	0xbe639059	-0.22223033
190	0x3d865bd5	0.06560484
191	0xbd6e9d4d	-0.058255482
192	0xbe1064a9	-0.14100899
193	0xbbcb936b	-0.006212642
194	0xbd08a771	-0.03336281
195	0xbe09efb5	-0.13470347
196	0x3c24bb49	0.010054418
197	0x3dcc35cd	0.09971199
198	0xbda329da	-0.07966967
199	0x3e1fd8b9	0.15610017
200	0x3e0ddbae	0.13853332
201	0x3d9c6a80	0.07637501
202	0xbd34d07a	-0.04414413
203	0x3d1b0a59	0.037851665
204	0xbd7d505c	-0.061844215
205	0x3e3278a3	0.17428832
206	0xbdbf05d9	-0.09327287
207	0x3dd137c5	0.10215715
208	0x3d25fd92	0.040525027
209	0xbdcdaccc	-0.10042724
210	0xbe29df34	-0.16589051
211	0xbc7ae05d	-0.015312281
212	0x3c8fd571	0.017557831
213	0x3c45432f	0.012039944
214	0x3cf949f4	0.030430771
215	0xbd1fccc8	-0.039013654
216	0xbda7194f	-0.08159124
217	0xbb8abb1b	-0.0042337305
218	0x3d86b76a	0.06577952
219	0x3db8fc53	0.09032502
220	0xbe0f23a1	-0.13978435
221	0x3d780cfb	0.060559254
222	0x3dbc1917	0.09184473
223	0xbb7f3e30	-0.0038946979
224	0xbd1412e0	-0.036150813
225	0xbda5d5bc	-0.08097407
226	0xbae71271	-0.0017629397
227	0xbd57d566	-0.052693747
228	0x3e2865ad	0.16445036
229	0x3dad9466	0.084755704
230	0x3cb6f0f5	0.022331694
231	0xbd93c991	-0.0721618
232	0xbde21eb8	-0.110410154
233	0xbd2821fe	-0.041048042
234	0xbc9694e7	-0.018381549
235	0x3d0b9068	0.034073263
236	0x3e20e6e3	0.15713076
237	0x3dcfb55e	0.10142015
238	0x3d97f142	0.07419063
239	0xbd747bec	-0.059688494
240	0xbc18be3c	-0.009322699
241	0xbcb1bfe1	-0.02169794
242	0xbd934e7a	-0.071927026
243	0xbd82d84a	-0.0638891
244	0x3c5cea6d	0.013483626
245	0xbd70da82	-0.058802135
246	0x3d91aed2	0.071134225
247	0xbe5dffbd	-0.21679588
248	0xbda59ef5	-0.08086959
249	0x3d3b14a6	0.04567399
250	0x3a2a16f7	0.00064884074
251	0x3d7731cb	0.06035022
252	0x3dd7f591	0.10544885
253	0xbc356c96	-0.011073252
254	0xbd59d892	-0.053185053
255	0xbd6afdf2	-0.057371087

network_body._body_endoder.seq_layers.2.bias f4 [128]
0	0x3aa468e9	0.0012543473
1	0x3c5b61b0	0.01338999
2	0x3c682dee	0.014171107
3	0xbc18a227	-0.009316004
4	0x3a4d231e	0.0007825362
5	0xbbf3734d	-0.0074295164
6	0x3bdbe374	0.006710464
7	0xbbab5176	-0.0052282168
8	0xbbb46c58	-0.0055060796
9	0xbba66a84	-0.0050786156
10	0xbc013a48	-0.0078874305
11	0xb7ebfd5e	-2.8132166e-05
12	0x3c9bb635	0.019007782
13	0x3b8b1b5c	0.004245205
14	0xbc3d6fd0	-0.011562303
15	0xbbba1032	-0.0056782
16	0xbc1a727c	-0.009426709
17	0x3b091fae	0.0020923424
18	0xbb9420a4	-0.0045204926
19	0x3b5dd4c3	0.003384874
20	0xbbc95ac9	-0.0061448556
21	0x3c128b03	0.008944276
22	0xbc659d5f	-0.014014571
23	0x3ba6ca36	0.0050900234
24	0x3b9de731	0.00481882
25	0x3b14aace	0.0022684815
26	0x3c83becb	0.016082188
27	0xbae46978	-0.0017426452
28	0x3cbd23a4	0.023088284
29	0xbc54d0af	-0.012989207
30	0xbc289425	-0.010289227
31	0xbc194ffa	-0.009357447
32	0x3b4f20f3	0.0031605333
33	0xbc0ffa1b	-0.008787657
34	0x3c33ba35	0.010969688
35	0x3bf5a847	0.007496867
36	0x3c01cd5c	0.007922497
37	0x3cba76ea	0.02276178
38	0xbbf95232	-0.0076086754
39	0x3b79fe73	0.0038146048
40	0x3bd45f5e	0.006481095
41	0xbb26da3b	-0.0025459665
42	0x3caaa224	0.020829268
43	0x3c2ffdba	0.0107416455
44	0xbc044460	-0.0080729425
45	0xbc405ee9	-0.011741378
46	0x3bfeab1a	0.0077718617
47	0xbb4fe265	-0.0031720635
48	0xba709711	-0.0009177784
49	0xbc20320d	-0.009777558
50	0x3b55b4bb	0.0032608944
51	0xba8e97f3	-0.0010879025
52	0x3caee074	0.021347262
53	0xbb7352c7	-0.0037128197
54	0x3b8cdfb7	0.00429913
55	0xbbb80abb	-0.0056165135
56	0x3a4e5036	0.0007870229
57	0x3b575204	0.0032855282
58	0x3c1e6748	0.009668179
59	0x3c81f24a	0.015862603
60	0xbb33622c	-0.0027371747
61	0x3ac5b5ca	0.0015084085
62	0xba8a2abf	-0.0010541304
63	0x3c26a2c3	0.010170641
64	0x3c320db1	0.010867522
65	0xbc2f22ff	-0.010689496
66	0xbc2bd827	-0.010488546
67	0x3c6d59c8	0.014486738
68	0x3b07c073	0.0020714074
69	0xbbc23ebf	-0.00592789
70	0x3b62fbbe	0.0034634913
71	0xbc144ceb	-0.009051542
72	0x3b448189	0.0029984436
73	0x3b830a1e	0.003999009
74	0x3c31a9ac	0.010843676
75	0x3bebb6b8	0.0071934126
76	0xbc3dac3a	-0.011576707
77	0xbc0a000d	-0.008422864
78	0xbc354a10	-0.011065021
79	0x3c9d7cfb	0.019224634
80	0xbbb47aaf	-0.005507789
81	0x3c012727	0.00788287
82	0xba76e6d2	-0.000941855
83	0x3c478a18	0.01217892
84	0xbc043d1d	-0.008071211
85	0x3c3b399d	0.01142731
86	0xbb0f7c7c	-0.0021894267
87	0x3c6c9f0c	0.014442217
88	0xbc484c82	-0.012225272
89	0xbc333439	-0.010937744
90	0xbc001408	-0.007817276
91	0xbb5a4648	-0.003330605
92	0xbc446c5a	-0.011988724
93	0x3ccf56a1	0.025309863
94	0xbc3a787f	-0.011381268
95	0x3c26c9f7	0.010179988
96	0xb9d940c3	-0.00041437717
97	0x3c29e89a	0.010370398
98	0xbc13afd7	-0.009014091
99	0xbb6bc07c	-0.0035972884
100	0x3c29cf67	0.01036439
101	0x3c33f9ec	0.010984879
102	0xbba23142	-0.0049497196
103	0x39804628	0.00024466333
104	0x3ab4cdea	0.0013794277
105	0x3ba9fd8c	0.005187696
106	0x3ba9f563	0.005186723
107	0xbc215314	-0.0098464675
108	0x3b0d6d4c	0.0021580039
109	0xbc33fb2e	-0.010985179
110	0x3c28c1d2	0.010300117
111	0xbbe310b4	-0.0069294814
112	0xbb38b4cf	-0.0028183942
113	0x3c2a4bc3	0.01039404
114	0x3c2a9a5f	0.0104127815
115	0x3c5c37ec	0.013441067
116	0x3be461c3	0.006969662
117	0x3b0df896	0.0021663061
118	0xbb50b717	-0.0031847411
119	0xbc2efec9	-0.010680863
120	0xbbb080f5	-0.0053864666
121	0x3c1336b0	0.0089852065
122	0xba8c3efd	-0.0010699924
123	0x3bdab423	0.006674306
124	0xbc291667	-0.010320283
125	0x3c1a4d54	0.0094178505
126	0x3cd5ee96	0.026114743
127	0x3cb50ede	0.022101816

action_model._discrete_distribution.branches.0.weight f4 [3, 128]
0	0x3c421ba3	0.011847409
1	0xbbac7d14	-0.005263934
2	0x3c8f5005	0.017494211
3	0xbbbb8716	-0.0057228906
4	0xbb1e3a1d	-0.0024143525
5	0x3c620739	0.013795667
6	0x3cc7381f	0.024318753
7	0xbc2090d8	-0.009800158
8	0xbc2fc691	-0.010728494
9	0x3c163834	0.009168673
10	0xbb146fcb	-0.0022649642
11	0x3b110908	0.0022130627
12	0xbc49b63e	-0.012311516
13	0xbbcf1f24	-0.006320851
14	0x3beff673	0.00732308
15	0xbbafc92c	-0.0053645577
16	0x3c3465c6	0.011010593
17	0xbcea4ac0	-0.028600097
18	0x3c4c5fed	0.012474042
19	0x3b89b5ef	0.0042025964
20	0xbc3a89ab	-0.011385362
21	0x3c6a7862	0.014310928
22	0x3caf9764	0.021434493
23	0x37da2ae6	2.6007601e-05
24	0x3925bdc7	0.00015806324
25	0x3c22c7d0	0.009935334
26	0xbcbe859b	-0.023257067
27	0x3c8faa6f	0.017537324
28	0xbcc3d331	-0.023904415
29	0x3c23f762	0.010007711
30	0xbb6ea260	-0.00364127
31	0x3b28a5f3	0.002573368
32	0x39f7bfee	0.0004725451
33	0xbc0ea944	-0.008707348
34	0x3b25b136	0.0025282628
35	0x3c8f65f1	0.017504664
36	0x3b862e77	0.0040948945
37	0x3bcdab06	0.006276491
38	0x3aa423d3	0.0012522883
39	0xbc18f04f	-0.009334638
40	0xbc230d56	-0.00995191
41	0x3c070b94	0.0082425065
42	0x3c892c44	0.01674474
43	0xbc8192d0	-0.015817076
44	0xbbe55c27	-0.006999511
45	0x3acf924a	0.0015836444
46	0xbb792ee8	-0.0038022343
47	0x3c9e8280	0.019349337
48	0x3b5bb750	0.003352601
49	0x3bb08420	0.0053868443
50	0x3cd32b02	0.025777344
51	0x3c840587	0.016115917
52	0xbc6a1122	-0.014286311
53	0xbb59ed9f	-0.0033253205
54	0x3c5b7a6c	0.013395887
55	0x399d8949	0.0003004766
56	0xbbf6ae60	-0.0075281113
57	0x3b15b22e	0.00228418
58	0x3c57151e	0.013127593
59	0xbc58bb72	-0.013228284
60	0xbb94470e	-0.004525072
61	0x3b47a8b7	0.0030465552
62	0x3c013196	0.007885357
63	0x3c98d258	0.018654987
64	0x36360140	2.712084e-06
65	0x3c8f1d82	0.017470125
66	0xbc017923	-0.007902416
67	0x3c405e63	0.011741254
68	0x3b3b952b	0.0028622847
69	0x3bf7495d	0.0075465874
70	0xbb8f7ac3	-0.004378648
71	0x3b5eb3df	0.0033981723
72	0x3bfcfa78	0.007720288
73	0xbc2e8552	-0.010651903
74	0x3c504983	0.012712839
75	0xbbbb319e	-0.005712702
76	0x3c3270ad	0.010891122
77	0x3b4ed84d	0.003156203
78	0x3bd00fa5	0.006349521
79	0x394dde6e	0.00019633185
80	0x3c749f43	0.014930549
81	0x3a19b8ef	0.0005864044
82	0x3c4c0bff	0.012454032
83	0x3d0f2059	0.03494296
84	0x3b66ee5a	0.0035237283
85	0xbbd6cb75	-0.0065550157
86	0xbc45ba25	-0.012068306
87	0x3cfce94e	0.030872967
88	0x3aa74e97	0.001276451
89	0xbbaad877	-0.005213793
90	0xbbb62435	-0.0055585154
91	0x39b68a8b	0.00034816968
92	0x3b8b887b	0.004258213
93	0x3d0179ac	0.031610176
94	0xbbcf9527	-0.006334919
95	0x3c39b705	0.011335139
96	0xbbc1019e	-0.0058900854
97	0x3c33f9fe	0.010984896
98	0xbc0f68c7	-0.008753008
99	0x3bcd3a1d	0.006263031
100	0xbc689f17	-0.014198086
101	0xbc492aae	-0.012278242
102	0x3b1fff73	0.0024413734
103	0x3c554a43	0.013018194
104	0x3c55d69d	0.013051656
105	0xbac517b9	-0.0015036977
106	0xbb2bf64c	-0.0026239334
107	0xbc11162b	-0.008855383
108	0xbbabdaf6	-0.005244608
109	0xbc0323fa	-0.008004183
110	0x3b18e4c3	0.0023329712
111	0x3b91c45d	0.004448457
112	0x3c9c6ee9	0.019095855
113	0x3c91a19b	0.017777255
114	0x3c0a0c97	0.008425853
115	0x3b86712b	0.004102846
116	0xbc29b524	-0.010358129
117	0x3bdfae7a	0.006826219
118	0xbb462506	-0.003023447
119	0x398fe85e	0.00027448212
120	0xbb2a1013	-0.0025949522
121	0x3c6e7b35	0.014555742
122	0xbb99ec26	-0.0046973405
123	0x3c11ba99	0.008894586
124	0x3b6e1fec	0.0036334945
125	0x3b1b04c4	0.0023653964
126	0x3c29b5fb	0.010358329
127	0x3ba3dc79	0.0050006476
128	0xbb337741	-0.0027384313
129	0x3b822d7e	0.0039727082
130	0xbc6f5db3	-0.014609742
131	0x3b8fb042	0.0043850252
132	0x3aa621aa	0.0012674828
133	0x3aa40a59	0.0012515291
134	0xbc5aab70	-0.013346538
135	0xbb25983f	-0.0025267748
136	0x3b7d443f	0.0038645414
137	0xba022b73	-0.0004965581
138	0x3b218387	0.0024645047
139	0xbaaddf99	-0.001326549
140	0xbb397282	-0.0028297012
141	0x3b7bb0ef	0.0038405021
142	0x3b624a2a	0.0034529069
143	0x3bc08fc9	0.0058765155
144	0x3a869950	0.0010269079
145	0x3cb1d9f0	0.021710366
146	0x3b4179e4	0.0029522115
147	0x3bd446e1	0.006478176
148	0x3b69ed3b	0.003569438
149	0xbc4c6c2e	-0.012476964
150	0x3b4373a1	0.002982356
151	0xbb9b05d5	-0.00473092
152	0xbc87db7e	-0.016584154
153	0x3c382734	0.0112398155
154	0x3c3e2f1e	0.011607913
155	0xbcc4ceba	-0.024024356
156	0x3b74a284	0.0037328312
157	0x3b918ab7	0.004441585
158	0x3b8ad2aa	0.004236539
159	0x3b027424	0.001990565
160	0xbc992346	-0.018693577
161	0xbaf7ad35	-0.0018896224
162	0x3b64b917	0.0034900361
163	0xb93a87bc	-0.00017788907
164	0x3b545915	0.003240173
165	0xbcb4c798	-0.02206783
166	0x3b470efd	0.0030373924
167	0x36ebe3c0	7.0300594e-06
168	0x3b42a6b7	0.002970142
169	0xbcb49887	-0.022045387
170	0xbca7f247	-0.020501269
171	0xbb0d9c7f	-0.0021608172
172	0x3c238e25	0.00998262
173	0xbafa9a2a	-0.0019119431
174	0x3b93ce44	0.0045106728
175	0xbcb267af	-0.021777956
176	0xbc763b5a	-0.015028799
177	0xbbe091a8	-0.006853301
178	0x3b7774d6	0.0037758849
179	0x3b9b2766	0.0047349213
180	0x3c01e793	0.007928747
181	0x3baca0ef	0.005268208
182	0xbb061953	-0.0020461872
183	0x3c2a15d2	0.010381179
184	0xbb8dfe41	-0.004333288
185	0xbbd3b4d8	-0.0064607672
186	0xbc0c097c	-0.008547183
187	0xbba0b113	-0.0049039214
188	0x3c7e50e5	0.015522216
189	0xbade3339	-0.0016952521
190	0x3b4e8bc6	0.0031516417
191	0xb872b564	-5.786623e-05
192	0xbc266af2	-0.010157334
193	0xbc223739	-0.009900861
194	0xbb366b6b	-0.0027835022
195	0xbc71a68a	-0.014749179
196	0xbc55888d	-0.0130330445
197	0xbad1e2e4	-0.0016013053
198	0xbc0c4957	-0.008562407
199	0xbcb14b18	-0.021642253
200	0xbc410b3a	-0.011782462
201	0x3c823dbc	0.015898578
202	0x3c23d3c6	0.009999221
203	0xba2ea019	-0.00066614297
204	0x3b05ad7d	0.0020397597
205	0xbb32cfe6	-0.0027284562
206	0xbbc748f4	-0.0060816947
207	0x3c26b85b	0.01017579
208	0x3c1e24cd	0.009652329
209	0xbb2a335f	-0.002597056
210	0x3bbcd761	0.00576298
211	0xbcc5aed5	-0.024131218
212	0xbb9da0eb	-0.0048104427
213	0xba44ad35	-0.00075026165
214	0xbb6fa53f	-0.0036567
215	0x3902f21a	0.00012487956
216	0x3b0e109e	0.0021677385
217	0xbb786d4c	-0.0037906943
218	0x3beaec87	0.0071693095
219	0xb8d23f1e	-0.00010025337
220	0x3b08b988	0.0020862538
221	0x3b05f3f7	0.0020439604
222	0xbbdbe559	-0.00671069
223	0xbc2e3812	-0.010633485
224	0xbb0d56c7	-0.0021566616
225	0x3ba99e54	0.005176345
226	0xbc4b99b6	-0.012426784
227	0x3b4c0b78	0.0031134766
228	0xbaf16e3f	-0.0018419697
229	0xbaa855b9	-0.001284293
230	0xbc8299d0	-0.015942484
231	0xbc88c429	-0.016695099
232	0xbc0bcf31	-0.008533285
233	0x3b885b21	0.004161254
234	0xbccf329c	-0.025292687
235	0xbbc3401a	-0.0059585692
236	0x3c4d19fc	0.012518402
237	0xbc28b440	-0.010296881
238	0x3c053537	0.008130363
239	0xbb9e6597	-0.004833888
240	0x3bff2ce8	0.0077873357
241	0x3c1c4326	0.009537494
242	0x3ba13e4a	0.0049207555
243	0xbbaaa7d5	-0.0052079954
244	0x3c118079	0.008880728
245	0xb7bf158a	-2.2779004e-05
246	0x3ab3600c	0.001368524
247	0xba81054f	-0.0009843501
248	0xbc7719d8	-0.015081845
249	0x3bc8d514	0.0061289165
250	0xbc75075c	-0.014955368
251	0xbc6c33b0	-0.01441662
252	0x3aa5ee9f	0.0012659616
253	0xb9b8e237	-0.00035263758
254	0xbc5529f3	-0.01301049
255	0xbb3500b7	-0.0027618834

action_model._discrete_distribution.branches.0.bias f4 [3]
0	0xbb49eedd	-0.003081254
1	0x3b3ae1b2	0.0028515873
2	0x3965c59e	0.0002191276

action_model._discrete_distribution.branches.1.weight f4 [2, 128]
0	0x3b30aea8	0.0026959572
1	0xbc800a83	-0.015630012
2	0x3c7affc6	0.01531977
3	0x3b80c9cf	0.0039303075
4	0xbc26aa9a	-0.0101725105
5	0xbb2ef6e0	-0.0026697442
6	0x3d04789f	0.032341596
7	0x3c004589	0.0078290785
8	0x3ac4f381	0.0015026183
9	0x3c8b2717	0.016986413
10	0x3b11dfaf	0.002225857
11	0xbc162b0e	-0.0091655385
12	0xbbed8ed8	-0.0072496943
13	0x3c31441e	0.010819463
14	0x3bca3344	0.006170662
15	0x3b99fa60	0.0046990365
16	0x3b8f0cc9	0.004365538
17	0x3b1e6762	0.0024170508
18	0x3c429925	0.011877333
19	0xbbb2412a	-0.005439897
20	0x3baf9e53	0.00535945
21	0x3ce73bef	0.02822682
22	0xbac12f90	-0.0014738906
23	0x3acd5d62	0.0015668089
24	0x3c560d97	0.0130647635
25	0x3b7952ef	0.0038043817
26	0xbc22a7f2	-0.009927737
27	0x3bfb92d7	0.007677417
28	0xbce90485	-0.028444538
29	0x3b822006	0.0039711026
30	0x3bc73c7f	0.0060802097
31	0x3ca99471	0.020700665
32	0xbbd34063	-0.0064468845
33	0x3aa488db	0.0012552993
34	0xbc81caa6	-0.0158437
35	0x3cf4f873	0.029903626
36	0x3cc1092f	0.02356395
37	0x3cd0361e	0.02541643
38	0x3b274f80	0.0025529563
39	0xbc48d960	-0.0122588575
40	0xbc216444	-0.009850565
41	0x3cca864a	0.024722237
42	0x3cb65c69	0.022260861
43	0xbbce7592	-0.0063006366
44	0x3c25ee79	0.010127657
45	0xbbf7b497	-0.00755937
46	0xbb35aaec	-0.0027720286
47	0x3cfad716	0.03062014
48	0xbbb15bab	-0.005412539
49	0x3ba0f5d9	0.00491212
50	0xbc7474f3	-0.014920461
51	0x3cc3cae6	0.02390046
52	0xbca72079	-0.020401226
53	0xbaa5ad98	-0.0012640236
54	0xbc5404e6	-0.012940621
55	0x3b20d990	0.002454374
56	0xbc15cc56	-0.009142956
57	0x3aed0304	0.0018082564
58	0xbbd7d9f6	-0.0065872623
59	0xbc607804	-0.013700489
60	0x3aaca136	0.0013170603
61	0xba3f9a7b	-0.0007309091
62	0x3c52012a	0.01281766
63	0x3d03d341	0.03218389
64	0xbc505327	-0.012715138
65	0x3c76c3ff	0.015061378
66	0xbba39bbd	-0.0049929307
67	0x3cfd1ead	0.030898416
68	0x3c402481	0.011727453
69	0xbbbf269f	-0.0058334614
70	0xbbbb6557	-0.0057188678
71	0x3c40b4e9	0.011761882
72	0x3cd96114	0.026535548
73	0x3a43fa6a	0.0007475974
74	0x3acea883	0.0015766773
75	0xbc045141	-0.008076013
76	0x3c951f34	0.018203355
77	0x3c06f060	0.008236021
78	0x3a5b3644	0.0008362273
79	0xbc8a15f4	-0.016856171
80	0x3bb01b7a	0.005374369
81	0xbc6b5347	-0.014363117
82	0x3b1c5017	0.0023851448
83	0x3cfe98d7	0.03107874
84	0xbaef3db6	-0.0018252644
85	0xbbcb6620	-0.0062072426
86	0xbc154d7a	-0.00911271
87	0x3cb04a7c	0.021519892
88	0x3c1a9569	0.009435036
89	0x3c8bb889	0.017055767
90	0x3c740da9	0.014895835
91	0x3c046c3b	0.008082445
92	0x3bf616c9	0.0075100404
93	0x3d19c552	0.037541695
94	0x3c8346cf	0.016024975
95	0x3c9c47d3	0.019077217
96	0xbbb27c20	-0.0054469258
97	0x3cc92d1d	0.024557645
98	0x3c9ec0d2	0.019379053
99	0x3b036644	0.0020049969
100	0xbc39dbc3	-0.011343899
101	0xbccaabf2	-0.024740193
102	0x3cd7bb0d	0.02633431
103	0x3cac02f0	0.020997494
104	0x3cdf7b45	0.02728046
105	0xbc47b210	-0.0121884495
106	0xbc6b923c	-0.014378127
107	0x3b90fd80	0.004424751
108	0x3bcea221	0.0063059484
109	0x3bcaf2b3	0.006193483
110	0xbc68ee64	-0.014216993
111	0x3c966124	0.018356867
112	0x3c5cb894	0.013471741
113	0xbc390949	-0.011293718
114	0xbc6af64a	-0.014340946
115	0xbbdb88ce	-0.006699658
116	0x3bbce1d0	0.0057642236
117	0x3c2156c1	0.009847344
118	0x3b06fcf2	0.0020597544
119	0xbae407f6	-0.0017397392
120	0xbba56e6c	-0.0050485637
121	0xbc60a51a	-0.013711238
122	0x3b356866	0.0027680635
123	0x3c296ebf	0.010341345
124	0x3c099984	0.008398417
125	0x3b34de53	0.0027598336
126	0x3d0eb0be	0.034836523
127	0x3d06c10f	0.03289896
128	0x3b45efd2	0.0030202758
129	0x3c065604	0.008199219
130	0xbc82b8a4	-0.015957184
131	0xbc0d65e2	-0.008630248
132	0xbc24d874	-0.010061372
133	0x39455504	0.00018819055
134	0xbc857626	-0.01629169
135	0xbbf0178a	-0.007327025
136	0xbc06c0df	-0.008224695
137	0xbb8d86fe	-0.004319071
138	0xbbbf6f96	-0.0058421595
139	0xbb3818a8	-0.0028090868
140	0x3c93ba08	0.018033043
141	0x3c89f523	0.016840523
142	0xbc09f116	-0.008419296
143	0xbb0fbee0	-0.0021933839
144	0xbc0c2ec3	-0.008556071
145	0x3bff835a	0.0077976407
146	0x3c0e55e3	0.008687469
147	0xbab539da	-0.0013826445
148	0x3af39263	0.0018583055
149	0xbcbf33df	-0.023340164
150	0xbc50ad14	-0.012736578
151	0x3b939286	0.004503551
152	0xbba48c63	-0.005021618
153	0x3c133157	0.0089839315
154	0xbc109dab	-0.0088266535
155	0x3c52ea21	0.0128732035
156	0x3c6320dd	0.013862816
157	0xbc182963	-0.009287211
158	0xbac3d90c	-0.0014942004
159	0x3b613149	0.0034361652
160	0xbaa27608	-0.0012394795
161	0xbbe44f46	-0.006967458
162	0x3c876381	0.01652694
163	0xbcaa6a9b	-0.020802787
164	0xbd039225	-0.032121796
165	0xbd391865	-0.04518928
166	0x3bae5272	0.005319887
167	0x3bfe15db	0.00775407
168	0xbb22ac57	-0.002482196
169	0x3ba37bc9	0.0049891216
170	0xbd13fc05	-0.036129016
171	0x3c14e4a1	0.0090877125
172	0xbc4677ec	-0.012113553
173	0xbc605e96	-0.013694426
174	0x3b72f329	0.0037071204
175	0xbd36b569	-0.0446066
176	0xbbc533ea	-0.0060181515
177	0xbba3ad3a	-0.0049950154
178	0xbbf6da8a	-0.007533376
179	0xbcbf0592	-0.023318086
180	0x3c75e81f	0.015008955
181	0xbc97ba27	-0.018521382
182	0xbb7002f8	-0.0036622863
183	0xbc0f7fba	-0.00875848
184	0xbb10abb1	-0.0022074992
185	0x3c39d730	0.011342809
186	0x3caa9242	0.020821694
187	0x3d241f48	0.040068895
188	0xbb1afd9d	-0.00236497
189	0xbad24b8e	-0.0016044246
190	0xbcaf9796	-0.021434586
191	0xbc8e23ed	-0.017351115
192	0x3c8596c2	0.016307238
193	0xbcb2e627	-0.02183826
194	0xbc641401	-0.013920785
195	0xbccfd5ad	-0.025370443
196	0xbc82209e	-0.015884694
197	0xbc0cd7fe	-0.008596418
198	0x3c16c185	0.009201412
199	0xbb8ba17a	-0.004261193
200	0xbbe56896	-0.007000993
201	0x3c253523	0.01008347
202	0x3c95d1cb	0.018288514
203	0xbb6cc3b0	-0.003612738
204	0xbcca99dc	-0.024731569
205	0xbc9dc880	-0.019260645
206	0xbc1ab6b3	-0.009442973
207	0x3cbc4f28	0.022986963
208	0x3aab5aed	0.0013073363
209	0xba458d4b	-0.0007536008
210	0x3add361f	0.0016877091
211	0xbcb29798	-0.021800801
212	0xbbca947a	-0.0061822506
213	0x3ca6be84	0.020354517
214	0xbc59bb07	-0.01328922
215	0xbcc703c7	-0.024293793
216	0xbb78c3be	-0.0037958468
217	0xbc0bfcda	-0.008544171
218	0x3b243621	0.0025056677
219	0xbb804730	-0.003914736
220	0xbc9ac9d0	-0.01889506
221	0xbc8681e1	-0.016419353
222	0xbbcf2e9e	-0.006322696
223	0xbc810454	-0.015749134
224	0xbae59bbb	-0.0017517725
225	0xbc9ebde5	-0.019377658
226	0x3c91c79f	0.017795382
227	0xbbcde4ae	-0.0062833643
228	0x3bb5b240	0.0055449307
229	0x3abe9f0e	0.0014543252
230	0xbcdbb622	-0.026820246
231	0xbc940d1e	-0.018072661
232	0xbcb4a61b	-0.022051862
233	0xbc0267a2	-0.007959278
234	0x3bde4cdb	0.006784064
235	0x3aa4c4f3	0.0012570902
236	0x3bbee2b3	0.0058253645
237	0x3ad6c4a4	0.0016385508
238	0x3c5a492c	0.01332311
239	0xbc25103d	-0.010074672
240	0x3a40279b	0.00073301204
241	0x3cb4ff62	0.022094432
242	0x3c9b804f	0.01898208
243	0x3ca5668e	0.020190503
244	0x3c6fc3f0	0.0146341175
245	0x3c459c2b	0.012061159
246	0xbb6c7a1f	-0.0036083532
247	0xbc31ffc1	-0.010864199
248	0xbc2445c9	-0.010026404
249	0x3c1f7931	0.009733484
250	0xbc66f6a1	-0.014096887
251	0xbd000b6c	-0.031260893
252	0xba6d6a96	-0.0009056715
253	0x3c83dbaa	0.016095955
254	0xbd1f7098	-0.038925737
255	0xbcf9a07f	-0.030472038

action_model._discrete_distribution.branches.1.bias f4 [2]
0	0xbc302b67	-0.010752535
1	0x3c302b68	0.010752536
