results/V3/BossAi/BossAi-147137.onnx (onnx, 79397 bytes, 9 tensors)

discrete_act_size_vector f4 [1, 2]
00000000: 0000 4040 0000 0040
3.0 2.0

network_body._body_endoder.seq_layers.0.weight f4 [128, 6]
00000000: d217 88bf 25ed a0bd 2a15 acbd 84b6 423d
00000010: 532f 353f 1303 dabe b9c7 36be 415a c8be
00000020: 22ca 7dbe ca7b 593f 5079 463e fa59 ccbe
00000030: 1fc1 033f 42dd 8c3e b61f a03d 0fff 303e
00000040: bbd9 d83e 4cfe 2abf 5a48 0c3e e361 b33e
00000050: 5156 f63d 4b01 163d caec 85be d013 20be
00000060: 6802 b43e c743 06be 4c0d 863e 4290 3cbf
00000070: 4963 0b3e a34e 3f3f 5883 54be e323 8c3e
00000080: 1efe 093f ca99 183f 4b17 2dbe 4995 073f
00000090: 3b22 9bbe a35a c53e f405 d6bc 1227 c03e
000000a0: da02 253f d1c3 59bf 945d 2abf cff0 263c
000000b0: 66e5 413e 1613 5b3e c5bc c63e e740 04be
000000c0: 9506 113e d67b a7be c6cf 493e 80a5 ca3c
000000d0: 6870 99be 31bb 3e3f bbfe 9ebe 613c cabe
000000e0: 9d2f 833d 6cd2 95bd 9db1 cb3e 2b3c d5be
000000f0: 59a4 65bd e0b3 93be 71fe cfbe 24a0 02bd
00000100: 0166 53be 86f5 1bbf 216b d2be 3931 8a3c
00000110: 0377 3bbf 2503 38bd 81df e4bd 015b bb3e
00000120: 9f59 073f cbe4 4c3f d0f9 b63e fa7b 943e
00000130: 9046 5e3e 437a c83e 33db f63e 2b0d 743e
00000140: 3978 113f 3bc7 333e 4ec6 bc3e d7ef 8abf
00000150: 66a0 143f 491d 69be 95ad fdbe 68d0 e13d
00000160: 467c eb3e cf15 60be 83dd 5c3e 5123 083f
00000170: cf8c 09bf 278f bc3e ced0 d6bc 6301 033d
00000180: 1766 3bbe b7a5 89be 6514 dfbc adc5 ba3a
00000190: 8e15 45bf 73bf 00bf f819 823e 299c e7be
000001a0: 1f3a 213f a1f7 9f3e 6cc9 b43e 10f0 82bc
000001b0: 5a19 183f 2bfb d6be 05da ab3c d695 333e
000001c0: 58c8 b9bd 61da a93e 4cc0 77be 2b0f 1a3e
000001d0: e5b1 0f3e 03e6 be3e db61 073f 3c6c 1cbf
000001e0: 12d4 16bc b917 1b3f f74c cc3e 4407 d5be
000001f0: 4d0f 913e 0265 a6be 4235 6c3e 7060 663e
00000200: 9dd0 e03c 758c 0b3f 6b76 d23d 1079 77bf
00000210: 1361 243e 1015 c6bd d73e 3c3f 3a5e 613f
00000220: 5943 0abf 4bc0 013e cf06 87be 2807 753f
00000230: 9f44 e43e 01ca bdbe 1771 4c3f 31b6 2fbe
00000240: 59f2 e9bd b254 763e 6646 e1be 740f 19be
00000250: c6a2 c43e 099e 013f ef75 84be 8e3d 1fbf
00000260: 6bc9 b3be fc00 a13e e07f 6cbe 0400 c43e
00000270: 7094 d83e 9fc9 9f3e 0f84 093f ea81 d4be
00000280: d3ef b0be c383 8b3d 75d8 593f 02d1 213f
00000290: 566e 27be 3397 3abd 3a36 a0be 2e42 a03e
000002a0: 3282 9ebe 3f4c 76be 8900 e73e 3f10 a8be
000002b0: 740b 233e ce5f c3bd 4224 70be d55a 73be
000002c0: 074a ffbd b241 4bbf a4ad e7be a741 f13e
000002d0: 7cff 413d fc4c 5abe 2725 303d c7f8 b03e
000002e0: ff86 603f 747b 423e 532d 523e 97d3 97be
000002f0: f675 3a3f f029 e6bd 1c91 a63d 7755 38be
00000300: 96fb 613e f00e 1cbe 245c 4d3e 8eff f3be
00000310: 6671 acbe e499 023f 2d02 b73e 6051 6cbe
00000320: 0434 693e 9cf3 773e 270d cd3e 31c4 a93e
00000330: c9e7 833e c0e8 e5bd ffe3 12bf fa89 d33d
00000340: ec54 23bc c638 c4be bacc cc3d 3e24 523e
00000350: 4bbc 1ebf f199 8ebd 6fce 1dbe 71ed 30be
00000360: fdac 14bf 7407 9bbe 3ea7 e23d 511f 7b3e
00000370: 4a23 dfbe b9f2 523e eeaf 7b3e c003 183f
00000380: 768c 15bf 7a69 c3bd 350d 1a3f 3fc4 aa3e
00000390: 3d12 903e ec9f 293f e496 23be 4ac9 04be
000003a0: 7f97 fdbe 8281 68bb 1299 eb3e 22b9 d53c
000003b0: 6bad e93e 9c30 b43e e0ce 063f af7d 293f
000003c0: 0875 efbd 6331 f7be 380f 413d 2188 46be
000003d0: ead3 47bf e69d 77be 1d51 3b3e b069 0d3e
000003e0: 5a98 383f eb2a 1b3f edf6 073f d6ea 6cbe
000003f0: 2931 2cbe ade5 a13c 002f eabe 86a3 d1bc
-1.0632269 -0.07857732 -0.08402474 0.04753734 0.70775336 -0.4258047 -0.17849626 -0.39131358
-0.24784139 0.8495451 0.19382215 -0.39912397 0.51466554 0.27512556 0.078185484 0.17284797
0.42353615 -0.66794276 0.13699475 0.3503562 0.12028182 0.036622327 -0.26157218 -0.15632558
0.35158086 -0.13111793 0.2618202 -0.7365762 0.13612093 0.74729365 -0.20753229 0.2737113
0.5390338 0.59609663 -0.16903417 0.52962166 -0.30299553 0.38545713 -0.026125886 0.37529808
0.64457476 -0.8506442 -0.6654904 0.010189249 0.18935165 0.21394 0.38815895 -0.12915383
0.14162667 -0.32711667 0.19708166 0.02473712 -0.29968572 0.7450438 -0.3105372 -0.3949919
0.06405566 -0.073155254 0.39783946 -0.41647467 -0.056064937 -0.2884817 -0.4062381 -0.031891003
-0.2064438 -0.60921514 -0.41097358 0.016869174 -0.7322847 -0.044924874 -0.111754425 0.36592868
0.52871126 0.8003661 0.35737467 0.29000837 0.21706605 0.39155778 0.4821411 0.23833148
0.5682407 0.17556469 0.36870044 -1.0854443 0.5805725 -0.22765078 -0.49546495 0.110260785
0.4599325 -0.2188332 0.21568875 0.5317889 -0.5373048 0.36827967 -0.026222613 0.031983744
-0.18300663 -0.26884243 -0.027231405 0.0014249586 -0.76986015 -0.5029213 0.25410438 -0.45236328
0.6297931 0.31243613 0.35309923 -0.015983611 0.59413683 -0.419885 0.020977983 0.17537627
-0.09071416 0.33174422 -0.24194449 0.15044849 0.14032705 0.3728486 0.5288369 -0.6110265
-0.009205835 0.6058307 0.3990247 -0.41607106 0.28331986 -0.32498938 0.23067191 0.22497725
0.027443225 0.54511195 0.10276493 -0.966691 0.16052656 -0.09671986 0.73533386 0.88034403
-0.54009014 0.1267101 -0.26372382 0.95714045 0.44583604 -0.3706818 0.7986006 -0.17159344
-0.11423177 0.24055746 -0.43999022 -0.14947301 0.38405436 0.5063177 -0.25871226 -0.622033
-0.35114607 0.31446064 -0.23095655 0.38281262 0.4230075 0.31208512 0.5371713 -0.41505367
-0.3455797 0.06812241 0.8509591 0.63209546 -0.16350684 -0.04555435 -0.31291372 0.3130049
-0.30958706 -0.24052523 0.45117596 -0.32824895 0.15922338 -0.09539758 -0.23451331 -0.23765118
-0.124652915 -0.7939712 -0.45249665 0.471204 0.04736279 -0.2131843 0.04300418 0.34564802
0.8770599 0.18992406 0.20525102 -0.29653618 0.72836244 -0.11238468 0.08133146 -0.18001352
0.22068629 -0.15240073 0.2005468 -0.4765591 -0.33680266 0.5101607 0.35743847 -0.23077917
0.22773749 0.24214023 0.40049097 0.33157495 0.25762776 -0.11226034 -0.57379144 0.10329051
-0.009968977 -0.38324565 0.09999986 0.20521638 -0.6200606 -0.06962956 -0.1541078 -0.17278077
-0.5807646 -0.30279124 0.11067055 0.24523665 -0.4358161 0.20600404 0.2457883 0.5938072
-0.5841745 -0.095416024 0.601764 0.3335285 0.28138915 0.66259646 -0.15975529 -0.1296741
-0.49529645 -0.0035477583 0.4601522 0.026089255 0.4564012 0.35193336 0.52659416 0.662074
-0.11692244 -0.48279867 0.047133654 -0.19387867 -0.7805773 -0.24181327 0.18292661 0.13809848
0.7210747 0.6061236 0.53111154 -0.23136458 -0.16815628 0.019762838 -0.45738983 -0.02559067

network_body._body_endoder.seq_layers.0.bias f4 [128]
00000000: 5eaf 30bb 9959 0e3c 4ec0 5d3b 9166 8f3b
00000010: 5a80 acbb 4dc3 923c 752e b73b 0e99 74b8
00000020: 5ea5 9a3c 8e25 553c 45cf 9a3c 4d53 a83c
00000030: dafc d0ba 7d52 00ba 06c5 383d 226f 073d
00000040: 2408 773c dc5b 1eba e82d 2f3b 4079 113c
00000050: 8603 463b ab33 3d3c 1aaa 463c 4ab3 923c
00000060: e4fb 7e3a 60f7 8ebc 890a 16bc bee4 88bc
00000070: 2132 203d 4a70 5ebb 8960 663c 8d69 3c3c
00000080: 2e56 373c dc95 363c 95d1 ec3b 1a96 e23b
00000090: 6c46 7e3c 3c65 c63c 24c7 a23b 03a3 2eb9
000000a0: 1657 ee3c 2325 5ebb 2ce6 543c aa8c 02bc
000000b0: 1b23 403d f623 103d 9bdd e53b 368d b7bc
000000c0: 97ab 013c 4657 463d 5adc 0d3a fad5 1db9
000000d0: 65fd c03a 08b2 b93c fb24 eabb a5fd e73c
000000e0: 8ea8 98bc d2e8 fdbb 54d9 afbc 1715 e8ba
000000f0: 999d 413c f31b 873c caec 903c de0f 6ab8
00000100: 1804 6e3c 854d 17bc f6db f63b 82b4 bb3c
00000110: da40 08bc c643 453c 8991 bc3c 5b5a 2d3b
00000120: 20ad d3bb 887e 893c b89c cdbb ee78 8cbc
00000130: 6882 d93b f73c 953b 6275 d33c b5e6 b63b
00000140: 38a7 253b ce83 a03c be20 39bb 5ffa f2bb
00000150: 448c b83c a07b 873b 636b 46bb 0fce d93c
00000160: 5960 d239 579d 253c 6175 433c fec2 47bb
00000170: 6f47 0d3c a213 b53c eec6 5a3c 02c2 9e3b
00000180: d572 8a3b b95b 163c 8878 213c cbb4 a13b
00000190: e9f5 91bb dfe4 4a3c ef0f e8bb 41a2 a0bc
000001a0: 02a8 46bb f8e1 303c f97e f0b9 23e5 783c
000001b0: 7a56 013d dd45 1b3c b3ec 51bb 7f4c c7ba
000001c0: 19ae 3b3c 103b aeb8 a853 1f3c aa72 b83c
000001d0: 0e90 473b 72a4 6d3c a294 af3c 0ab1 ab3b
000001e0: 6320 a0bc df19 0e3c e459 423c 2271 ebbb
000001f0: d1c8 36bb 6811 343b 3f03 123d b6d0 5ebc
-0.0026959996 0.008688354 0.0033836546 0.0043762405 -0.005264324 0.017915392 0.005590255 -5.8316677e-05
0.018877681 0.013009442 0.018897662 0.020547533 -0.0015944496 -0.0004895104 0.04510977 0.03306497
0.0150776245 -0.000604091 0.0026730243 0.008879006 0.0030214502 0.011547963 0.012125516 0.017907757
0.00097268657 -0.017451942 -0.009157785 -0.016710635 0.039110307 -0.0033941441 0.014061102 0.011499775
0.01118998 0.011144128 0.0072271326 0.006914866 0.01551972 0.024218194 0.004967587 -0.0001665466
0.02909426 -0.0033896647 0.01299433 -0.007968107 0.04690848 0.035190545 0.007014943 -0.022406202
0.007914445 0.048423074 0.0005411558 -0.00015052399 0.0014723955 0.0226679 -0.0071455217 0.02831919
-0.01863506 -0.0077487016 -0.021465935 -0.001770648 0.011817359 0.01649282 0.017691035 -5.5804725e-05
0.014527343 -0.009234791 0.0075335456 0.022913221 -0.008316243 0.012040084 0.023018615 0.002645156
-0.006459847 0.016783968 -0.006274786 -0.017147508 0.00663786 0.0045543867 0.025812808 0.0055817016
0.0025276672 0.0195941 -0.0028248276 -0.0074151005 0.022527821 0.0041346103 -0.003027641 0.026587514
0.00040126106 0.0101083135 0.011929841 -0.0030481215 0.008622988 0.022104088 0.013353093 0.004844905
0.004225115 0.009177142 0.009855397 0.0049348823 -0.0044543636 0.012383669 -0.0070819776 -0.019608619
-0.0030312543 0.010796063 -0.0004587097 0.015191349 0.03157661 0.009477106 -0.0032031953 -0.0015205293
0.011455082 -8.307968e-05 0.009724535 0.022515614 0.0030450854 0.014504539 0.021433178 0.0052396106
-0.019546693 0.00867316 0.011862252 -0.0071851173 -0.0027890692 0.0027476195 0.035647627 -0.013599565

network_body._body_endoder.seq_layers.2.weight f4 [128, 128]
00000000: 742b 7bbd 59d1 d13d fe3d 753c 9d54 1dbe
00000010: 7eff 1c3d 6e48 0abd e770 273d fe7b 2cbc
00000020: d799 73bd 3e40 ef3c b32e e83d 3e4a 6d3d
00000030: 04fb 023d 9100 363d 7532 c53d 1262 cb3d
00000040: d919 44bd e0de e13d c512 a33d 2cf5 00be
00000050: 3e01 543e dac8 213d 7f03 7fbd 04de 003d
00000060: bf59 9cba fdd0 aabc dc76 1f3e 4d9e 11bd
00000070: 8b3f 28be ba64 1abd 6ae4 763d 2e6b 9e3d
00000080: 8e02 183e e222 503b 3552 f63c 1bb4 02bd
00000090: 2f59 863d fde1 8e3d dd36 13bb 77fb fa3c
000000a0: 09cd 8dbd 75bc c2bd 72fb 9b3c d34f 35bd
000000b0: 46e5 35be 10e3 a73c 3811 a83d 71f9 9dbd
000000c0: 1a20 733c 6a72 bb3b 3f55 163e 3005 bcbd
000000d0: 0715 8c3d 1e38 5c3d d9cf 823d 2c76 513d
000000e0: 79cc da3d 41e6 d93d 1728 e3bc cd0f a4bd
000000f0: cf6e 36bd ce9f a33c 21da 09bd 3acb a73b
00000100: 1767 46be ab67 e13c 62c4 9e3c dea4 173d
00000110: 31e2 d2bd 6498 33bd 2173 47be ab38 fd3c
00000120: 751f de3b 67c3 5abe beba fabc 51f9 afbd
00000130: 9532 af3d ef71 5dbd 78b9 e9bc 147d 23be
00000140: a1db a6bd 58e1 8dbd c68e 2abe ab1f cbbd
00000150: 6966 133d 9929 f23d bfef 943d ed64 b93d
00000160: 7390 0a3d 3a41 543b afe2 7b3d d59a 2ebd
00000170: 8c37 9ebd 4fb7 33bc 4d35 40be 4260 64bd
00000180: fd40 d43d 9cae 2fbd 990e dfbd 0645 6b3c
00000190: fd55 8c3c e532 12bd b166 d43c 9229 13bd
000001a0: 9d50 233e 6967 be3d e653 e13d f529 cbbc
000001b0: de41 0cbd 4ba0 c43d 2755 093e 0313 4b3c
000001c0: 4397 ef39 06ec 823d 2529 e1bd 7a4a bbbd
000001d0: 8aa0 d7bd a64c bc3c d83c 32bd 1e6b 683c
000001e0: 4d4b 08be f5d5 1f3e 3257 363e 605c 023c
000001f0: f465 d03c d659 8fbd 3ba8 583c 184a 953d
00000200: b27c d5bc c6e9 d83d d0b7 223d 4d40 acbb
00000210: 8060 0fbe 3f4c 5b3d 1f04 8a3c 49e2 f43d
00000220: d93d b2bd c946 ec3c 32ce a13d 06e1 0cbd
00000230: 7eaa 213d 2075 3fbd 814e ffbd 4e30 b0bd
00000240: cab5 abbc dbfb 313d 021b 0bbc d21c 40bd
00000250: 20a2 f0bc c19d 863d 42a4 813e e3c9 0ebd
00000260: 2a00 143e 8663 523c fce1 483b d35b 06bc
00000270: 72be a9bd c611 5ebd f346 c1bd 1608 0a3e
00000280: 8069 7fbd f695 28be f41a f4bd a45b 93bd
00000290: d53f 8fbd a73d 243d fd6e 29be 10da f23d
000002a0: 6dab 26be 4719 adbd f486 303d 4b2a 97bd
000002b0: 3c97 083d e13c 7f3e 98ca f83d 052b 80bd
000002c0: ded6 253d b7f6 a93d 6039 d63c a8f3 36bd
000002d0: 1c34 843d febf 973d b800 e53b 0dd1 c03d
000002e0: b66a eabd ceb5 08bd 4e4c be3c 8f05 1a3b
000002f0: 4513 bf3d 674b ce3d 2e0c 4abd c0a9 8cbd
00000300: 2d5c f93d 8d02 303d 9ee9 89be 292a 033e
00000310: a9d1 013d 4413 58bd a1cf 23be 15fa 0e3e
00000320: 007c 753c 6e35 593d fc29 853d f43c 1abd
00000330: 0990 163d 8b13 0ebd 9e3f e33c f5bf 1bbc
00000340: af62 f73c f3ac f8bd a681 0c3d 55d1 253b
00000350: b818 263d bc15 1c3c 8141 153e 9c65 c93d
00000360: d305 bfbd 0ffc cbbd da6a d63d bbf7 883c
00000370: 493c 16be e663 773d 06ef 543e 1a5a 2ebc
00000380: d5df cfbc 2fdf 973a a84e 9c3c efc4 e13d
00000390: 0b9b a4bd 93c2 87bd 702e 54bd 1a8a 78bd
000003a0: 5caf 783d 075b 063e b3e9 933d ed71 083e
000003b0: dd98 e6bd fab6 88bd 2fff 9abd d3de 33bc
000003c0: 710c b7bd 5f78 f73d 972a d9bc afd7 c13c
000003d0: fa7c 57bd c897 b73d 8698 103e 6138 2e3d
000003e0: 81f6 30bd ea18 12be d9ce 11be 074b 003e
000003f0: 8f44 983c 5e0d 173d 911a d03d 6bc5 4b3d
-0.061320737 0.10245008 0.014968393 -0.15364309 0.038329594 -0.03376048 0.040879156 -0.010527609
-0.059472885 0.029205438 0.11337032 0.05793213 0.03197767 0.044434134 0.096287645 0.09930815
-0.047876213 0.11028838 0.079625644 -0.12593526 0.20703599 0.039498188 -0.062259194 0.03146173
-0.0011928602 -0.020851607 0.15572685 -0.035551358 -0.1643049 -0.037693717 0.060276426 0.07735287
0.14844725 0.0031759073 0.030068496 -0.031910043 0.06559979 0.069766976 -0.002246312 0.030637486
-0.06923873 -0.095086016 0.019040797 -0.04426558 -0.17763242 0.020494014 0.08206409 -0.07713593
0.014839197 0.0057204263 0.14680956 -0.09180677 0.06839948 0.053764455 0.063873 0.051138088
0.10683531 0.106396206 -0.027729077 -0.08010826 -0.04453927 0.019973662 -0.03365529 0.005120662
-0.19375263 0.027515253 0.019380752 0.037022464 -0.10297049 -0.043846503 -0.19477512 0.03091081
0.0067786523 -0.21363603 -0.030606624 -0.08592475 0.0855457 -0.054063734 -0.028530821 -0.15965682
-0.0814736 -0.069277465 -0.16656026 -0.099181496 0.035986338 0.118243404 0.072722904 0.09052453
0.033829164 0.003238751 0.06149548 -0.042628128 -0.077254385 -0.010968997 -0.18770333 -0.05575586
0.10363958 -0.04289113 -0.10891456 0.014359718 0.017130846 -0.035693068 0.025927873 -0.035928316
0.1594872 0.09297068 0.110023305 -0.02480028 -0.034242503 0.09600886 0.1341139 0.0123946695
0.0004569833 0.06392674 -0.10994176 -0.09145065 -0.10528667 0.022985768 -0.043515056 0.014185695
-0.13309975 0.15608962 0.178067 0.007956594 0.02543924 -0.06999557 0.013223703 0.07289523
-0.026060436 0.10591464 0.03972608 -0.0052566887 -0.14001656 0.05353951 0.016847668 0.11957223
-0.08703203 0.028842347 0.07900657 -0.034394287 0.039469235 -0.04674256 -0.12466145 -0.086029634
-0.020960707 0.04345308 -0.008490326 -0.046902485 -0.029374182 0.06573058 0.2532063 -0.034860503
0.14453188 0.012841111 0.0030652275 -0.008200604 -0.08288278 -0.05421617 -0.094373606 0.13479647
-0.062356472 -0.16463456 -0.119192034 -0.071952134 -0.06994597 0.04009786 -0.16546245 0.11857998
-0.16276331 -0.08452087 0.04309745 -0.073811136 0.033347353 0.24925567 0.12148017 -0.06258205
0.040488116 0.0829901 0.026150405 -0.044665962 0.064552516 0.074096665 0.006988611 0.09414873
-0.11446135 -0.033376507 0.023229744 0.0023501848 0.09329847 0.100729756 -0.04932802 -0.06868315
0.12175784 0.042971183 -0.26936048 0.12809052 0.031694088 -0.052752748 -0.15997173 0.13962586
0.014983177 0.05302947 0.065021485 -0.037655786 0.036758456 -0.034686606 0.027740296 -0.009506215
0.030198423 -0.121423624 0.03430333 0.0025301774 0.040550917 0.009526666 0.14575769 0.098338336
-0.09327283 -0.09960186 0.10469599 0.01671969 -0.14671434 0.060398005 0.20794305 -0.010641599
-0.025375286 0.00115869 0.019080475 0.1102389 -0.080373846 -0.06628909 -0.0518021 -0.06067858
0.06071411 0.13120662 0.07222309 0.13324709 -0.11259625 -0.06675525 -0.07568204 -0.010978418
-0.0893792 0.12083506 -0.026509566 0.023662416 -0.05260942 0.08964497 0.14120683 0.042534236
-0.043203834 -0.14267316 -0.14239062 0.1252862 0.018587379 0.036877982 0.10161317 0.04974882

network_body._body_endoder.seq_layers.2.bias f4 [128]
00000000: 1566 983b f73b 423c a317 96bb 70d1 22bb
00000010: a46d f2bb 6ef9 0aba 82ff e53b db8c fdbb
00000020: cecb a83c 5c34 a53b aa9b 8ebb 2dec 593c
00000030: d38b a939 2f52 97ba 2a94 283c e3e1 533b
00000040: d0da 933c 1088 613c 37b3 0ebc 5813 23bc
00000050: 539a 29bc 7246 88bb 6cba dbba dd12 543c
00000060: 4a69 153c 1e78 34bc 67f6 fd3b 1902 e0bb
00000070: 69d9 a73b 1355 2ebc 100a 643c f47a 973b
00000080: 7bea 1d3b ac4b 893b c5a5 073c 3ff0 9f3b
00000090: dfa6 b43b 434b 073b 4ac3 933c 391c 453c
000000a0: 9b9a aab9 a706 8b3a e196 66bb bf04 bbbb
000000b0: bbe0 0bbc c0e8 ebba cea2 183c 01c8 1b3b
000000c0: 3a0d 6c3a dae8 dcbb 5d18 f4b9 0aa4 c83a
000000d0: d210 b3bb 601a e0bb ff61 463c b4e8 2c3c
000000e0: e64d 69bb b078 c3bb 6ecc 5c3c 7715 6bbb
000000f0: d9dd e7bb 5b81 15bb 9616 0ebc 3774 40bc
00000100: 965e 9a3a b4ef 27ba 1c09 e2ba d6eb 9f3c
00000110: c8cc a23a 6354 62bb 8dd9 2b3c 1a1b 043d
00000120: bced 5fb9 d1f6 d13c cc5b 843b 851e 30bc
00000130: e3bb 553c 9e8c 2e3c 709c 1c3c 1749 e83b
00000140: 9c4f ec3b 90c4 8d3b 6a28 d9ba b96a acba
00000150: 2e3a 943c fde7 a3bb de58 533b 74e4 2638
00000160: 2b92 10bc f5a8 743a 35b6 ae3b 02de 0d3b
00000170: 89b1 9c3c 2873 933b 83c5 d23b 167c b8bb
00000180: 16d8 2fbb adea 42bb 315f 073c 509e 643b
00000190: 42a3 663b 1b34 d639 9ad6 d83c 853c 833c
000001a0: 9005 7e3c 83fe 523a fa85 663c 521d 0a3c
000001b0: 6b6a 303a fecf c23b 1ec1 ffba ed28 1d3c
000001c0: 41dc de3a a42a 7bbc 1630 d13b 3e36 c9bb
000001d0: 3b40 2539 4d22 70bc 6837 593c 7705 94bb
000001e0: 868a c83b 440a 18bc 1e89 64bb 5121 2d3b
000001f0: 7f24 c8bb 495c 5fbc bed1 e5b9 59b8 aebb
0.004650841 0.011855117 -0.0045804544 -0.0024844073 -0.007398324 -0.000530145 0.0070189843 -0.0077377385
0.020604994 0.005041642 -0.0043520527 0.013300938 0.0003233837 -0.0011544878 0.010289231 0.0032330684
0.018048674 0.01376535 -0.00870972 -0.009953342 -0.010351735 -0.0041587884 -0.0016763932 0.0129439505
0.009119341 -0.011014966 0.0077503207 -0.0068361876 0.005122353 -0.0106404 0.013918415 0.0046228115
0.002409606 0.004189929 0.008279269 0.0048809345 0.0055130566 0.0020644225 0.018037457 0.012030655
-0.00032540117 0.0010606841 -0.0035185146 -0.005707353 -0.008537467 -0.0017998442 0.009316159 0.0023770335
0.00090046565 -0.0067416253 -0.0004655746 0.0015307677 -0.0054646516 -0.0068390816 0.012108325 0.010553528
-0.003559941 -0.005965315 0.013476474 -0.0035870948 -0.007076007 -0.0022812698 -0.008672377 -0.011746458
0.0011777456 -0.0006406263 -0.0017245146 0.019521635 0.0012420649 -0.0034535162 0.01048888 0.03225241
-0.000213555 0.025630387 0.0040392634 -0.010749464 0.013045284 0.010653643 0.009558782 0.007088791
0.0072116386 0.0043264106 -0.001656783 -0.0013154364 0.018094148 -0.0050020204 0.0032249014 3.9790248e-05
-0.008823912 0.0009333038 0.0053317794 0.002164722 0.019127624 0.0044998117 0.0064322366 -0.0056300266
-0.0026831678 -0.0029741928 0.0082624415 0.00348844 0.0035192524 0.00040856082 0.026469517 0.016020069
0.015504256 0.00080487895 0.014070028 0.008429842 0.00067297247 0.0059452048 -0.001951251 0.009592277
0.0017002897 -0.015329991 0.006383906 -0.0061404994 0.00015759554 -0.014656615 0.013257839 -0.004517253
0.006120029 -0.009279791 -0.0034871767 0.0026417563 -0.0061078663 -0.013632842 -0.00043834554 -0.0053320345

action_model._discrete_distribution.branches.0.weight f4 [3, 128]
00000000: ab32 273c 26cf 1dbc 7133 c1bb c82e 3dbc
00000010: 55b7 b43b 0a2d 9d3c 40d7 38bc 2bc7 293c
00000020: 14ed 9cbc 8a9f 033c ca2f 803c 61e7 eabb
00000030: 4b97 ffbb 9995 45bb aa3b a3bc 6b92 c33c
00000040: 738a 1abc c0d5 e5bb 0c53 303b 9c0f 9a3b
00000050: 3e1c 4f3c 57cc ec3c e9e6 c239 a86b 5ebc
00000060: ceb8 ad3c fdfa 3dbb 9e25 d13b 0f29 ea3b
00000070: 499b 68ba e0c1 883c 9c50 50bc 4350 613b
00000080: 19e1 53bc 76c9 71bc 3db9 ccba 65f5 92bc
00000090: 72db 08bc 3bc7 553c 641a 4a3b 45f5 b1bc
000000a0: 81be 9c3a 6647 a43c c4e6 b8b9 f515 d33b
000000b0: bd5e 843a af63 f3bb f98f 033d cc0f 81bc
000000c0: 5315 9f3c b909 693a 26bd 3fba 51b7 933c
000000d0: ef8c 6f3a 1730 16ba 1650 c43c c73c 81bb
000000e0: 6632 793a 9784 6a3b 5168 c6bc 7c75 3bbb
000000f0: 5b86 6d3b 25c9 733c 0e5d a2bb 1ea5 b23c
00000100: 9387 623b 7414 f0ba 7b50 17bb 2d51 a6bc
00000110: 53ca 493c f2c8 f0bb 60d0 aabc 88fd 5fbc
00000120: dbcf c03a fe0d 003d f72c b83c dcb5 e93a
00000130: 7a31 a4bc d3fd e73c 266e b8bc 0790 153d
00000140: 1a0a 9bbc 9e48 f03c d5e6 593c 9bbc e43c
00000150: d35d 9fbc bd23 ed3b 05de d73b 6280 39bb
00000160: c96e 773c 3726 bebb 708c b1bb 940d 33bc
00000170: 6f5f 093d 0c3f 2abc 453c e13a cad4 8ebb
00000180: 6881 8d3b 5d34 28ba fc33 46ba a01d d43a
00000190: 9cec e33b c71a 8c3c 4a3e 113d b45d f83a
000001a0: 62e0 1bbc 6047 c7bb 5c1e 92bc 6a28 093d
000001b0: 067b 11bb 8d80 21bc 7286 18bc 4854 fcbb
000001c0: fae7 bcbb 412a 3e3c 5d0f 8b3c 368b 8b39
000001d0: 7af8 393b 132f 733c 1cf8 03bc 832e c9bb
000001e0: ea1d 593b 4859 143c 7db1 dbbb 81d3 9f3b
000001f0: 11a4 953b dd04 d9bb e861 303b 80bb d7bb
00000200: b027 82bc f315 923c 6cb5 c63b dae6 503c
00000210: 53e8 6939 f914 a9bc 4fb2 f33b b02b 20bc
00000220: 6b98 1b3c 2b0f 4d3c d39a b0bc a294 733c
00000230: c369 423b 5255 cebb a84e d2ba 4e99 97bc
00000240: 0754 003c dc41 b23c 912f 71bb 102a 503b
00000250: f0ff 22b9 11c6 45bc 1e37 173c 930f 023b
00000260: 7db6 19bd d9b7 57bc 8f5c 25bc fd70 0c3c
00000270: c363 813c 5914 08bb 671d b43c e2c5 913b
00000280: a384 87bb 7e72 cbb9 efb5 08bc 8055 0fbb
00000290: 08ad b03c 9f15 fdbb 0947 86bc b5c2 803c
000002a0: 50b7 c7bc 0617 8ebc 6d07 51bc 4f44 0abb
000002b0: 843c d5ba 9080 20bc 4576 12bd f904 493b
000002c0: d551 9ebc eb71 5fbc 4a75 443b 5fe6 d2bc
000002d0: 0dcf b43b 6add 8dbc fb41 07bd 5f54 5d3c
000002e0: 2766 94bb 4c6d 7d3a 8c9a e0ba 7bbc 98bb
000002f0: 1a31 b73a ee80 0bbc e468 35bc d44c c7bc
00000300: f536 08bc 0c45 f339 8c8b 25bc 1ef7 4e3b
00000310: f32a 713c 0b57 a3bc cb9a 103b 0a45 583c
00000320: b9ed 293b 7b41 2fbc f1d3 1c3c 5226 8abc
00000330: 628c 203c 582e 01bd 986a 1f3a b46a a5bc
00000340: 25ae b9ba 2f4e 4dbc 0848 9cbb 2750 2ebc
00000350: 585b 77bc faa2 5abc 69a3 763c 348c ffba
00000360: 0970 61bc 171f 02bc 5d16 85bb 33e0 83ba
00000370: 5a6e 87bc c1af 58bb b265 f53b f10a c93b
00000380: 7005 613b 04c7 d5bc 4dcc 143c 71ec 8e3b
00000390: 6423 00bc 1ea4 f3bb 73f9 cabc 8e04 cf3b
000003a0: 1dea 513c 3ebf 98ba 7db6 95bb 9955 ffbc
000003b0: 54f2 2d3c f4b7 69bb 3edf 253c 6537 cb3b
000003c0: be95 f43b a120 a3bc 4941 b2bc 4f58 8c3a
000003d0: 9e9b bb3c 9f7e 8bbc 581e 9e3b f673 a038
000003e0: da2f e4ba fb6c 3fba c5e8 cebb dff4 943c
000003f0: 9dbc 3f39 4749 03bc ed72 9bbb edf4 df3b
0.010204951 -0.009631908 -0.005896025 -0.011546798 0.005515019 0.019186515 -0.011281788 0.010362427
-0.019156016 0.008033643 0.015647788 -0.007168696 -0.007800018 -0.0030148982 -0.019925911 0.023873528
-0.009432423 -0.0070140064 0.0026904969 0.004701568 0.012641011 0.02890603 0.00037174605 -0.013575472
0.021206286 -0.0028988712 0.006382658 0.007146008 -0.0008873237 0.01669401 -0.012714531 0.0034380115
-0.012932085 -0.014757505 -0.001561917 -0.017939279 -0.008353101 0.0130479885 0.0030838484 -0.021723399
0.001195863 0.020053577 -0.0003526715 0.0064418265 0.0010099035 -0.0074276547 0.032119725 -0.015754603
0.019419348 0.00088896934 -0.0007314257 0.018031748 0.0009138127 -0.0005729212 0.02396397 -0.003944013
0.0009506106 0.0035784596 -0.024219664 -0.0028603962 0.0036243412 0.0148795 -0.0049549406 0.02180725
0.0034565672 -0.0018316642 -0.0023088742 -0.02030238 0.012316304 -0.0073481733 -0.020851314 -0.013671286
0.0014710383 0.031263344 0.022482378 0.0017830688 -0.020043124 0.028319275 -0.02251346 0.03651431
-0.018925715 0.029331502 0.013299664 0.027921965 -0.019453919 0.0072369264 0.006587746 -0.0028305282
0.015102097 -0.0058028954 -0.005418353 -0.01092853 0.03353828 -0.010391008 0.0017184099 -0.0043588625
0.004318405 -0.0006416494 -0.0007560847 0.0016183145 0.0069556963 0.017102612 0.035459794 0.0018948824
-0.009513946 -0.0060815066 -0.017836742 0.033485807 -0.0022198572 -0.009857309 -0.009309398 -0.007700477
-0.0057649584 0.011606754 0.0169751 0.00026615866 0.0028376863 0.014842766 -0.008054759 -0.006139578
0.0033129402 0.009054489 -0.006704508 0.004877508 0.0045666774 -0.006622894 0.0026913825 -0.006583631
-0.015888065 0.017832732 0.0060641076 0.012750352 0.00022307159 -0.020639883 0.0074370275 -0.009776041
0.0094967885 0.012515823 -0.021558201 0.01486698 0.002966509 -0.006296792 -0.001604517 -0.018505719
0.007832534 0.02175992 -0.0036802033 0.0031763352 -0.00015544868 -0.0120711485 0.00922945 0.0019845709
-0.03752755 -0.013166391 -0.0100928685 0.00857186 0.01579464 -0.0020764081 0.021986676 0.0044486383
-0.0041356846 -0.0003880448 -0.008344158 -0.002187103 0.021566883 -0.0077235247 -0.016391294 0.015717844
-0.024379402 -0.017344963 -0.012758118 -0.0021097844 -0.0016268645 -0.009796277 -0.035757322 0.003067313
-0.01932613 -0.013638 0.0029977136 -0.025744615 0.0055178464 -0.017317493 -0.03302191 0.013508885
-0.004528779 0.00096674706 -0.0017135902 -0.0046611405 0.0013976425 -0.008514626 -0.011072371 -0.024328627
-0.008313884 0.00046400016 -0.010104071 0.0031580399 0.014719713 -0.019938966 0.002206492 0.013200054
0.0025929047 -0.010696764 0.009572015 -0.016863976 0.009799095 -0.031538337 0.00060812524 -0.020192482
-0.0014166279 -0.012530847 -0.004769329 -0.010639227 -0.015097462 -0.013344521 0.015053608 -0.001949674
-0.013759621 -0.007941983 -0.004061504 -0.0010061323 -0.016532112 -0.0033063742 0.0074889297 0.0061353375
0.0034335516 -0.026095875 0.009081912 0.004361682 -0.007820938 -0.007435336 -0.02477715 0.0063176816
0.012812165 -0.0011653674 -0.0045688734 -0.031168746 0.010616858 -0.0035662623 0.010124026 0.006201672
0.0074641397 -0.01991302 -0.021759646 0.001070747 0.022901352 -0.017028151 0.0048253946 7.650994e-05
-0.001740928 -0.0007302311 -0.0063143694 0.01818317 0.00018285443 -0.008013076 -0.004743925 0.0068346174

action_model._discrete_distribution.branches.0.bias f4 [3]
00000000: d6d9 63bc 729e 033c bc1a 3e3c
-0.013906917 0.008033382 0.011603054

action_model._discrete_distribution.branches.1.weight f4 [2, 128]
00000000: 6690 a33c e088 5b3c 727c d93b 3549 583c
00000010: f850 79bc 5411 353c 9dd6 8f3c a69f 8cbb
00000020: 237c cd3c f9f1 4ebc 7a3d 42bc 24e4 c33b
00000030: 868a 9ebc 27ea b2bb 5f0b 89ba 87d1 ed3c
00000040: 0fd0 bfbc 624a 403d cf4e 5b39 873d e83b
00000050: f461 643a 50c7 003d 2da2 44bb 8d31 f7bc
00000060: 3232 5d3c e511 193c 333c 33bd c9c6 a93c
00000070: 1226 edbc e1f4 8fbb c183 e6bc 2889 06bd
00000080: afd7 10bc fff8 7bbc afc6 1d3c 1033 2a3c
00000090: b694 393c 03aa b4bb 2acd 2cbd e623 1cbc
000000a0: 90dd d5bc 11c6 c6bb c1bc 3a3c f5a5 c8bb
000000b0: 426e 983b 8754 d33b 0f93 0c3d 3287 193c
000000c0: dcde d73c b44a 9a3c db0e 72bb 363c eb3b
000000d0: e30e 37bb 755e 113c 3057 103c 2b23 c6bb
000000e0: a995 aabb 5fc9 6dba 8490 1d3c 2cc4 673b
000000f0: 2ed7 11bc eda1 703c bad6 d0ba 3b15 f1bc
00000100: 258b 9ebb 331f 663c 78ed 913c 1f99 83bd
00000110: 1e95 abbb ceaf 4a3b ef39 dbbb d5e3 7e3d
00000120: 49ee 883b 5463 51bd d69b 963c a711 243d
00000130: f69c c8ba 9781 bbba f598 48bc 9fd2 7dbc
00000140: 0e4b 623b 2290 fb3b ee7d e33b b11b 06bc
00000150: fb58 88bd 643f 373c 2143 0f3c aa5b 2d3b
00000160: 91b7 a0bb b8ce d83b 9eed 403c 88b7 62ba
00000170: 457e 53bd 9740 553b 90fa abbc 8611 57bb
00000180: 2cc8 acbc db44 c0bc 166e 93bb 447f d83b
00000190: 8926 a23b c854 133c d059 85bd 7df8 b7bc
000001a0: 2a82 533d e185 e1bb 80c2 7bbc c7e4 523c
000001b0: 1f66 97bb 405d 593c 7968 cdbc cfa0 e2ba
000001c0: d611 49bc f5b9 35bc 5ab0 9f3c 76a2 bb3b
000001d0: 98de a03b 1032 a33b 26d7 fc3b 195e 78bc
000001e0: b738 89bb c768 e43b b99b cf3b cc9a 7e3b
000001f0: 7a15 b1ba cc39 f73b fc79 6d3c 7a02 7ebc
00000200: f020 b5bc de5d 12bd 74ba 2c3c 4ff5 bc3a
00000210: ea42 a03b 5495 0abc 0f81 a6bc 43c2 04bb
00000220: 3b64 65bc b29b 913c b91b ce3a 0239 e9bc
00000230: cf8b b73c e5b7 da3c b46f 3b3b e225 d1bc
00000240: 3f5d 023d 9304 23bd e16c 123c b5a7 1fbc
00000250: 63b7 383c 7677 e1bc e506 53ba ebce 943c
00000260: 7656 143c 8470 8dbb 7d52 1a3d 202d 893a
00000270: 7aaf 323c b899 67bc 21b5 623c ef59 be3c
00000280: b368 21bc 0901 583c bd5c e8bc 39f4 07bc
00000290: c35e 08bc 7e56 2d3c c975 3a3d 3cdd 8f3c
000002a0: 1ff9 173c 9b16 a33b e114 8bbc c1d1 623b
000002b0: b554 1a3c 1201 853b a21a e1bc 8059 59bc
000002c0: 99be 40bc 7832 f43b 87f8 66bc fe1f b1bb
000002d0: 2b38 38bc 9730 373b 05c5 4f3c 6d82 61bb
000002e0: acda 003c 04c2 af3b 12a1 5d3c 2e2d d13b
000002f0: ec82 12bc 2c0b 48bc 6b33 5337 0e16 f53c
00000300: 63ba bc3a 7770 c7bb b663 cebc 8fe6 043d
00000310: 4039 583c 1a57 4ebc 67fd abba 05f4 3cbd
00000320: 08a3 173a cb84 073d 2400 ddbc 5a76 bfbc
00000330: c61a a3bb 68e7 7839 1104 a83b fcab 413c
00000340: 40cb 43bc 8490 ce39 ee78 52bc d431 65bb
00000350: 590b 293d 9595 203c f990 56bc 1fb6 fc3b
00000360: 8d4b b53b eea3 c5bb e0c3 8bbc d8af 513b
00000370: 1dd5 583d b3eb e5ba a047 36bc 5596 07bc
00000380: 0314 803b 316d 693b 4991 fa38 4a10 b43c
00000390: 12fb e2bc 210f 023c de29 f33c 7f22 f53c
000003a0: ca99 3bbd 55a6 103c df0a cd3c 8f41 48bb
000003b0: b206 cabb d8a5 8a3b 34f8 b83a 8bf9 2dbc
000003c0: 49c3 4a3c 1e64 b93b d2db a8bb 86ab c63b
000003d0: 95b9 34bc e54f b4bc 7278 0cbb 4915 0d3c
000003e0: 3868 eabc d4a4 2c3c b32b 5dbb 66ae f4bb
000003f0: 3e8a f13b 1ed1 c73b a896 b3bb 20b8 d6bb
0.019966315 0.013399333 0.0066371495 0.013201048 -0.015217058 0.011051495 0.01755839 -0.0042914925
0.025083607 -0.012630933 -0.0118554775 0.005978124 -0.019353162 -0.005460042 -0.0010455659 0.029030574
-0.02341464 0.046945937 0.00020914826 0.0070874128 0.0008712106 0.03144008 -0.003000389 -0.030174995
0.013500737 0.009342645 -0.043758582 0.020724671 -0.028948817 -0.0043932055 -0.028138997 -0.032845646
-0.0088404855 -0.0153791895 0.009629889 0.010388151 0.011326959 -0.005513431 -0.042187847 -0.009530043
-0.026106626 -0.006066092 0.0113975415 -0.0061232992 0.0046518156 0.0064492854 0.034319934 0.009370612
0.026351385 0.01883445 -0.0036935124 0.0071788086 -0.0027932457 0.008872618 0.00880985 -0.006046673
-0.005205829 -0.0009070839 0.009616975 0.003536473 -0.0089014005 0.014687044 -0.0015933134 -0.029429069
-0.0048383647 0.014045524 0.01781343 -0.0642569 -0.005236282 0.0030927542 -0.006690256 0.062228996
0.0041787964 -0.051120117 0.018384855 0.040055897 -0.0015305567 -0.0014305589 -0.012243499 -0.0154921105
0.00345296 0.007677094 0.006942502 -0.008185313 -0.06657597 0.011184547 0.008744032 0.002645234
-0.0049046953 0.0066164397 0.011775402 -0.0008648564 -0.051634092 0.003253972 -0.020993501 -0.0032816841
-0.021091543 -0.023470333 -0.0044992073 0.006606968 0.0049484414 0.008992381 -0.06511271 -0.022457356
0.051637806 -0.0068824147 -0.015366197 0.012871928 -0.004620328 0.013266861 -0.02507423 -0.0017290356
-0.012272319 -0.011091699 0.01949327 0.005726154 0.0049093477 0.004980333 0.0077160774 -0.015159153
-0.004187669 0.0069704982 0.0063357023 0.003884959 -0.0013510429 0.0075447317 0.014494415 -0.01550352
-0.022110432 -0.03573405 0.010542501 0.0014416369 0.0048907893 -0.008458454 -0.020325212 -0.002025739
-0.014000948 0.017774437 0.0015724815 -0.028469566 0.022405533 0.026699016 0.0028600516 -0.02553076
0.031827208 -0.039799284 0.008937092 -0.009744574 0.011274192 -0.027522784 -0.00080500386 0.018165072
0.009053817 -0.0043163914 0.037676323 0.0010465719 0.010906095 -0.0141357705 0.01383713 0.023236243
-0.009851622 0.013183841 -0.028364534 -0.008297973 -0.008323374 0.010579703 0.045522485 0.017561547
0.009275704 0.00497706 -0.01697773 0.0034609886 0.00941961 0.0040589655 -0.02747852 -0.013265967
-0.011764192 0.0074523054 -0.0140973395 -0.005405425 -0.01124386 0.0027952546 0.01268125 -0.0034410015
0.007864635 0.0053637046 0.013527172 0.0063835597 -0.008942347 -0.012209695 1.2588552e-05 0.029917743
0.0014398809 -0.006086405 -0.02519403 0.03244644 0.013197243 -0.012594009 -0.0013121784 -0.046131153
0.00057844864 0.033085626 -0.026977606 -0.023371864 -0.004977557 0.00023737329 0.005127438 0.011820789
-0.011950314 0.00039399054 -0.012846215 -0.0034972327 0.041270588 0.009801288 -0.013096088 0.00771214
0.005532688 -0.006031505 -0.017061174 0.003199568 0.052937616 -0.0017541557 -0.011125475 -0.008275588
0.0039086356 0.0035618062 0.000119479904 0.021980423 -0.02770761 0.007938177 0.02968305 0.029923676
-0.04580096 0.008828719 0.025029598 -0.0030556654 -0.006165349 0.004231196 0.0014112056 -0.010618578
0.012375661 0.005657687 -0.0051531577 0.0060629277 -0.011030574 -0.022010753 -0.0021434096 0.008611032
-0.028614148 0.010537345 -0.003374797 -0.007467079 0.007371216 0.0060979268 -0.005480606 -0.006552711

action_model._discrete_distribution.branches.1.bias f4 [2]
00000000: c674 b43a c174 b4ba
0.0013767711 -0.0013767706
