results/GoodAi_Test/BossAi.onnx (onnx, 79397 bytes, 9 tensors)

discrete_act_size_vector f4 [1, 2]
0	0x40000000	2.0
1	0x40000000	2.0

network_body._body_endoder.seq_layers.0.weight f4 [128, 6]
0	0xbe287eef	-0.16454671
1	0xbed35a16	-0.41279668
2	0xbc9663fa	-0.01835822
3	0x3f5e9d7c	0.8695905
4	0xbd563406	-0.052295707
5	0x3f358620	0.70907784
6	0xbde246b1	-0.110486396
7	0x3cdfdf19	0.027328061
8	0x3f99d237	1.2017277
9	0xbeb339a9	-0.3500493
10	0x3f125a32	0.5716888
11	0xbf624e29	-0.8840051
12	0x3e60d053	0.2195447
13	0x3eaa7fba	0.33300573
14	0xbe65498c	-0.22391337
15	0xbe39f0c2	-0.18158248
16	0xbe3866dc	-0.18007988
17	0x3eee8855	0.46588388
18	0x3cc21ed3	0.023696339
19	0xbf079bab	-0.52971905
20	0xbe958278	-0.29201102
21	0xbf33c785	-0.7022632
22	0xbe60ea99	-0.21964492
23	0xbf0224cb	-0.5083739
24	0x3f78f6de	0.9725169
25	0xbe52d029	-0.2058722
26	0xbd5a38bf	-0.053276774
27	0x3f43d544	0.7649729
28	0x3dbd5a5d	0.09245751
29	0x3de988bf	0.11403035
30	0x3e6a44f5	0.22877868
31	0x3ea5d368	0.32387853
32	0xbe47c0d7	-0.19507156
33	0xbd9cc1a1	-0.07654119
34	0xbf265c33	-0.64984435
35	0xbe88f636	-0.26750344
36	0xbe808de6	-0.2510826
37	0xbca4acf9	-0.020102011
38	0xbf56c8d5	-0.83900195
39	0xbd7631f2	-0.060106225
40	0x3ed3ce0c	0.4136814
41	0x3ebf797d	0.37397376
42	0x3ea203e9	0.31643608
43	0xbda13491	-0.07871354
44	0x3d5d030a	0.053957976
45	0xbefb64e6	-0.49100417
46	0x3db3f729	0.087873764
47	0xbd85ba31	-0.06529654
48	0x3f1a4b44	0.60271096
49	0xbf3d3cb8	-0.73920774
50	0xbee34976	-0.44391984
51	0x3e999e7c	0.30003726
52	0xbf04a77e	-0.5181807
53	0xbf194bb3	-0.5988113
54	0xbb954d31	-0.004556321
55	0x3f27eaf7	0.655929
56	0x3f6ccaa7	0.9249672
57	0xbf0deb53	-0.554372
58	0xbe4a84e2	-0.19777253
59	0xbef3e722	-0.47637278
60	0x3f1e286d	0.61780435
61	0x3eadd76d	0.3395342
62	0x3d147cda	0.03625188
63	0x3d8d4121	0.06897188
64	0xbeaf6549	-0.34256962
65	0xbedb9018	-0.42883372
66	0x3eaaa3c9	0.33328083
67	0xbefb3d13	-0.49070033
68	0xbea4fec5	-0.32225624
69	0xbe406553	-0.18788652
70	0x3e856c7d	0.26059332
71	0xbe01f68a	-0.12691703
72	0xbdc7fb94	-0.097647816
73	0x3f240823	0.64074916
74	0xbe7088b9	-0.23489656
75	0xbeafef91	-0.34362462
76	0x3e1c73b2	0.1527851
77	0xbe85454d	-0.26029435
78	0xbe9dc5ad	-0.30814877
79	0x3c60a768	0.013711788
80	0x3b62661e	0.003454573
81	0xbe293066	-0.16522369
82	0xbe12239f	-0.14271401
83	0xbe194013	-0.14965849
84	0xbddbd2b4	-0.10733548
85	0x3ea4c049	0.32177952
86	0x3dfe8030	0.124267936
87	0x3ec48231	0.38380578
88	0xbec33258	-0.38124347
89	0x3eb295a2	0.34879786
90	0x3e05aa49	0.1305324
91	0xbf04f454	-0.51935315
92	0x3ef075d0	0.46964884
93	0xbd4b0806	-0.0495682
94	0xbf04e0f6	-0.51905763
95	0x3cbc0eb6	0.022956233
96	0x3d06e4f8	0.032933205
97	0xbe15c544	-0.14626032
98	0x3d995e8e	0.07488738
99	0x3ea933fa	0.33047467
100	0x3edb554d	0.42838517
101	0xbf0c9b9f	-0.5492496
102	0xbdedb39f	-0.11606526
103	0xbd613ee4	-0.054991618
104	0x3f813711	1.009493
105	0xbe46a291	-0.19397952
106	0xbbbd83ec	-0.0057835486
107	0x3f170814	0.589967
108	0x3e9f344a	0.3109458
109	0x3f0dd143	0.55397433
110	0xbe67367f	-0.22579382
111	0x3eb7c902	0.35895544
112	0xbec5e369	-0.38650063
113	0xbe97240c	-0.2951969
114	0x3ef43efd	0.47704306
115	0xbf36457b	-0.7119977
116	0x3e7d7364	0.2475105
117	0xbf0b33f5	-0.54376155
118	0xbc5d8c4a	-0.013522217
119	0x3ee063d2	0.43826157
120	0xbe6115cd	-0.21980973
121	0xbe7adde6	-0.2449871
122	0xb9ec9395	-0.00045123385
123	0x3f39d5f5	0.725921
124	0x3e479ce1	0.19493438
125	0x3ea26268	0.31715703
126	0x3f3dd8aa	0.7415873
127	0x3dc8760b	0.0978814
128	0xbea02b6b	-0.31283125
129	0xbdeb2282	-0.11481191
130	0x3f79277e	0.97325885
131	0xbd211a0c	-0.03933148
132	0x3e9f8f38	0.31163955
133	0xbf314ae5	-0.69254905
134	0x3efb2d00	0.4905777
135	0xbee03de3	-0.43797216
136	0x3f32072e	0.69542205
137	0xbdb25110	-0.08706868
138	0xbf146860	-0.57971764
139	0xbea6736f	-0.32509944
140	0xbd081a72	-0.033228345
141	0xbf239ea0	-0.6391392
142	0xbf53268b	-0.82480687
143	0x3e679d08	0.22618496
144	0x3eb59fa3	0.35473356
145	0xbf27192a	-0.6527277
146	0x3f21d355	0.6321309
147	0xbe09d19a	-0.13458863
148	0x3e81f1ea	0.25379878
149	0xbe4aa771	-0.19790436
150	0x3e574869	0.21023716
151	0xbe8891e9	-0.2667382
152	0x3e31bda7	0.17357503
153	0x3f90ff2c	1.1327872
154	0xbb824b45	-0.003976258
155	0x3efd7f9c	0.4951142
156	0xbece1e36	-0.40257424
157	0xbe883355	-0.26601663
158	0x3e6b589b	0.22983019
159	0xbf2e4574	-0.6807473
160	0xbeb4ac23	-0.3528758
161	0x3edd1142	0.4317723
162	0x3cb9af28	0.022666529
163	0x3e23ab58	0.15983331
164	0x3f3f235b	0.74663323
165	0x3eecd22d	0.462541
166	0x3e5e678a	0.21719185
167	0xbe9cbb66	-0.30611724
168	0x3ed4635d	0.41482058
169	0xbe4e6b0e	-0.20158026
170	0xbe6c0878	-0.23050106
171	0x3ed834db	0.42227826
172	0x3e351938	0.17685401
173	0x3f2c96ac	0.6741741
174	0x3dae6103	0.08514597
175	0xbd325f1e	-0.043547742
176	0x3e72f90c	0.23727816
177	0x3e0d004e	0.13769647
178	0xbea6b8bc	-0.32562816
179	0xbf42f1b5	-0.76150066
180	0xbed6c67f	-0.41948316
181	0xbe6a93d2	-0.22907951
182	0x3ed40ce8	0.41416097
183	0xbee91b19	-0.45528486
184	0x3e41b2b2	0.18915823
185	0xbeac66a8	-0.3367207
186	0x3e7b4f72	0.24542025
187	0xbf3b3fc7	-0.7314419
188	0xbde74b74	-0.112936884
189	0x3e8c8ffb	0.27453598
190	0x3e6dd900	0.2322731
191	0xbc563878	-0.013074987
192	0x3e31dc9f	0.17369317
193	0xbee395a3	-0.444501
194	0xbed7921e	-0.42103666
195	0x3f4d3667	0.80161136
196	0xbf32cba3	-0.69841975
197	0x3c90487f	0.017612694
198	0xbf10b99d	-0.56533223
199	0xbeb9a26c	-0.3625673
200	0xbeb45cb1	-0.35226968
201	0x3f0c9351	0.54912287
202	0x3e9cdde9	0.30638054
203	0x3db61d60	0.088923216
204	0x3efd2fad	0.49450436
205	0xbd9c712a	-0.07638772
206	0xbe32ba82	-0.1745396
207	0xbf13732c	-0.57597613
208	0xbd84c848	-0.06483513
209	0xbe9e79cb	-0.30952296
210	0x3f52fc3c	0.8241613
211	0x3ebb0764	0.36529076
212	0xbf807340	-1.0035172
213	0x3f29c41b	0.6631486
214	0x3ee945c9	0.45561054
215	0xbf773821	-0.9657002
216	0xbdc6b9ac	-0.09703383
217	0xbe22bfaa	-0.15893427
218	0x3c54e245	0.0129934
219	0xbec31dad	-0.38108578
220	0x3f390d99	0.72286373
221	0xbf632837	-0.8873324
222	0x3e73ea45	0.23819835
223	0xbe9f3f59	-0.31103018
224	0xbcbda553	-0.023150122
225	0x3edeec73	0.4353977
226	0xbe99ccca	-0.30039054
227	0x3f218678	0.6309581
228	0x3e75d849	0.24008287
229	0xbe19eb33	-0.15031128
230	0xbeec1e91	-0.4611707
231	0x3cb16c84	0.02165819
232	0xbe2db4ec	-0.16963547
233	0xbe9e6450	-0.30935907
234	0xbf0c6a69	-0.5484987
235	0x3daf1be4	0.085502416
236	0xbe8e05c5	-0.27738777
237	0x3d75f8d6	0.06005176
238	0xbf401cff	-0.75044245
239	0x3eb76626	0.3582012
240	0x3e57c38f	0.21070693
241	0x3eef5a3e	0.46748537
242	0xbe132b45	-0.14371975
243	0x3e39a037	0.18127523
244	0x3d54f697	0.05199298
245	0x3dc3f9fe	0.095691666
246	0xbb28941d	-0.0025723048
247	0xbe4a0097	-0.19726788
248	0x3e69299a	0.22769776
249	0x3f1ee8b3	0.6207382
250	0x3d5f0bf3	0.054454755
251	0xbe507f18	-0.20360982
252	0xbeec43bc	-0.46145427
253	0x3d9de996	0.077105686
254	0x3ecbb089	0.39783123
255	0x3f146a5d	0.579748

network_body._body_endoder.seq_layers.0.bias f4 [128]
0	0x3c24fbb2	0.010069774
1	0xbaadf7ef	-0.0013272743
2	0xbb1443c0	-0.002262339
3	0x3cb9e3ae	0.022691574
4	0x3b3a29eb	0.0028406333
5	0xbb04aecc	-0.0020245789
6	0xbb3d8c28	-0.002892265
7	0x38dced1a	0.00010534581
8	0xbc683f4c	-0.014175247
9	0x3b608154	0.0034256773
10	0xbb469307	-0.0030300037
11	0xbb5bb125	-0.0033522334
12	0xbc8a7fbf	-0.016906617
13	0x3c93397b	0.017971745
14	0x3ca92a3f	0.020650027
15	0x3a14ad81	0.0005671606
16	0x3c5b4570	0.013383254
17	0x3c8e42be	0.01736581
18	0xbaf84064	-0.0018940088
19	0xbc1785c0	-0.009248197
20	0xbc32a2be	-0.010903059
21	0xbc3df95d	-0.011595097
22	0xba6cd2d1	-0.00090340996
23	0xbc311002	-0.010807039
24	0x3c858aed	0.016301597
25	0xba80ba52	-0.0009821153
26	0x39f47675	0.00046627564
27	0xbba3d0cf	-0.004999257
28	0x3c56a0c8	0.013099857
29	0xbb940313	-0.004516968
30	0x3ad3f4c5	0.001617097
31	0x3c3a8171	0.0113834
32	0xbcdec5db	-0.027193954
33	0xbcd38c36	-0.025823694
34	0x3ba812a7	0.0051291767
35	0xbc8a41eb	-0.016877135
36	0x3c9caeee	0.019126382
37	0xbb97e837	-0.0046358365
38	0xbbec3607	-0.007208589
39	0x3ba5ac60	0.005055949
40	0xbc89bcfe	-0.016813751
41	0xbbf21ff4	-0.007389063
42	0x3d2c8dbc	0.042127356
43	0xbbd7ae8b	-0.0065820864
44	0x3c13b8e5	0.00901625
45	0xbcabc82a	-0.02096947
46	0x3be86410	0.0070920065
47	0xbc1e58fd	-0.009664771
48	0x3c4c438a	0.012467274
49	0xbc697c06	-0.014250761
50	0xbc6542f1	-0.013993011
51	0xb9014266	-0.00012327134
52	0x3b8d25e8	0.0043074973
53	0x3be45f30	0.006969355
54	0x3c4b1d77	0.012397162
55	0x3c154d34	0.009112645
56	0xbc8ba281	-0.017045261
57	0xbb64536b	-0.003483976
58	0xbab8b354	-0.001409153
59	0x3c0ef884	0.008726243
60	0x3c7cdf6c	0.015434127
61	0xbc85101e	-0.016243037
62	0x3c0d7391	0.00863351
63	0x3c34b982	0.011030557
64	0xbc18398c	-0.009291064
65	0xbd10a001	-0.03530884
66	0xbae33e7a	-0.0017337345
67	0x3ca2f7f5	0.019893626
68	0x3c66e0d8	0.014091693
69	0x3c14a564	0.009072635
70	0x3c8e3242	0.01735795
71	0x3c1e1480	0.009648442
72	0x3c37f8b3	0.011228728
73	0x3cad06b6	0.021121364
74	0xb9f4ce82	-0.00046693167
75	0xbc8d022b	-0.017212948
76	0x3c8ef845	0.017452369
77	0xbc2a7cbb	-0.010405715
78	0x3c18e7ff	0.009332656
79	0xbc730457	-0.014832578
80	0x3ca4ac66	0.020101737
81	0x3a7c9838	0.00096357195
82	0xbcb2f9b4	-0.021847583
83	0x3c781c54	0.015143473
84	0xbc829348	-0.01593937
85	0x3afe75bb	0.0019413749
86	0xbbfb8829	-0.0076761437
87	0x3c4794e5	0.012181495
88	0x3bf937f1	0.0076055457
89	0x3cc19607	0.023631109
90	0xbb414220	-0.0029488876
91	0x3b13b8da	0.00225406
92	0xbaaf6921	-0.0013382771
93	0xbc813b74	-0.01577542
94	0x3c602845	0.013681476
95	0x3b663df9	0.0035132153
96	0x3cbdd39a	0.023172189
97	0x3b6461ee	0.003484841
98	0x3bcf1961	0.006320164
99	0xbcd6908a	-0.026191968
100	0x3c4d0be3	0.012515041
101	0x3cbee2ce	0.023301508
102	0x3c4e0a04	0.01257563
103	0x3c819764	0.015819259
104	0x3b260659	0.0025333373
105	0x3b9e2fdf	0.004827484
106	0x3c58dc7e	0.013236163
107	0x3b8e6268	0.004345227
108	0x3d005bb5	0.03133746
109	0x3adb7950	0.0016744528
110	0x3a01c84b	0.00049508055
111	0x3b4aee7f	0.0030964909
112	0x3b83c9ca	0.004021858
113	0xbc4c2317	-0.012459538
114	0x3cd7ba9c	0.0263341
115	0xbbb27c35	-0.0054469355
116	0xbb574406	-0.0032846942
117	0x3c1546bc	0.009111103
118	0x3d351d86	0.04421761
119	0xbb95d29b	-0.0045722253
120	0x3c13055f	0.008973449
121	0x3b4f6c80	0.0031650364
122	0x3cc45305	0.023965368
123	0xbc40c871	-0.011766539
124	0x3c53ed32	0.01293497
125	0xbb9a5e75	-0.004710967
126	0x3cc8519d	0.024452979
127	0x3bb6c10a	0.0055772113

network_body._body_endoder.seq_layers.2.weight f4 [128, 128]
0	0xbd049e08	-0.032377273
1	0xbccb26a9	-0.024798708
2	0xbcd6f72e	-0.026240911
3	0xbde57e5f	-0.11205744
4	0x3dbf9400	0.09354401
5	0x3dea2912	0.11433615
6	0xbd2ea30f	-0.042635974
7	0x3d9a8ea0	0.07546735
8	0x3e28e9c7	0.16495429
9	0xbd2e54d7	-0.04256138
10	0x3db1f3bc	0.08689067
11	0x3c02d3d4	0.007985074
12	0x3d3fcee3	0.046828162
13	0xbd82f2a9	-0.0639394
14	0xbd55dd30	-0.052212894
15	0x3d040d12	0.032239027
16	0x3e814855	0.25250497
17	0xbd5066e0	-0.05087936
18	0xbd8591c5	-0.06521944
19	0x3bff6649	0.0077941758
20	0xbc76da84	-0.015066747
21	0xbda9a0aa	-0.08282597
22	0x3d3d518c	0.046220347
23	0x3d010f72	0.03150887
24	0x3db6b18f	0.08920585
25	0xbcb784ce	-0.022402193
26	0x3dbdaae0	0.092611074
27	0x3d314424	0.043277875
28	0xbdfb470d	-0.12269411
29	0x3cc3772e	0.02386054
30	0xbd2568bd	-0.04038309
31	0x3dd80097	0.105469875
32	0xbdc59e4f	-0.096493356
33	0xbd052109	-0.032502208
34	0xbd2d8ac7	-0.042368677
35	0x3cac72b5	0.02105079
36	0x3d262db7	0.04057094
37	0x3dca3e8d	0.09875212
38	0x3d46c9ec	0.04853241
39	0x3d7403c7	0.059573915
40	0xbd618b23	-0.05506433
41	0x3d330fad	0.04371612
42	0xbc26c111	-0.010177867
43	0xbddb48f4	-0.10707274
44	0xbd4a1d53	-0.049344372
45	0xbda713d1	-0.081580766
46	0xbe3d0278	-0.18457973
47	0xbdaa369d	-0.08311198
48	0x3db4efc7	0.088347964
49	0x3df24b7a	0.11830802
50	0xbd82446b	-0.06360706
51	0xbe2ebd75	-0.1706446
52	0x3dc156b3	0.09440365
53	0x3c2da70b	0.010598908
54	0x3db0939d	0.08621905
55	0xbc771297	-0.015080116
56	0xbddebfb0	-0.10876405
57	0xb9fe670f	-0.0004852344
58	0xbe638747	-0.22219573
59	0xbd806230	-0.06268728
60	0x3e3220eb	0.1739537
61	0x3e39422f	0.18091653
62	0xbcc2caf3	-0.023778414
63	0x3d6ef7f2	0.058341928
64	0x3d83771c	0.06419203
65	0x3cab5705	0.020915518
66	0xbd9d91ad	-0.07693801
67	0xbcd332de	-0.025781091
68	0xbcfc0b7f	-0.0307672
69	0x3ce65acd	0.028119469
70	0x3db1a2b5	0.08673612
71	0x3dbe035f	0.09277987
72	0x3cc045c7	0.023470772
73	0xbd8da7c3	-0.06916764
74	0x3dc12a46	0.09431891
75	0xbe2c3c8d	-0.16819973
76	0xbe181149	-0.14850344
77	0xbe595776	-0.2122477
78	0x3dd25436	0.10269968
79	0x3dde03b0	0.10840547
80	0x3c17beac	0.009261768
81	0x3e0d4151	0.13794447
82	0xbd0f48c2	-0.034981497
83	0xbdb004a7	-0.08594637
84	0x3e18031e	0.14844939
85	0xbd501237	-0.05079862
86	0x3d575ddb	0.052579742
87	0x3d4bdfbc	0.049773917
88	0x3d4f4069	0.050598536
89	0xbda22581	-0.079173096
90	0x3c51e67e	0.012811301
91	0xbe577315	-0.21039994
92	0x3e20948b	0.15681665
93	0x3e3b6a12	0.18302181
94	0xbd4b9a60	-0.04970777
95	0x3c650c7a	0.013980025
96	0x3e0e7263	0.13910823
97	0x3d3c4ab2	0.045969673
98	0x3cdde7d0	0.027088076
99	0x3d2b2be5	0.041789908
100	0x3d7de70d	0.061987925
101	0x3d2da2e4	0.042391673
102	0xbd42186d	-0.047386575
103	0x3e2e1b31	0.1700256
104	0x3e074b24	0.13212258
105	0x3b65b942	0.003505305
106	0x3b12daa2	0.0022408147
107	0x3e560d00	0.20903397
108	0x3c006494	0.00783648
109	0x3dea4ff6	0.114410326
110	0xbd70b8d4	-0.058770016
111	0xbcaf8f52	-0.021430645
112	0x3c5f26bc	0.013620075
113	0xbd690f5f	-0.056899425
114	0x3ce9e5a3	0.028551882
115	0x3bd51710	0.0065029934
116	0x3da3fc36	0.0800709
117	0xbddea8ac	-0.10872015
118	0xbb7dd1bb	-0.0038729745
119	0x3dca3e22	0.09875132
120	0xbd9eacaa	-0.07747777
121	0xbd78b653	-0.060720753
122	0x3c6a70f0	0.014309153
123	0x3df49e98	0.11944312
124	0x3c8c6fda	0.017143179
125	0xbdb873b6	-0.09006445
126	0x3c9a52bf	0.018838285
127	0x3badb469	0.0053010476
128	0xbdfd9b23	-0.123831056
129	0x3e29e265	0.16590269
130	0xbd99e322	-0.07514025
131	0x3e3fa35e	0.18714663
132	0xbcbf328f	-0.023339538
133	0xbe346f95	-0.1762069
134	0x3cbec34e	0.023286488
135	0x3bfc07ca	0.007691358
136	0xbda2b755	-0.07945124
137	0x3d2cc95c	0.04218422
138	0xbd99812e	-0.07495342
139	0x3cc5724b	0.02410235
140	0x3c1f8066	0.009735202
141	0x3c345d9c	0.011008646
142	0xbc0b24d4	-0.008492667
143	0x3cda21a0	0.026627362
144	0xbd739828	-0.05947128
145	0x3d3cc1ad	0.04608314
146	0xbe1c8db6	-0.15288433
147	0xbd1c77ca	-0.038200177
148	0x3d45793b	0.048211318
149	0xbc7cd549	-0.0154317105
150	0x3d518a86	0.051157497
151	0x3ded3cc8	0.11583859
152	0xbd91ebf4	-0.071250826
153	0x3cece468	0.028917506
154	0xbd2e9dc2	-0.04263092
155	0x3de3b54c	0.11118564
156	0x3d0bf303	0.0341673
157	0xbadc7f6b	-0.0016822641
158	0xbe0b38cb	-0.13595884
159	0xbdaef565	-0.08542899
160	0xbcce577d	-0.025188202
161	0x3c45a1e8	0.012062527
162	0xbc911fc5	-0.017715344
163	0x3d7c54f8	0.06160447
164	0xbc1cafb1	-0.0095633725
165	0xbd9bdb2f	-0.07610165
166	0x3a6f2574	0.00091227074
167	0x3cfd092f	0.030888168
168	0x3d156cbd	0.036480654
169	0xbc8e558a	-0.017374773
170	0xbe23fd19	-0.16014518
171	0xbc546179	-0.012962692
172	0x3d1c3572	0.038136907
173	0xbd0728ce	-0.0329979
174	0x3d71d3e1	0.059039954
175	0xbda04deb	-0.07827362
176	0x3e664ad4	0.22489482
177	0x3d82dbbe	0.06389569
178	0x39319020	0.00016933726
179	0xbd31ac44	-0.043377176
180	0xbd652bc4	-0.05594994
181	0x3c8a247a	0.016863097
182	0x3da73d12	0.08165945
183	0x3d07d5d9	0.033162925
184	0x3c56eed7	0.013118467
185	0xbe0af00c	-0.13568133
186	0xbd7a923e	-0.061174624
187	0x3d274a3c	0.04084228
188	0x3ca0994c	0.019604348
189	0x3e24efd3	0.1610711
190	0x3cf65b2a	0.030072767
191	0xbd4b7725	-0.049674172
192	0xbe041f27	-0.12902509
193	0xbe0175d7	-0.12642609
194	0xbdc024b9	-0.09382004
195	0x3e078af1	0.13236596
196	0xbdcb0d1a	-0.09914608
197	0x3c9391f0	0.018013924
198	0x3cbe1d7a	0.023207415
199	0x3da934a7	0.08261996
200	0xbcd048ea	-0.025425393
201	0xbc0131be	-0.007885395
202	0x3d1dcf39	0.0385277
203	0xbd34a6a7	-0.044104245
204	0xbd8194ae	-0.063271865
205	0x3e120182	0.14258388
206	0xbd3ce88a	-0.046120204
207	0x3e1d8053	0.15380983
208	0xbdd2ea66	-0.10298614
209	0x3e18bc4c	0.1491558
210	0x3d5b9a09	0.053613696
211	0x3e0dcb1e	0.13847014
212	0xbd2ab874	-0.041679814
213	0x3c996e98	0.018729493
214	0xbda9f22b	-0.08298143
215	0x3c4854a6	0.012227213
216	0xbdc5b1e5	-0.09653071
217	0x3d9a0907	0.07521253
218	0x3ca290ee	0.019844498
219	0x3c15d2a2	0.009144457
220	0xbc8e323a	-0.017357934
221	0x3c883c9a	0.01663046
222	0xbd778d58	-0.06043753
223	0xbd5d4759	-0.05402312
224	0xbd7b3bbf	-0.061336275
225	0x3d180e5a	0.03712306
226	0xbc98cce8	-0.018652394
227	0xbca8acc1	-0.020590188
228	0xbdb88893	-0.090104245
229	0xbd97f580	-0.07419872
230	0x3d85a290	0.06525147
231	0xbe518a86	-0.20462999
232	0x3d75628e	0.059908442
233	0x3c2bdb68	0.010489322
234	0xbd92e8e8	-0.071733296
235	0xbc9cd614	-0.01914505
236	0x3d4bc822	0.04975141
237	0xbda9b6e7	-0.08286839
238	0x3d69bd49	0.057065282
239	0x3d70bec8	0.058775693
240	0x3b4499b3	0.0029998838
241	0xbcca3e96	-0.024688046
242	0xbddaefe0	-0.10690284
243	0x3baffe4e	0.0053708917
244	0x3e1d44c1	0.15358259
245	0x3d16932a	0.03676144
246	0x3d865375	0.06558887
247	0x3d64b927	0.055840638
248	0xbd7683e4	-0.060184374
249	0x3d919bd7	0.07109802
250	0xbe4833bc	-0.19550985
251	0xbdc43116	-0.09579675
252	0x3cb09653	0.021556055
253	0x3e0cfe58	0.137689
254	0x3cd4b7c4	0.025966533
255	0x3d0f4e08	0.034986526

network_body._body_endoder.seq_layers.2.bias f4 [128]
0	0xbc9563e5	-0.01823611
1	0x3c64af91	0.013957874
2	0xbb983a12	-0.0046455944
3	0xbc8a689b	-0.016895583
4	0x3c55bc5f	0.013045399
5	0xbc286c51	-0.010279731
6	0xbc067a03	-0.008207801
7	0x3acc7b83	0.0015600774
8	0xbc18eb3d	-0.009333429
9	0x3c483781	0.012220264
10	0x3c39e55f	0.01134619
11	0xbb4a0489	-0.0030825457
12	0xbc200279	-0.0097662145
13	0x3a22c6b9	0.00062094216
14	0x39f32b09	0.00046380635
15	0xb9c54d4f	-0.00037632367
16	0x3cc341b4	0.02383504
17	0x3b03380e	0.0020022425
18	0xbbde84e2	-0.006790743
19	0xbbbf3388	-0.0058350004
20	0x3c057495	0.008145471
21	0x3b284dd7	0.0025681162
22	0xbbf049fa	-0.0073330374
23	0x3ac1c67c	0.0014783884
24	0x3c60f03f	0.013729154
25	0x3bafcc4a	0.0053649293
26	0x3bff8fb4	0.007799113
27	0xbc8b36fe	-0.016993996
28	0x3b8ac125	0.0042344504
29	0x3c93723b	0.017998805
30	0xbbbce84d	-0.005764997
31	0x3c3f24d9	0.0116665
32	0xbc0ea282	-0.008705737
33	0x3b7b71b6	0.0038367338
34	0x3c5b1204	0.0133709945
35	0xbc4e8f6a	-0.012607435
36	0xbb4f1bae	-0.0031602192
37	0xbba4769f	-0.0050190235
38	0x3b9bc2f9	0.004753467
39	0x3c24eb8e	0.010065926
40	0xbbd46de6	-0.0064828275
41	0x3c014992	0.007891076
42	0xba6dcd92	-0.0009071465
43	0x3d84653f	0.06464624
44	0x3c2f2f57	0.010692439
45	0x3c67da0a	0.014151106
46	0xbb9ec9c3	-0.004845829
47	0x3bb7faad	0.0056145997
48	0xbbe2f0cc	-0.006925678
49	0xbbd3816c	-0.0064546373
50	0x3bc6562f	0.0060527544
51	0xbc1f5b38	-0.009726338
52	0xbb7b9439	-0.0038387908
53	0x3c1cfc18	0.009581588
54	0x3c16c26f	0.00920163
55	0xba829154	-0.0009961524
56	0xbae1f903	-0.0017240349
57	0x3bf3394f	0.007422603
58	0xbc40cfeb	-0.0117683215
59	0xbb3710b9	-0.0027933551
60	0x3c420973	0.011843073
61	0xbc37a470	-0.011208639
62	0x3cca56f1	0.02469966
63	0xbbdad18b	-0.0066778115
64	0x3b9bd0eb	0.0047551296
65	0x3c746929	0.01491765
66	0xbb8b70f4	-0.0042554084
67	0xbb8e2483	-0.0043378486
68	0x3c4ee377	0.012627474
69	0x3c0eda06	0.008718973
70	0xba16651e	-0.00057371135
71	0xbc7f6840	-0.01558882
72	0xbb12ae3d	-0.0022381686
73	0x3c3e0147	0.011596984
74	0x3c139bcb	0.009009312
75	0x3a70447b	0.0009165478
76	0xbc4a119f	-0.012333303
77	0xb9ab0841	-0.0003262181
78	0x3bb7c77a	0.0056084963
79	0xbc065ae6	-0.008200383
80	0x3ca5e624	0.020251341
81	0x3c28786b	0.010282616
82	0x3c061330	0.008183286
83	0xbb7f79b6	-0.0038982457
84	0xbbdacd66	-0.0066773174
85	0xbac43b4a	-0.0014971283
86	0x3c5fcc1b	0.013659502
87	0x3977c87a	0.00023630439
88	0xbc12ebff	-0.008967399
89	0x3ca44c33	0.020055866
90	0x3a43651f	0.0007453728
91	0xbbf0c27a	-0.007347402
92	0xbb80bd4f	-0.0039288173
93	0x3c5a6b10	0.01333119
94	0xbbd0b7e8	-0.0063695796
95	0xbbf8c8a0	-0.0075922757
96	0xbc162d17	-0.009166024
97	0x3c4ce8a9	0.012506642
98	0x3c118b7b	0.008883352
99	0x3c40ca5e	0.011766998
100	0x3c117f76	0.008880487
101	0x3c214a8c	0.0098444335
102	0xbb8e0050	-0.0043335333
103	0xbb872998	-0.0041248314
104	0xbc2665a7	-0.010156072
105	0x3c8bb0d8	0.0170521
106	0x3b912324	0.004429238
107	0x3b255b31	0.0025231356
108	0xbbc02402	-0.0058636675
109	0x3b05500c	0.00203419
110	0xbb749b5d	-0.003732405
111	0xbb4f62fd	-0.0031644695
112	0x3b865428	0.0040993877
113	0x3bc9fddd	0.006164296
114	0xbb9d83bc	-0.0048069637
115	0xbb4f680b	-0.0031647708
116	0x3ca7622f	0.02043256
117	0x3c470167	0.01214633
118	0x3b804145	0.0039140307
119	0xbc62cb64	-0.013842437
120	0xbb5765fe	-0.0032867189
121	0xba2d5902	-0.00066126895
122	0x3c2eabe8	0.010661103
123	0xbba9e9f8	-0.005185362
124	0xbb964b92	-0.0045866454
125	0x3bcab77f	0.006186425
126	0xbb9c3995	-0.0047676065
127	0xbb312678	-0.0027030986

action_model._discrete_distribution.branches.0.weight f4 [3, 128]
0	0x3aa305e8	0.0012437673
1	0x3c336b8b	0.010950933
2	0x3c0a2f8d	0.008434189
3	0x3a19000b	0.0005836493
4	0xbc247ee7	-0.0100400215
5	0xbb712d25	-0.003680059
6	0x3c28465b	0.01027068
7	0x3a27c8ff	0.0006400495
8	0x3c22ba5b	0.009932126
9	0xbc80c2c9	-0.01571788
10	0xba00338f	-0.00048904953
11	0x3b0078ce	0.0019603255
12	0x3ad89ab3	0.0016525596
13	0x3bfc4f95	0.0076999166
14	0xbca8c260	-0.020600498
15	0xbb91d957	-0.0044509578
16	0x3b0e8fc8	0.002175318
17	0x3b582180	0.0032978952
18	0x3b557978	0.0032573622
19	0xbc4e59a3	-0.012594613
20	0x3bc9d6ed	0.0061596544
21	0x3af73b55	0.0018862287
22	0x3bbfe9e6	0.0058567403
23	0x3a93a553	0.001126448
24	0x3c390079	0.011291617
25	0x3b97a3b0	0.0046276674
26	0xbc6a2adb	-0.014292444
27	0xbb630a82	-0.0034643714
28	0x3c349ee7	0.011024213
29	0xbba080ad	-0.004898152
30	0x3b5ba12d	0.0033512816
31	0x3bbb629f	0.0057185437
32	0x3b802cc1	0.003911585
33	0xbbbc9d24	-0.0057560373
34	0x3b32af64	0.0027265185
35	0xb914b84b	-0.00014183034
36	0x3c802810	0.015644103
37	0x3be43b88	0.0069651045
38	0xbc0e6e0d	-0.00869323
39	0x3b0cd665	0.0021490094
40	0x3b992fab	0.004674872
41	0xbbbda797	-0.0057878005
42	0xbb00fef0	-0.0019683205
43	0x3b7f085a	0.003891489
44	0xbc9ed879	-0.019390332
45	0x3b1668a9	0.0022950566
46	0x3bb2d772	0.005457812
47	0xbb1d3ffe	-0.002399444
48	0x3b3e3863	0.0029025308
49	0xbbeaadfb	-0.0071618534
50	0x3a0f0f79	0.00054573227
51	0xbc4e7190	-0.012600318
52	0x3c5cacff	0.01346898
53	0xbbf0f03f	-0.0073528583
54	0xba6c2395	-0.00090079877
55	0xbb75ec68	-0.0037524942
56	0x3bb4d4e3	0.005518542
57	0x3b7ea738	0.0038856994
58	0xbab81045	-0.0014042935
59	0x3b852df7	0.0040643173
60	0x3bfbf7d3	0.007689455
61	0xbc4d4dcb	-0.012530754
62	0x3c0ebb1f	0.008711605
63	0xbc7bb1b0	-0.015362188
64	0x3aeda99b	0.0018132211
65	0x3c0297e9	0.0079707885
66	0x3bbc2598	0.005741786
67	0xbc4622a6	-0.012093222
68	0x3bd71d2b	0.0065647564
69	0xbb6c41c8	-0.003604995
70	0xbb4b8f47	-0.0031060742
71	0x3b7bda28	0.0038429592
72	0xbc20b907	-0.009809739
73	0x3bae5e97	0.0053213346
74	0x3c77270d	0.015084994
75	0xba0de828	-0.0005413317
76	0x3c0432b3	0.008068728
77	0x3baa473b	0.0051964796
78	0x3bbc1c6b	0.0057406924
79	0x3c69eca5	0.014277612
80	0x3b222c8d	0.0024745793
81	0xbc3231db	-0.010876144
82	0xbc18585c	-0.00929841
83	0xbb787d1b	-0.0037916366
84	0xbc1d8244	-0.009613577
85	0x3b9522e3	0.004551278
86	0xbaf7fe73	-0.0018920436
87	0x3bcf787f	0.006331503
88	0xbc1726cf	-0.009225561
89	0x3b840350	0.004028715
90	0x3b024db3	0.0019882738
91	0x3c70e9a5	0.014704143
92	0xbac6e4b7	-0.0015174364
93	0xbc191b22	-0.009344848
94	0x390e5fef	0.00013577913
95	0xbbbcac57	-0.005757849
96	0xbc7efe1a	-0.015563512
97	0x3b9afe5d	0.0047300295
98	0x3b4ac911	0.0030942599
99	0x3b9394ff	0.0045038457
100	0x3ab53bc5	0.0013827017
101	0xbc245cce	-0.010031892
102	0xbbd5ac8b	-0.006520813
103	0x3c6f0768	0.014589168
104	0xbc83fe7e	-0.016112562
105	0xbb912383	-0.004429282
106	0x3b188697	0.0023273581
107	0x3bffe4a2	0.0078092376
108	0x3bfdb6d8	0.007742744
109	0x3b827844	0.003981622
110	0xbc120d60	-0.008914322
111	0x3a8aa48b	0.0010577602
112	0xbb0914bc	-0.00209169
113	0x39dc86f2	0.00042062212
114	0x3b713cb0	0.0036809854
115	0xbabc3bff	-0.0014361142
116	0xbb966109	-0.004589204
117	0x3a2fa029	0.0006699586
118	0x3c049fc7	0.0080947345
119	0xbc58e985	-0.013239269
120	0x3b3f34d3	0.0029175773
121	0xbc022537	-0.007943443
122	0xbbf67b32	-0.0075220102
123	0x3a80b140	0.000981845
124	0x3adaef52	0.0016703403
125	0xbbf75750	-0.0075482503
126	0xbbb0e751	-0.005398669
127	0xba33c49e	-0.00068576063
128	0xbb7d66cd	-0.003866601
129	0xbc3e6f24	-0.011623178
130	0xbc316e14	-0.010829467
131	0x3b1a5587	0.0023549513
132	0x3af64775	0.0018789606
133	0x3b5f7953	0.0034099414
134	0xbbe35288	-0.0069373287
135	0xbb5ab6e8	-0.003337318
136	0x3bd8309a	0.0065975906
137	0x3a9aaaec	0.0011800206
138	0xbbc4f5a7	-0.0060107294
139	0xbb2eecce	-0.002669144
140	0x3ae39f37	0.0017366175
141	0x3bd547d8	0.0065088086
142	0xbcbd4b04	-0.02310706
143	0x3c71f023	0.014766726
144	0xbbd14d22	-0.006387369
145	0x3bf8ea13	0.007596263
146	0x3c96d6af	0.018412916
147	0xbb87da01	-0.004145861
148	0x3a30ef33	0.00067495106
149	0xbb9ba953	-0.0047504096
150	0x3c2adf33	0.010429191
151	0xbb4e5fc3	-0.0031490184
152	0xbc7e2747	-0.015512294
153	0xb9d6b74a	-0.00040953822
154	0x3ba57601	0.0050494676
155	0x3b61b925	0.003444263
156	0xbc098e68	-0.008395769
157	0xbc122aed	-0.008921367
158	0x3ac64bee	0.001512883
159	0xbc73db23	-0.014883789
160	0xbc422eb2	-0.011851953
161	0x3b89823b	0.004196433
162	0x3aa04a36	0.0012229148
163	0x3bc7a9d8	0.006093245
164	0xbbb2d4e2	-0.0054575065
165	0x3ade0a7f	0.0016940384
166	0x3a4e659f	0.0007873419
167	0x3c3ce98b	0.01153029
168	0x3bd2f79f	0.00643821
169	0x3b2ed0d7	0.0026674771
170	0x3b982b59	0.0046438393
171	0x3c0f2d36	0.0087388065
172	0xbad44135	-0.001619375
173	0x3c3f9366	0.011692857
174	0xbb109699	-0.002206242
175	0x3c9b0b25	0.018926213
176	0x3bb57ddf	0.0055386866
177	0xbc9bc40d	-0.019014383
178	0xbc6c282b	-0.014413874
179	0xbb4876cd	-0.003058839
180	0x3bcfe930	0.006344937
181	0x3b95418b	0.0045549325
182	0x3c2b983a	0.010473305
183	0x3c3ec053	0.011642533
184	0x3a9eaf6c	0.0012106723
185	0xbc87df65	-0.016586015
186	0xbb68960a	-0.003548982
187	0x3c003380	0.007824779
188	0xba61c3eb	-0.0008612263
189	0xbc526a32	-0.012842702
190	0x3b5cf04f	0.003371257
191	0xba4d93df	-0.0007842164
192	0x3c02b732	0.0079782475
193	0x3be11538	0.0068689846
194	0xbbccc938	-0.006249573
195	0xbc3ebfaf	-0.011642381
196	0xbc009d38	-0.007849984
197	0x3c524052	0.012832718
198	0xbc8e1fc8	-0.017349139
199	0x3b31ec6d	0.0027148977
200	0xbb1ac6a3	-0.0023616932
201	0x3c29372f	0.010328098
202	0xbbaa0c8f	-0.0051894854
203	0x3b072062	0.0020618667
204	0xbbfeda82	-0.007777513
205	0x3a5489a8	0.00081076706
206	0xba6ece9a	-0.00091097655
207	0xbbc2011b	-0.005920542
208	0x3c35e743	0.0111025
209	0xbc5b0e78	-0.013370149
210	0x3b03df88	0.0020122249
211	0xbc1126b6	-0.008859327
212	0xbc2dc50b	-0.010606061
213	0xbc1d99f7	-0.009619228
214	0xbb7742e0	-0.003772907
215	0xbc0588b1	-0.008150266
216	0x3c2faa36	0.010721734
217	0x3ac27e50	0.001483867
218	0xbc791cc0	-0.015204608
219	0x3c5ca45a	0.013466919
220	0x39eeb4f0	0.00045529706
221	0x3c15e4a9	0.009148755
222	0x3c81aed3	0.015830433
223	0x3bda2bdb	0.00665806
224	0x3bd09728	0.0063656755
225	0xbb87d8d5	-0.0041457214
226	0x3b108b5f	0.0022055728
227	0x3c0deb9e	0.008662133
228	0xbb5c705b	-0.0033636305
229	0xbab00559	-0.0013429328
230	0xbb9259f1	-0.0044662883
231	0xbc330127	-0.010925568
232	0xbc7b1f0f	-0.015327229
233	0x3c0d87c8	0.00863833
234	0x3c8ca283	0.017167335
235	0x3c16b920	0.009199411
236	0x3b9b57ef	0.004740707
237	0xbc54f4e7	-0.012997842
238	0xbb01fc80	-0.001983434
239	0x3b74957f	0.0037320552
240	0x3a6012d3	0.0008547727
241	0xbc68d8c3	-0.014211836
242	0xbbb3ca82	-0.0054867873
243	0xbb9014e1	-0.00439702
244	0x3bbf2ad6	0.005833964
245	0xbbb34875	-0.005471284
246	0xbbbcc2a8	-0.0057605095
247	0xbbe5bc92	-0.0070110047
248	0xbb4d2c15	-0.0031306793
249	0xbc413eeb	-0.011794786
250	0xbae864f5	-0.0017730283
251	0x3ba81b8b	0.0051302365
252	0xbacf1980	-0.0015800446
253	0x3ab05337	0.0013452534
254	0x3b0c78f2	0.0021434394
255	0x3b973b39	0.004615214

action_model._discrete_distribution.branches.0.bias f4 [3]
0	0x00000000	0.0
1	0x00000000	0.0
2	0x00000000	0.0

action_model._discrete_distribution.branches.1.weight f4 [2, 128]
0	0xbb409da6	-0.002939084
1	0xbc1b1142	-0.009464564
2	0x3bb581b5	0.005539144
3	0x3c0ad4b5	0.008473565
4	0xbc6a6bdb	-0.014307941
5	0xbb9b575f	-0.00474064
6	0x3c606c07	0.013697631
7	0x3c3673c5	0.011136
8	0x3b3f34cd	0.0029175759
9	0x3c9f98bb	0.019482007
10	0x3c312991	0.010813133
11	0x392b4c20	0.0001633619
12	0xbbd8a5c1	-0.0066115563
13	0x3ae407d8	0.0017397357
14	0xbc960182	-0.018311266
15	0x3befd77b	0.0073193884
16	0x3d6181c7	0.055055406
17	0x3c414428	0.011796035
18	0x3c03e1a0	0.008049399
19	0xba892c85	-0.0010465538
20	0x3cf147c1	0.02945316
21	0xbb3258ed	-0.0027213648
22	0x3c5dcfe5	0.013538335
23	0xbaf722aa	-0.0018854935
24	0xbd46a466	-0.048496626
25	0x3c4feb83	0.012690428
26	0xbc6acacc	-0.014330577
27	0x3bbffb82	0.0058588395
28	0xbc4449b0	-0.011980459
29	0xbd36d77a	-0.04463909
30	0xba7daa49	-0.00096765585
31	0xbbf03324	-0.007330315
32	0x3bc13e23	0.0058973
33	0x3af3637f	0.0018569081
34	0xbc09b051	-0.0084038535
35	0xbbc741f5	-0.0060808607
36	0xbbae1f0c	-0.0053137597
37	0x3c16511c	0.009174611
38	0x3c665aa4	0.014059696
39	0x3d05bfdf	0.032653686
40	0xbbaf38df	-0.0053473557
41	0x3aff3ba6	0.0019472733
42	0x3af69070	0.0018811356
43	0x3dd55c7f	0.10418033
44	0xbc141594	-0.009038348
45	0x3c80867d	0.015689129
46	0x3c4c4aae	0.012468977
47	0x3b471f4d	0.0030383647
48	0xbb1341a7	-0.0022469552
49	0x3c25d5ad	0.010121745
50	0xbc5b1282	-0.013371112
51	0x393a6ada	0.00017778148
52	0xbbaf6d22	-0.005353586
53	0x3ccf2c95	0.025289813
54	0xbc9f6463	-0.019457048
55	0x3b9ae080	0.0047264695
56	0xbc7071c0	-0.014675558
57	0xbc315885	-0.010824327
58	0xbb08aad6	-0.002085378
59	0xbc030ef1	-0.007999168
60	0xbc3a673c	-0.011377152
61	0x3bc6f321	0.0060714637
62	0xbd2a5978	-0.04158923
63	0xbc574e7a	-0.013141269
64	0x3cb6450c	0.022249721
65	0xbc04146c	-0.00806151
66	0x3c2aa4e6	0.010415291
67	0xbc08f3fb	-0.008358951
68	0x3c85306a	0.016258437
69	0x3c54e447	0.012993879
70	0xbbc69046	-0.006059679
71	0x3a8fdb7d	0.0010975447
72	0xbb2a10a5	-0.0025949862
73	0x3c48bd39	0.012252145
74	0xbc7e597a	-0.015524263
75	0x3c7d92c0	0.015476882
76	0x3c24bded	0.010055047
77	0xbc870f86	-0.016486894
78	0xbcd8061b	-0.026370099
79	0x3c0f42d5	0.008743961
80	0x3d54f883	0.05199481
81	0x3d4b682d	0.049659897
82	0x3b15115e	0.0022745947
83	0xbc0fd7bc	-0.008779462
84	0xbc2a70dd	-0.010402885
85	0x3ce104df	0.027468143
86	0xbc81ebcc	-0.015859507
87	0x3c1313d3	0.008976894
88	0xbb4d956a	-0.0031369575
89	0xba172dbe	-0.0005767009
90	0xbc83a725	-0.016070912
91	0x3c3c63f9	0.011498445
92	0x3ac7e8c3	0.0015251864
93	0x3c8d69a5	0.01726229
94	0xb988515b	-0.00026000556
95	0x3bd35b7f	0.006450116
96	0x3a0a2852	0.00052702904
97	0xbc21f854	-0.009885866
98	0x3c1d4f4c	0.009601425
99	0x3ce92d85	0.028464088
100	0xbc89e6ee	-0.016833749
101	0xba7ee4f2	-0.00097234466
102	0xbc6cb32f	-0.014447018
103	0x3ba7621f	0.0051081325
104	0xbbc63453	-0.006048718
105	0xbc05cef5	-0.008167018
106	0xbc37af56	-0.011211237
107	0xbc54b982	-0.012983682
108	0xbb8efd99	-0.0043637273
109	0xbbc94554	-0.0061422978
110	0xbc0b4fb2	-0.008502888
111	0x3ad4cf83	0.001623616
112	0xbb4c6856	-0.0031190119
113	0x3c90ffdf	0.017700134
114	0x3c9ca728	0.019122675
115	0xbc1877f0	-0.009305939
116	0xbcbbc366	-0.022920322
117	0xbcb48c13	-0.022039449
118	0xbbf3f1d3	-0.007444599
119	0x3b93ed78	0.0045143925
120	0xbb7a9e4a	-0.003824132
121	0xbc208f21	-0.00979975
122	0xbc8ec65b	-0.017428568
123	0x39819da9	0.00024722263
124	0x3c23d110	0.009998575
125	0xbd001646	-0.03127124
126	0xbbb30ef7	-0.0054644304
127	0x3ca56383	0.020189052
128	0xbb675a1a	-0.0035301507
129	0x3bc7d770	0.00609868
130	0xbc30f0fe	-0.0107996445
131	0xbb1d9f35	-0.0024051194
132	0x3b2f8707	0.0026783363
133	0xbb9b9fe6	-0.004749286
134	0xbc8168ca	-0.015797038
135	0x3b256fa9	0.0025243557
136	0xbb9abfe5	-0.0047225826
137	0xbc6869cc	-0.01418538
138	0x3c6b04f4	0.014344443
139	0x3c2e3a47	0.010634012
140	0x3c464dda	0.012103522
141	0x3bfc03fa	0.0076909037
142	0xbba1f733	-0.0049427985
143	0x3bfd84f9	0.007736799
144	0xbd5d17af	-0.053977665
145	0xbc8a5198	-0.01688461
146	0xbbf7a8ef	-0.0075579803
147	0x3c14ebe8	0.009089448
148	0xbd00acb9	-0.03141472
149	0x3b840c28	0.0040297695
150	0xbc1e00d1	-0.009643749
151	0x3b1e9493	0.0024197444
152	0x3d55e238	0.052217692
153	0xbc6592a0	-0.014012009
154	0x3c67ae0d	0.014140618
155	0xbba9145f	-0.005159899
156	0x3c8bba69	0.01705666
157	0x3d1e401a	0.03863535
158	0x3c4d6809	0.012537011
159	0x3c044d6d	0.0080751
160	0x3c81db58	0.015851662
161	0x3c6b4051	0.014358596
162	0x3d463473	0.048389863
163	0xbb4780d1	-0.003044177
164	0x3cb38ab3	0.021916723
165	0x3a4c0aad	0.0007783573
166	0xbc461594	-0.012090106
167	0xbc614b60	-0.013750881
168	0x3bd7922f	0.0065787057
169	0x3b5cb4e3	0.0033677153
170	0x3c942ee4	0.018088765
171	0xbdbdf287	-0.09274774
172	0xbb9c8922	-0.0047770897
173	0xbc24f3ba	-0.010067875
174	0xbc576312	-0.013146179
175	0x3bce0530	0.0062872395
176	0x3c807403	0.015680319
177	0xba52c6b9	-0.0008040476
178	0x39ce9178	0.00039399765
179	0xbc04fecb	-0.008117388
180	0x3c3ac354	0.011399109
181	0xbc84edae	-0.016226616
182	0x3ca888c6	0.020573031
183	0x3c01c7e7	0.007921196
184	0x3c932ea5	0.017966578
185	0xbb808afd	-0.0039228187
186	0x3b9a93bc	0.0047173183
187	0xbb457c91	-0.0030134062
188	0x3c725b97	0.0147923445
189	0xbba33065	-0.0049801343
190	0x3d356048	0.044281274
191	0xbc8cc70c	-0.017184757
192	0xbccb55e3	-0.024821227
193	0x3d08b6c0	0.03337741
194	0x3be025b7	0.0068404335
195	0xbc39ebf7	-0.011347762
196	0xbc0965dd	-0.0083861025
197	0xbbb615da	-0.005556804
198	0xbc0d5f5a	-0.008628691
199	0xbb8ee3f7	-0.0043606716
200	0x3b8d8eb0	0.004319988
201	0x3aa07978	0.0012243232
202	0x3c5df8cb	0.013548086
203	0x3c204a6a	0.009783367
204	0x3b91a582	0.004444779
205	0xbc0b6288	-0.008507378
206	0x3c038e59	0.008029544
207	0x3b581c7b	0.003297596
208	0xbd07fbe1	-0.033199195
209	0xbd2b2a30	-0.04178828
210	0x3c0e46cb	0.008683871
211	0x3b6a6377	0.0035764852
212	0x3abda8d9	0.0014469876
213	0x3b78bd4c	0.0037954627
214	0x3c84b01d	0.016197259
215	0xbc15f7f3	-0.009153354
216	0xbb3350a2	-0.0027361293
217	0x3c3a23d2	0.011361079
218	0x3c954e35	0.018225769
219	0xbbe130f7	-0.006872292
220	0xbcb5a2da	-0.02217238
221	0xbba3d7c6	-0.0050000874
222	0xbbc4a28e	-0.0060008233
223	0xba844df4	-0.0010094033
224	0x39935a8d	0.0002810549
225	0x3c735e88	0.014854081
226	0xbc9c6aac	-0.019093834
227	0xbcf5919f	-0.029976664
228	0x3c3030da	0.010753835
229	0x3c0356ef	0.008016332
230	0x3b633bb6	0.0034673042
231	0xbc49ff21	-0.012328894
232	0xbb7958cf	-0.0038047319
233	0x3caac0df	0.020843921
234	0x3b180096	0.0023193709
235	0xbba4c2bb	-0.0050280965
236	0xba788bbb	-0.00094812707
237	0xbb09f4c2	-0.0021050428
238	0x3b82e81a	0.003994954
239	0x3bf5b95d	0.0074989037
240	0x3bd706e7	0.006562102
241	0xbca91a6c	-0.020642482
242	0xbc98cf28	-0.018653467
243	0xb9a7a3d7	-0.00031974792
244	0x3cc4790a	0.023983497
245	0xbb83d478	-0.004023131
246	0xbc96a580	-0.018389463
247	0xbb302fd1	-0.002688397
248	0x3a9ec299	0.0012112438
249	0x3bd0c51b	0.006371153
250	0x3c8a8cc9	0.016912835
251	0xbb8e4ed1	-0.0043428917
252	0x3a5c6677	0.00084076024
253	0x3c631bb6	0.013861587
254	0x3abff9a1	0.0014646539
255	0xbbba5d6d	-0.0056874068

action_model._discrete_distribution.branches.1.bias f4 [2]
0	0xbb9bf32a	-0.004759212
1	0x3b9bf32a	0.004759212
