results/GoodAi_Test/BossAi/BossAi-123957.onnx (onnx, 82164 bytes, 11 tensors)

discrete_act_size_vector f4 [1, 3]
00000000: 0000 0040 0000 0040 0000 0040
2.0 2.0 2.0

network_body._body_endoder.seq_layers.0.weight f4 [128, 6]
00000000: 2655 29be 0ca8 d3be 2f6b 92bc 6270 5e3f
00000010: bfd7 4cbd 5977 353f e3f9 e0bd 8772 e63c
00000020: e4d5 993f 9ddd b2be 7d4e 123f 32ae 61bf
00000030: a495 603e 6c8a aa3e 3950 65be 85d5 39be
00000040: 2b11 39be 32e8 ee3e 5399 b53c fe1b 08bf
00000050: 592c 96be cb49 34bf 3ebe 61be 87e0 01bf
00000060: 25f9 783f b867 53be 0f16 5cbd 48a9 433f
00000070: 4ae3 bd3d 3011 f03d 1549 693e 2878 a53e
00000080: 2b7d 48be f816 9ebd ed93 25bf e86f 8abe
00000090: e9cd 7ebe 34f1 93bc 0734 56bf 11df 6dbd
000000a0: 028b d43e 22fc bf3e cfb9 a13e 580c a3bd
000000b0: 97b1 593d 79d8 fbbe c4af b63d 66ae 81bd
000000c0: ae37 1a3f 6cac 3dbf 381f e2be e0de 983e
000000d0: 8b85 04bf b73d 19bf 9474 9bbb 1bd6 273f
000000e0: d9a7 6c3f 180a 0ebf 1321 49be 1969 f4be
000000f0: a43f 1e3f 4f51 ae3e 0bbf 173d c216 8f3d
00000100: 17a9 aebe b3be dbbe 24c1 aa3e a92c fbbe
00000110: a3db a4be c934 40be b7d6 843e dea7 00be
00000120: 745e c6bd 715b 243f 2810 70be db4e afbe
00000130: 81c4 1b3e 6627 85be 7111 9ebe 264c 503c
00000140: c622 263b bf3d 2abe b681 11be 6f2a 16be
00000150: 2615 ddbd bfa7 a43e 64d9 fd3d 5a60 c43e
00000160: 3827 c2be a339 b23e f1a2 053e a913 05bf
00000170: c879 f03e 6ec6 4cbd a619 05bf 8714 a43c
00000180: ae80 013d 6169 17be b133 983d 7368 a83e
00000190: 01c9 da3e 78fa 0cbf 4b51 efbd 2677 63bd
000001a0: 9c1d 813f a040 47be 5e41 abbb 2cba 163f
000001b0: 3041 9f3e 38da 0d3f 8016 67be 2ae2 b73e
000001c0: c176 c6be d942 97be 00f9 f33e 6c68 36bf
000001d0: e252 7d3e 4a4f 0bbf 247f 74bc 5b19 e03e
000001e0: 720b 60be ab7c 79be 4ca1 ff39 4b26 3a3f
000001f0: 940f 483e 7f97 a33e 9f06 3e3f 412d c93d
00000200: 2209 a0be 7c50 e9bd 41ba 783f 397f 1abd
00000210: 30f7 9f3e 4c12 31bf 014e fb3e eacd dfbe
00000220: f468 323f 7665 b3bd a98c 13bf a7ba a4be
00000230: ffb9 f2bc 3dc5 22bf d800 54bf 9e08 6b3e
00000240: 8194 b53e 72fa 26bf 7fe4 213f 8c47 09be
00000250: b2dd 813e 3a60 4cbe 0b8f 563e edb6 88be
00000260: ca1d 313e e4f3 903f d4a0 80bb a6bf fd3e
00000270: 8600 cfbe 90fb 89be 4783 683e ac29 2fbf
00000280: 575b b3be c1d8 db3e 6a1b b73c c3ef 223e
00000290: 5005 3f3f 8168 ec3e ada5 603e ad1f 9bbe
000002a0: fe88 d43e 5e0c 4ebe d47f 6cbe 9163 d83e
000002b0: 0b37 333e 811c 2d3f d9e3 ad3d 0524 36bd
000002c0: 16a5 723e e138 0c3e 40f4 a6be bc12 43bf
000002d0: bc55 d6be b859 69be 5e9d d43e af78 e8be
000002e0: b221 423e ce69 acbe 284a 7c3e 9e57 3bbf
000002f0: 9e5a e5bd 0c91 8c3e 39bc 6a3e 81eb 5abc
00000300: 71cc 303e d838 e4be d762 d8be aee8 4c3f
00000310: 4256 32bf d9a4 813c 8387 10bf c7be b8be
00000320: 5e83 b3be 6203 0d3f f9e3 9c3e 186b b23d
00000330: ad24 fd3e 7191 9dbd 8a0a 33be e38a 13bf
00000340: 8b68 8cbd 7200 9ebe b621 533f 724e bb3e
00000350: ea5d 80bf aee6 293f 668e e73e 4cb9 76bf
00000360: 2ab7 c7bd e916 24be 90f6 4d3c 51cb c3be
00000370: 8780 393f 44a5 62bf 0184 733e fd8a 9fbe
00000380: 9f86 bdbc 56aa de3e e605 9abe a094 213f
00000390: 6b5f 773e 8cca 17be 9034 ebbe d288 c23c
000003a0: c8b0 30be d8db 9cbe db27 0cbf 1780 b03d
000003b0: 9199 8dbe 53c2 783d 3f49 40bf 5ab0 b73e
000003c0: 9137 583e 12c0 ef3e 9851 12be e27c 3a3e
000003d0: 9a03 513d 005b c43d cd6c 3bbb 8427 4abe
000003e0: 5f34 693e 0fe9 1e3f 0bbd 5a3d c2e4 50be
000003f0: b294 ecbe c23c 9d3d 8eae cb3e 9753 143f
-0.16536388 -0.41339147 -0.017873375 0.8689023 -0.05001044 0.70885235 -0.10985162 0.028130783
1.2018399 -0.34934703 0.57151014 -0.88156426 0.21932083 0.33308733 -0.22393884 -0.18147857
-0.18072955 0.46661526 0.022167837 -0.5316771 -0.2933071 -0.704251 -0.22045228 -0.50733227
0.97255164 -0.20645034 -0.053731974 0.7643018 0.092718676 0.11722028 0.22781785 0.32318234
-0.19578998 -0.07719225 -0.6467884 -0.27038503 -0.24883236 -0.01805935 -0.8367314 -0.05807406
0.41512305 0.3749705 0.31587073 -0.07961339 0.05314788 -0.49188593 0.089202434 -0.06332092
0.6024121 -0.7409122 -0.44164443 0.2985754 -0.5176627 -0.59859794 -0.004744122 0.65561074
0.92443615 -0.5548415 -0.19641523 -0.47736433 0.6181586 0.3404641 0.037047427 0.069867626
-0.3411338 -0.4291893 0.3335048 -0.4905751 -0.3219882 -0.18770136 0.25945064 -0.12564036
-0.09685984 0.6420203 -0.23443663 -0.3423985 0.15211679 -0.2600662 -0.30872682 0.012713468
0.0025350316 -0.16625117 -0.14209637 -0.14664625 -0.10795049 0.3215923 0.123949796 0.3835476
-0.37920547 0.34809598 0.13050438 -0.51983124 0.46967912 -0.049993925 -0.5199226 0.02002932
0.03161686 -0.14786293 0.07431734 0.32892188 0.4273148 -0.55069685 -0.11685427 -0.05553355
1.0087161 -0.19458246 -0.0052262982 0.58877826 0.31104422 0.554111 -0.22567177 0.35914737
-0.38762477 -0.29543188 0.4765091 -0.71253085 0.24738649 -0.5441786 -0.014922891 0.43769345
-0.21879366 -0.24363963 0.00048757566 0.7271468 0.19537193 0.3195152 0.74228853 0.098230846
-0.31256968 -0.11392304 0.971592 -0.037718985 0.31243277 -0.69168544 0.4908295 -0.43711787
0.69691396 -0.087595865 -0.57636505 -0.32173654 -0.029629705 -0.6358221 -0.8281379 0.22952506
0.35464862 -0.652259 0.6323928 -0.13406199 0.25364453 -0.19958583 0.20953004 -0.2670206
0.1729652 1.132443 -0.003925422 0.4956028 -0.40430087 -0.2694974 0.22706328 -0.6842296
-0.35030624 0.42938808 0.02235194 0.15911774 0.7461748 0.4617348 0.219382 -0.30297604
0.41510767 -0.20121905 -0.23095638 0.42263463 0.17501466 0.6762162 0.08490724 -0.044467945
0.23695788 0.13693573 -0.32608223 -0.7620046 -0.41862285 -0.22788131 0.41526312 -0.45404574
0.18958166 -0.33674473 0.24637663 -0.7318057 -0.111989245 0.27454412 0.22923364 -0.013361813
0.17265488 -0.44574618 -0.4226291 0.8004254 -0.6966287 0.015825676 -0.56456774 -0.36083052
-0.35061163 0.55083287 0.3064268 0.08711833 0.49442044 -0.07693756 -0.17484489 -0.576338
-0.068558775 -0.30859715 0.82473314 0.36583287 -1.002866 0.66367614 0.4522583 -0.9637649
-0.09751733 -0.16024365 0.012570992 -0.38241056 0.7246174 -0.88533425 0.23780824 -0.31160727
-0.023135481 0.4348933 -0.30082625 0.6311741 0.24157493 -0.14823359 -0.4593854 0.023746882
-0.17254937 -0.30636477 -0.54748315 0.08618181 -0.27656224 0.060732197 -0.75111765 0.35876733
0.21114947 0.46826226 -0.14288938 0.18211702 0.051028825 0.095876694 -0.0028598786 -0.19741637
0.22773884 0.6207437 0.05340294 -0.20399764 -0.46207196 0.07677604 0.39781612 0.5794005

network_body._body_endoder.seq_layers.0.bias f4 [128]
00000000: 91a4 193c 073b 24ba 5c77 0dbb c9b2 a93c
00000010: b422 0e3b 895c 2fbb b494 64ba d1c1 4bba
00000020: 2017 80bc 1ea8 413b d2eb 0bbb ed93 4fbb
00000030: 5e74 80bc 35ce 8a3c d60a a73c 3e3e 1539
00000040: a2d2 413c 7552 893c 5b26 dfba 7852 1ebc
00000050: 639c 1ebc 9367 2fbc 2619 4db8 34c0 f5bb
00000060: b3db 893c a2f1 adba 1f75 45bb e540 bebb
00000070: 7474 5c3c d0d9 acbb 5f30 3b3b 5fa5 3a3c
00000080: ac7c e8bc a518 c6bc 5752 9c3b 25ee 85bc
00000090: dbd5 913c 0a6b a8bb 26cd a7bb 9bf2 bb3b
000000a0: 4fd6 82bc 50e3 f1bb 5520 2b3d 8ccb fabb
000000b0: 5094 173c 310d afbc e5c1 a83b bf0e 01bc
000000c0: a591 533c fc68 6ebc 3a74 7ebc b16e 21bb
000000d0: be60 b53b 313d f03b 9746 4e3c 5017 063c
000000e0: a32b 7fbc 1ce9 47bb 0119 26b9 0a13 fa3b
000000f0: 3ac5 793c 8c11 83bc 0d55 0f3c 6411 323c
00000100: 038e bdbb cddd 18bd bd4b 15bb 9276 9a3c
00000110: 403b 633c 1209 243c e3e1 8c3c c399 213c
00000120: c51d 333c 3bf9 a13c 6290 7eb8 b165 99bc
00000130: 2d59 863c fe90 0ebc cddc 323c 646d 72bc
00000140: 7ebd 9e3c c4fc d13a b60c bbbc 16a9 743c
00000150: e6e8 88bc 263c ad3a e969 efbb da53 453c
00000160: efac eb3b 82bd c43c 5b01 70bb f2be 003b
00000170: 8c1d bdba bf7c 5abc 4bef 4e3c 0d30 863b
00000180: 23b9 bd3c 853a 673a b332 c23b f0c0 c7bc
00000190: f223 573c 9f55 bd3c ed3b 4f3c ecd9 7c3c
000001a0: 9e98 4d3b a777 e53b bebf 453c dc31 b43b
000001b0: f2d4 043d a58f eb3a 72b3 9839 ef1e 3d3b
000001c0: 5c55 953b f9cb 44bc de4c c53c 141f 95bb
000001d0: 530d 9fbb a4b2 1d3c d825 2f3d 7f82 b1bb
000001e0: db98 1d3c 340b 303b afdc d33c c85a 76bc
000001f0: f1e9 743c 84c6 8cbb 9584 c93c 4825 cb3b
0.009377615 -0.0006264899 -0.0021586036 0.020715134 0.0021688165 -0.0026758036 -0.0008719668 -0.00077727163
-0.015636027 0.0029549669 -0.0021350277 -0.0031673864 -0.015680488 0.01694403 0.02039091 0.00014232934
0.011830004 0.016762951 -0.0017024981 -0.009663217 -0.00968084 -0.010705846 -4.889923e-05 -0.007499719
0.016828394 -0.0013270865 -0.0030129624 -0.005806076 0.013455499 -0.0052749887 0.0028562767 0.011391967
-0.02837976 -0.024181673 0.004770558 -0.016348908 0.01780217 -0.005139713 -0.005120891 0.005735708
-0.01597133 -0.007381834 0.04177888 -0.007653659 0.009251669 -0.021368595 0.005150067 -0.007877051
0.012913142 -0.014551397 -0.01553064 -0.0024632628 0.005535214 0.0073315133 0.012590072 0.008184269
-0.015574369 -0.0030503934 -0.00015840308 0.007631664 0.015244776 -0.015999578 0.008748305 0.010868404
-0.0057847514 -0.0373209 -0.002278074 0.018855367 0.013869107 0.010011928 0.017197555 0.00986332
0.010932391 0.019772163 -6.0692786e-05 -0.018725248 0.016399944 -0.008701561 0.010916901 -0.014796589
0.019377466 0.0016020765 -0.02283321 0.014932891 -0.016712617 0.0013216778 -0.0073063266 0.012043918
0.007192246 0.024016146 -0.0036621902 0.0019645062 -0.0014428361 -0.013335406 0.012630294 0.0040950836
0.02315957 0.0008820671 0.005926454 -0.024383992 0.013131129 0.023112116 0.012648565 0.015432816
0.0031371485 0.007002789 0.012069641 0.0054991078 0.032429643 0.0017971887 0.00029125396 0.002885755
0.004557295 -0.0120115215 0.024084505 -0.004550824 -0.0048538833 0.009625111 0.0427607 -0.0054171677
0.009618963 0.0026862146 0.025862066 -0.015036292 0.014948354 -0.004296126 0.024599353 0.0061995126

network_body._body_endoder.seq_layers.2.weight f4 [128, 128]
00000000: 9526 05bd b239 cebc 5242 e1bc ac67 dfbd
00000010: 1c5e be3d 9887 e73d edfc 2bbd d032 9a3d
00000020: 9ab9 273e 8919 30bd e8c6 b03d d714 e13b
00000030: c43b 4b3d 1c22 7ebd 3495 58bd 2ddb 023d
00000040: c313 813e 47f8 51bd 3242 88bd 7250 fb3b
00000050: 2494 81bc 1c09 acbd 894c 3c3d 0975 0d3d
00000060: 1dff b53d d471 bcbc c53b bb3d b550 2f3d
00000070: 9c91 fdbd 000a c03c 0c2c 27bd 0152 d63d
00000080: c787 c2bd 31cd f4bc c6a8 31bd fcd4 9f3c
00000090: 52fd 2c3d df43 c93d a3e4 443d 54be 793d
000000a0: 78e1 66bd 5c02 313d ad71 30bc 3f1f debd
000000b0: fb8b 4bbd 5793 a8bd e04c 3bbe ab4c acbd
000000c0: 4bce b23d ac60 f13d c108 84bd 4700 2cbe
000000d0: 15a0 c53d c18c 253c 0760 af3d c611 81bc
000000e0: 983a d9bd 5efb 01bb 6421 63be e05e 81bd
000000f0: a1b0 313e f7f3 3a3e bc78 c0bc 4ccc 6c3d
00000100: bb5c 873d d505 c43c c068 9ebd 17c6 dbbc
00000110: b8e9 00bd c6fd e23c 5b3a b13d ab7a bd3d
00000120: bb41 c43c d87c 8ebd ab60 c03d 5c90 2cbe
00000130: b3b9 18be 1146 56be 68d5 d13d 1399 db3d
00000140: 58dc f73b 36b5 0f3e c919 0bbd 2f37 b1bd
00000150: 5c79 1b3e 1468 52bd edd6 583d 6db2 443d
00000160: f395 573d 3770 a3bd afe7 473c 5bf8 57be
00000170: 1142 1f3e 66ef 3d3e ef5f 4dbd b161 623c
00000180: 6308 0e3e b259 3c3d 371e dc3c 93a1 2f3d
00000190: 8453 7c3d 7617 293d a369 43bd f871 2d3e
000001a0: fb95 063e 3d53 963b 02b0 143a 6888 573e
000001b0: e131 ef3b 0414 e93d b07b 67bd f205 aebc
000001c0: 802b 593c 8db7 68bd 96ab ff3c 3a73 d53b
000001d0: 3e58 a63d 1320 dbbd 49c6 00bb 13b3 c63d
000001e0: 47cc 9abd bcf4 78bd a217 5d3c 4b5c f63d
000001f0: 20e1 933c acb4 b9bd 228c a83c 5c91 a43b
00000200: e246 fabd 74fd 283e b4ed 95bd 9741 3d3e
00000210: 7c3a c1bc 1e92 33be 3780 a43c 3f9d f23b
00000220: a64a a2bd ec93 293d 2764 9abd 89bb be3c
00000230: dc71 453c 3f99 523c 00d5 13bc f573 d43c
00000240: 8eb7 77bd 1ee0 393d da3c 1cbe d0a3 1dbd
00000250: 0fdf 453d ae9b 73bc 29d6 4e3d 6275 eb3d
00000260: b052 93bd c357 e93c 4be9 28bd 5926 e23d
00000270: ef84 103d a5c8 2fbb 0c1b 0cbe 6e56 afbd
00000280: 71f0 dabc d2d6 303c 8ccf 91bc 3a00 813d
00000290: b359 01bc f033 9bbd 0c4e 21ba 88d2 fa3c
000002a0: 6c68 173d 561a 95bc 7005 25be 52c0 43bc
000002b0: af3e 193d 4fbc 06bd 76c1 6c3d aeec a3bd
000002c0: c5bf 653e da06 823d 47dc f739 9d4b 35bd
000002d0: 6092 73bd 50c2 853c 52e3 a53d 09e6 013d
000002e0: 388b 753c ea59 0bbe bbcc 7ebd a24c 253d
000002f0: 4076 9b3c 328b 233e fd41 f93c afef 4dbd
00000300: 6e7e 05be 8ce0 03be ff6a c1bd bef6 063e
00000310: 570b ccbd af6c 8b3c fe57 b63c 104e a73d
00000320: 85a4 d4bc 6c5b 0ebc d331 1a3d 14e2 34bd
00000330: cb17 83bd 2c0b 133e e7ad 43bd b4a1 1b3e
00000340: 8e9a d1bd b89b 193e 07f4 563d cd0e 0d3e
00000350: 18c7 27bd 320b 9c3c db86 a9bd 2243 093c
00000360: d014 cbbd 7119 9a3d 2797 983c b808 0d3c
00000370: d29b 85bc 4f4b 8e3c 6651 6fbd ed2e 5dbd
00000380: 1c0d 7ebd daac 1c3d 8d48 91bc a594 9dbc
00000390: 8cad b8bd c260 9abd e016 843d 6665 52be
000003a0: da4c 743d cfd0 e73b 2b4a 92bd ebbd b5bc
000003b0: 207c 493d 819d abbd c0e2 5f3d ba44 713d
000003c0: 7a2c 593b 5fdc cfbc c087 dabd 856d 393b
000003d0: d1cd 1f3e bc94 103d 31b7 843d ad55 5f3d
000003e0: 7ba7 7ebd 00cd 903d 88ac 49be bc6c cabd
000003f0: fea6 ab3c e7ef 0c3e 4ad0 cc3c c8e5 0b3d
-0.032507498 -0.025173996 -0.027497444 -0.10908446 0.09295294 0.11305159 -0.041989256 0.07529223
0.16379395 -0.042993102 0.08631688 0.0068689394 0.049617544 -0.062044248 -0.052876666 0.031947304
0.2521039 -0.051262166 -0.06653251 0.007669502 -0.01581771 -0.08400175 0.045971427 0.03453544
0.088865496 -0.023003496 0.091422595 0.042801578 -0.123812884 0.023442268 -0.04081349 0.1046486
-0.09498554 -0.029883 -0.043373846 0.019510739 0.042233773 0.098273985 0.048069607 0.060972527
-0.056367368 0.04321514 -0.01076929 -0.108458035 -0.049694043 -0.08231228 -0.18291044 -0.08413061
0.087307535 0.11786017 -0.06446982 -0.16796981 0.09649674 0.010104359 0.08563238 -0.015755545
-0.10606879 -0.0019833664 -0.22180706 -0.06316924 0.17352535 0.18257128 -0.02349507 0.05781202
0.06609484 0.023928562 -0.07734823 -0.026827855 -0.03147289 0.0277089 0.086537085 0.09251913
0.023957124 -0.06957406 0.09393438 -0.16851944 -0.14914589 -0.20925166 0.10245782 0.10722556
0.007564109 0.1403397 -0.033960138 -0.086531036 0.15183014 -0.051368788 0.052939344 0.048021723
0.052633237 -0.07980388 0.012201234 -0.21090834 0.15552546 0.18548355 -0.050140318 0.013817237
0.13870387 0.045983978 0.026869876 0.0428787 0.061603084 0.04128214 -0.047708165 0.16938007
0.1314315 0.0045875595 0.0005671979 0.21048129 0.007299647 0.11380771 -0.056514442 -0.02124307
0.013255 -0.056815673 0.031209748 0.00651398 0.081222996 -0.10699477 -0.0019649437 0.097021244
-0.07558494 -0.060780272 0.013494404 0.12029322 0.018051684 -0.090676636 0.020574633 0.005022211
-0.12220551 0.16502935 -0.07320729 0.18482052 -0.023587458 -0.17536208 0.020080669 0.007403999
-0.07924394 0.041400835 -0.07538634 0.023282783 0.012051072 0.0128539195 -0.009022951 0.025934199
-0.060477786 0.04537975 -0.15257588 -0.038486302 0.04830843 -0.01486866 0.050497208 0.11496998
-0.07193506 0.02848423 -0.04123811 0.110424705 0.035283025 -0.0026822474 -0.13682193 -0.08561407
-0.02672598 0.010793405 -0.017799161 0.06298871 -0.007894921 -0.07578266 -0.00061532925 0.030617967
0.03696482 -0.018201035 -0.16115355 -0.011947708 0.037413295 -0.03289443 0.057801686 -0.080041274
0.22436436 0.06348963 0.0004727563 -0.044261564 -0.059465766 0.016328007 0.080999985 0.03171352
0.014986806 -0.13608518 -0.062206965 0.040356286 0.018977284 0.15971068 0.030426973 -0.05027741
-0.1303651 -0.12878627 -0.09444236 0.13180062 -0.099631004 0.017019598 0.022258755 0.08169186
-0.025957355 -0.008688789 0.037645172 -0.044160917 -0.064010225 0.1435973 -0.047773268 0.15198404
-0.10234557 0.15000808 0.052478816 0.13775177 -0.040961355 0.019048307 -0.08277675 0.008377822
-0.09916079 0.07524384 0.018626763 0.008608036 -0.016309652 0.017369894 -0.058427237 -0.05399983
-0.06202422 0.03825078 -0.01773479 -0.019235918 -0.090174764 -0.07537986 0.064496756 -0.20546493
0.059643604 0.0070744525 -0.07143053 -0.022185287 0.04919064 -0.08379651 0.054659605 0.058903433
0.0033138082 -0.025373636 -0.106704235 0.0028294038 0.15605856 0.035298094 0.064802535 0.054525066
-0.06217144 0.07070351 -0.19694722 -0.09884021 0.020953652 0.1376339 0.025001664 0.034154683

network_body._body_endoder.seq_layers.2.bias f4 [128]
00000000: 1a35 9dbc 7940 5b3c 2e75 98bb ef0c 80bc
00000010: ee71 5b3c 923c 2ebc 9d5b f1bb 4541 d33a
00000020: cf70 14bc 73ed 5f3c 293a 3c3c b810 82bb
00000030: be22 18bc 7621 f13a 22af 0b3a 3994 8e3a
00000040: 0b75 c73c d3fe fb3a 0a48 febb aa4f b2bb
00000050: 6255 023c 3405 d33a 8487 ddbb c858 82b9
00000060: a686 5e3c c5d8 e73b 03ba f23b c50b 8cbc
00000070: e8bb cf3b 54a8 983c ce95 a9bb d8fb 413c
00000080: 150f 0bbc 1744 913b 4946 593c 0abf 2cbc
00000090: d05b 2fbb 141c d0bb cd92 b43b a830 373c
000000a0: cdec b1bb c2b5 f03b dcdf 9cba c351 843d
000000b0: f989 1f3c 679c 683c 5963 f4ba 5b96 c33b
000000c0: 8a2d aebb c8da c3bb 36c8 da3b 71e2 3ebc
000000d0: a016 94bb 4a46 153c 9a09 293c a877 f0b9
000000e0: 5343 20bb 25a4 dc3b 179e 1ebc bd97 92bb
000000f0: 57a3 2f3c 0fc4 4bbc e709 c83c 10fa dabb
00000100: 5c17 813b ee3f 733c c8c8 a9bb db4c aabb
00000110: c023 8a3c 46ec 1d3c a7d1 aaba a497 6dbc
00000120: 6479 71ba 9257 623c e6f1 1d3c c3f1 4e3a
00000130: e5cd 3abc e1b0 d1ba f89e a93b 592f e5bb
00000140: f5ca ab3c 6bbc 313c 1d55 f53b 233b ccbb
00000150: 7628 d9bb 3636 e6ba 1c93 643c d05f 413a
00000160: 0cb8 22bc 0f61 a63c 2f16 0ebb f4f1 d5bb
00000170: 72ea 7abb dc6f 6f3c aee4 dfbb 3bf8 f0bb
00000180: ee23 22bc 734a 583c c422 133c 9190 593c
00000190: 0a40 fd3b 5078 233c 9c09 7bbb 54e6 8fbb
000001a0: 4232 31bc 8e11 803c 674d 913b fc75 2a3b
000001b0: 0601 e7bb 3a6a 353b c82b 96bb 079c 71bb
000001c0: d613 483b 96c8 963b f890 75bb 5432 7abb
000001d0: da97 a73c 0aac 483c 0209 633b 3ad2 6cbc
000001e0: 618b 8cbb a971 f0ba d526 3b3c 4926 d9bb
000001f0: c3e9 70bb 7834 663b dc99 8cbb 7ff5 e8ba
-0.01919036 0.013382071 -0.004652641 -0.015631167 0.013393862 -0.010634558 -0.0073656575 0.0016117474
-0.009060099 0.013667452 0.011488476 -0.003969278 -0.009285627 0.0018396813 0.0005328526 0.0010877914
0.024347803 0.0019225724 -0.0077600526 -0.0054416256 0.007954927 0.0016099573 -0.0067605395 -0.0002486168
0.013581907 0.0070754015 0.007407428 -0.017095456 0.006339539 0.018634953 -0.005175329 0.011839829
-0.008487483 0.004433166 0.013261386 -0.010543594 -0.0026757605 -0.0063510034 0.005510664 0.011181034
-0.00542984 0.007345886 -0.0011968571 0.06460907 0.009737485 0.0141974455 -0.001864533 0.0059688515
-0.0053154873 -0.0059770085 0.006676699 -0.0116506675 -0.0045192987 0.0091109965 0.010317231 -0.00045865518
-0.002445419 0.0067334347 -0.009681246 -0.004473655 0.010720096 -0.012436881 0.024418784 -0.006682642
0.003939552 0.014846785 -0.0051814057 -0.00519715 0.01686275 0.0096388515 -0.0013032452 -0.014501486
-0.0009211509 0.013814824 0.009640193 0.00078943017 -0.011401628 -0.0015998149 0.0051764213 -0.0069941697
0.0209708 0.010848145 0.007486953 -0.0062326356 -0.006627138 -0.0017563764 0.013951089 0.0007376643
-0.0099315755 0.020309953 -0.0021680703 -0.006529087 -0.0038286713 0.014614072 -0.0068326807 -0.00735381
-0.009896262 0.013201344 0.008980457 0.013279096 0.0077285813 0.009977415 -0.0038305288 -0.004391471
-0.010815205 0.01563337 0.004434276 0.0026010266 -0.0070496826 0.0027681724 -0.004582856 -0.0036866681
0.0030529401 0.0046015484 -0.0037470441 -0.003817697 0.02045815 0.012248049 0.003464282 -0.014454419
-0.004289076 -0.001834442 0.0114228325 -0.0066268784 -0.0036760427 0.0035126489 -0.0042908024 -0.0017773359

action_model._discrete_distribution.branches.0.weight f4 [2, 128]
00000000: 9719 c4ba 6c2e b63a ef0b e53b 800f 523b
00000010: d8eb b3bc 1bf0 34ba 0edb 3cbc 0b02 32bc
00000020: 7b78 4f3c f3ed 083d 3ba4 4dbc 63f0 153c
00000030: a336 f83b aa69 7b3c b49d b83b 98cf 88bb
00000040: 672c b6bb 03b8 8c3c 6f3e 3fbb 58eb 0fbb
00000050: 7c30 923c 9733 78bc 8f6d 033c 607f 9c3c
00000060: 0209 8e3b 3209 e5bb ffd3 263c 59b0 c3bb
00000070: 7a1f 0cbc 7bee 963c 9a65 413b ee7b 7dbb
00000080: 96bf 203c eb87 9bba 806c 313b 0cb4 d73b
00000090: 4ee7 853c b08c f43b ff5c f6bb eff6 283c
000000a0: c06d 103c 7863 5abc a10e 6d3c d977 0cbd
000000b0: 10d3 f9bb d019 383c 7913 913c feb6 72bc
000000c0: 20ac 423b 8fc5 78bb 6df4 92bb a124 5f3c
000000d0: 4c8d 2bbb 238a db3c e4c7 3d3d 7c8c 113b
000000e0: 379a 713c 82bc 8fbc e049 8c3b f87e 3a3b
000000f0: 8bd8 423b ff7e 2c3c eec5 9cbc cd44 2c3c
00000100: 022e 853c 94d3 703b 1387 c2bb 8b7e 653b
00000110: b8da 80bc b4aa 77bc 74ad 0fbc 2f84 003c
00000120: 5495 e4ba 2fc3 063d 3940 c9bb 4009 fb3a
00000130: 2132 183c 77bf 4b3b a650 093c 578f 9a3c
00000140: 48e4 adbc 6069 b9bb 9486 55bc fc99 b9bc
00000150: 509d 243c 22aa 283c 8be8 18bc edb5 743c
00000160: ec9f 0e3b fb61 45b9 edf4 9bbc 9013 063c
00000170: 9837 8d3c 49a0 9a3c f43a 973c 4053 f8bb
00000180: d2f9 843c 6eb5 46bc 9f52 8b3c 6d66 1fbb
00000190: 643c 123c d3d3 96bb b84b c53c ae83 02bc
000001a0: 901a 3a3c 7cb9 523c c750 65bc 88cb 3f3c
000001b0: 431a 253b 981c bcbb 48bc 853b e2da 4a3c
000001c0: 7160 13bc b22e a23b 65d2 c5bb a291 10ba
000001d0: af76 f7bb 7317 98bc 7126 f63b 8622 ff3b
000001e0: af3c 1b3b 234b e53b d54a 8c3b 8b8a 1d3b
000001f0: 8cae 6b3c e995 9cbc 5c29 973b f850 173c
00000200: e48d 04bc 9132 203c 8b6d 323c d8b4 cdbb
00000210: 981b 8f3b ec76 13bc 52a7 21bc 31f9 023c
00000220: b0b2 ecbc 4c54 acbc e59d e93b 39ee 683c
00000230: 1607 4ebc 3921 78bc 975a 98bc d504 0c3c
00000240: 24e3 e53b d40c a1bc 9813 73bc 6c28 9aba
00000250: 994b 473c d4d9 e4bb 47df 9339 36c1 83bc
00000260: be00 32bc 1941 6cbb 2ef4 983c d2cb 53bc
00000270: cabd 6ebc 2511 8cbc 6768 33bc 1652 de3b
00000280: 94bc 2fbc 54eb 013b 4827 c2bb 3180 abbb
00000290: 5a85 3bbc edc8 6bbc 34eb a83c 3a89 2fbc
000002a0: 149a 01bd 001d 813c 72ed 7239 3dee ee3c
000002b0: bb2f 073c 3f4b 87bb 773c bfbb 92f4 ed3c
000002c0: 6cfa 14bc 4c0c 9bba 3cb4 593b 9bf0 8abb
000002d0: d3c6 7fbc a01b 95bc 2fe8 21bd 145c 9e3b
000002e0: 5207 41bc da0e 143b 14a0 873b 170f 223b
000002f0: 9aea 8aba e4e8 853b 3549 cf3c f110 a2bc
00000300: abc0 e93b a913 9ebc cdf3 c9bb 8ced b6ba
00000310: 5861 e53c f886 ef3b 9c88 783a 5150 f9bb
00000320: 0336 3fbb 5b98 0fbd 519b ad3b 97cc 6a3c
00000330: 05d6 efbb b83f c33b cf1e 06bc 0ef3 86bb
00000340: 8ac7 743c 95f4 803c 1a92 833c cdd5 393c
00000350: 89d3 96bc c414 c63b faad aabc ab8a d4bb
00000360: d183 67bc a935 df3c 68de 68bb ffa3 86bc
00000370: 3622 013c a3b3 babc 64ce 16bc d4c1 9cbc
00000380: c9c9 06bc 6817 343c f489 33bb 7c6e 13bc
00000390: b48c 0eb8 94db 4c3c c9ff a0bb 1f68 47bc
000003a0: 7fe8 d0bc a93e 6b3c 41ff 883a 9d16 84bc
000003b0: d0f2 ecb8 06b5 953b f835 42bc 6725 883b
000003c0: 88fb 4dbb 189f 6cbc 48e3 beba ea60 843c
000003d0: 42a2 f53c dfb9 613b 846e aebb c09a b2bc
000003e0: 4e56 babb fc97 1d3c 8093 dfbb cbd7 b03b
000003f0: 0c6f 87bc 5dd4 d63c 724a 423b 1819 febb
-0.001496124 0.0013899333 0.006989948 0.0032052696 -0.021963045 -0.00069022336 -0.011526836 -0.010864745
0.012663002 0.03343005 -0.012551363 0.009151551 0.0075748726 0.0153450165 0.005634034 -0.0041751377
-0.0055594924 0.017177587 -0.00291815 -0.0021960344 0.017845385 -0.015149019 0.008021726 0.019103706
0.00433457 -0.0069896216 0.01018238 -0.00597195 -0.0085524265 0.018424263 0.0029510022 -0.0038678604
0.009811303 -0.0011866068 0.0027072728 0.0065827426 0.016345646 0.0074630603 -0.00751841 0.01031278
0.008815229 -0.013329379 0.01446882 -0.034293983 -0.0076240376 0.011236623 0.01770948 -0.014814137
0.0029704645 -0.003795955 -0.004484704 0.013619573 -0.0026176749 0.026799267 0.04633321 0.002220898
0.01474624 -0.017545942 0.0042812675 0.0028457027 0.002973112 0.010528325 -0.019137349 0.01051445
0.01625729 0.0036747204 -0.0059365123 0.0035018052 -0.015729293 -0.015116382 -0.008769382 0.007844015
-0.0017439523 0.032900985 -0.006141689 0.0019152537 0.009289295 0.0031089464 0.0083810445 0.018867178
-0.021227017 -0.0056583136 -0.013032574 -0.022656433 0.010047272 0.010294469 -0.009332786 0.014935953
0.0021762801 -0.00018823885 -0.019037688 0.008183375 0.017238423 0.018875258 0.018460728 -0.0075782835
0.016232405 -0.012128217 0.01700717 -0.0024322525 0.008925531 -0.004602888 0.024083957 -0.007965965
0.011358872 0.012861606 -0.01399631 0.0117062405 0.0025192655 -0.0057407133 0.0040812828 0.012381287
-0.008995161 0.004949414 -0.006037044 -0.0005514865 -0.00755199 -0.018565869 0.007511907 0.007786098
0.0023687293 0.0069974824 0.0042813816 0.0024038877 0.014384877 -0.019114451 0.0046130847 0.009235613
-0.00809047 0.009777681 0.010890375 -0.006277662 0.004367303 -0.009000521 -0.009866552 0.007993982
-0.028893799 -0.02103629 0.007129418 0.014216953 -0.012574932 -0.01514464 -0.018597884 0.008546074
0.0070156027 -0.019659437 -0.0148362145 -0.0011761314 0.01216402 -0.006983975 0.0002820438 -0.016083341
-0.010864435 -0.0036049543 0.018671121 -0.0129270125 -0.014571616 -0.017098019 -0.010950184 0.0067846878
-0.010726113 0.0019824104 -0.005925093 -0.0052337875 -0.011445368 -0.014391166 0.020619966 -0.01071387
-0.03164108 0.015760899 0.00023167374 0.029166335 0.008251126 -0.004128843 -0.0058360654 0.029047284
-0.009092908 -0.0011829226 0.0033219 -0.004240108 -0.015611368 -0.01820165 -0.03952807 0.004832754
-0.01178153 0.002259186 0.004138956 0.0024728233 -0.0010598481 0.0040866006 0.025303463 -0.019783469
0.0071335635 -0.019296484 -0.0061630965 -0.0013956293 0.028000519 0.0073097907 0.00094808056 -0.0076084514
-0.002917648 -0.035057407 0.005298056 0.014331005 -0.0073192143 0.0059585236 -0.008186056 -0.00411833
0.014940152 0.015741626 0.016060878 0.011342478 -0.018411415 0.006044956 -0.020834912 -0.006486257
-0.014130549 0.027247267 -0.0035532955 -0.016435621 0.007881692 -0.022790736 -0.009204481 -0.019135393
-0.00822682 0.010991909 -0.002739546 -0.0089985095 -3.398648e-05 0.012503523 -0.0049133045 -0.0121708205
-0.025501488 0.014358201 0.0010452048 -0.016124064 -0.00011298584 0.004568699 -0.011853687 0.0041548493
-0.0031430442 -0.014442228 -0.0014563585 0.016159493 0.029984597 0.0034443063 -0.005323233 -0.021802306
-0.005686558 0.009618755 -0.0068230033 0.0053968183 -0.016532443 0.02622431 0.0029646424 -0.0077544563

action_model._discrete_distribution.branches.0.bias f4 [2]
00000000: 4502 0fbc 4302 0f3c
-0.008728568 0.008728567

action_model._discrete_distribution.branches.1.weight f4 [2, 128]
00000000: b07f 2dbb f63d 1dbc 7fd4 a23b bf12 d43b
00000010: 1d51 6fbc 8536 98bb 0617 5b3c fa34 333c
00000020: 5c8c 083b 1060 9e3c 4b84 303c 49a5 563a
00000030: 778a bdbb a739 083b c511 a1bc 2c7c ff3b
00000040: 34df 613d 5d2b 3d3c c645 163c 2319 9aba
00000050: a4f7 f33c 0dcf 31bb 1bdb 5d3c d871 9cbb
00000060: 4b95 40bd 0538 6b3c 44cd 6bbc 6840 bb3b
00000070: bb03 38bc 7b77 31bd 9cf5 4dbb 6665 02bc
00000080: bc9a 073c 1097 ec3a fda4 0bbc 7ebd 93bb
00000090: 3710 a1bb e3df ac3b 82a6 743c c1c8 053d
000000a0: c048 a3bb 5169 163b 132b b13a bd61 d53d
000000b0: 07e2 fbbb c7d6 823c ff9f 5d3c 583b 2d3b
000000c0: 0060 b4ba e690 2b3c e5e6 5dbc ebaa 96b9
000000d0: 76c9 87bb cbf6 cc3c 34ae a6bc 5894 a03b
000000e0: c283 75bc d564 35bc 1abf 1ebb f0a0 fabb
000000f0: 6e3a 33bc 2b78 d53b 33b4 2abd 0e87 34bc
00000100: 25b1 b33c c5e5 06bc 5ed8 283c c7d6 08bc
00000110: 5175 993c abb9 633c d2cf b6bb bc76 ef3a
00000120: 30de e0b9 df3a 4c3c 113e 80bc 2e7f 7d3c
00000130: a080 383c c55f 85bc 6bfd d5bc d975 273c
00000140: cec5 593d 1ccc 523d 0844 233b 126e f2bb
00000150: 850f 33bc 91e3 de3c e156 83bc d82d 0f3c
00000160: 1956 1bbb ada9 ffb9 ce31 78bc 05a3 2f3c
00000170: 7842 0e3b 6b7c 873c 89cd 29bb 7142 0f3c
00000180: b804 d23a de30 24bc cc32 293c e545 e53c
00000190: ac32 8abc ae05 3ab9 d22c 57bc 42b7 bb3b
000001a0: 9fed 8bbb 8ab0 06bc fd9b 23bc 969f 62bc
000001b0: 453f 7dbb 7078 dcbb 5bf1 0bbc 6f31 af3a
000001c0: 48aa 52bb 79db 9c3c fbc4 b13c 91f4 f0bb
000001d0: 3692 bebc fed2 b5bc bf1a f3bb cd6c 163b
000001e0: 17ec 8dbb 4ca3 10bc 20a9 90bc e7df bcb9
000001f0: 6f86 2e3c 9c0b f0bc 8f1d bbbb ff0e a83c
00000200: 1278 7abb df30 cc3b 649a 27bc 2c8e d3b9
00000210: fd1b 433b c5c0 9ebb 947c 7dbc d66a 323b
00000220: 52d7 7ebb 73f8 65bc 38aa 6b3c 1f7d 233c
00000230: 38c0 383c 1ce9 f03b 5b6c 6bbb 45e0 ed3b
00000240: 1c75 5dbd 3445 88bc 9f38 0ebc 7c09 173c
00000250: a604 02bd 38c7 833b 080c 1ebc 79f3 ad3b
00000260: 1dd3 4f3d 916f 80bc 84b0 683c 4559 a4bb
00000270: 6e97 853c 1be0 183d c90a 713c 3f99 0e3c
00000280: 05bb 5c3c dd19 6c3c 9db1 463d de44 97bb
00000290: ff46 b03c ab43 993b 7261 54bc e66e 61bc
000002a0: 13a2 cb3b 61e9 453b 3b85 983c c5f7 bdbd
000002b0: 4bd2 c8bb 4994 29bc 62b8 68bc 2af7 da3b
000002c0: 9ca3 723c 373d 97ba 078f 143a 8cbf fabb
000002d0: 7ff1 263c e3b7 82bc 97d2 af3c f5db fd3b
000002e0: a3b7 953c bce4 70bb db9d a53b 7976 5cbb
000002f0: c92e 6b3c 68b5 b1bb 00bb 353d c52a 9ebc
00000300: fcc1 c8bc 166b 093d c5be e33b 2c09 3abc
00000310: afef 31bc 9ec0 d3bb 973f 15bc c4ca a6bb
00000320: 8a28 0d3b 4b8c 843a 721b 603c f75d 203c
00000330: 4340 543b 06c2 0ebc f2f9 fe3b d4a0 ee3a
00000340: 2dc9 0cbd 1f8e 32bd 1cba 0a3c b1e0 0f3b
00000350: 0b4f 013b d4e3 843b 311b 863c f811 12bc
00000360: f18f 65bb 43ae 383c f8bf 8d3c 11af c7bb
00000370: 9dec babc d122 8cbb c081 70bb c979 58bb
00000380: b433 50ba 1097 753c 6c5c a2bc fea9 f1bc
00000390: 58c8 303c 6ba1 ec3b 4f22 0d3b b329 54bc
000003a0: 1cf3 b6bb a731 ab3c 5b66 8f3a 91f6 88bb
000003b0: cabd bdba 1c1d c7ba 702b 843b e420 ff3b
000003c0: dc27 da3b 05f6 b4bc fcec adbc 15eb 14bb
000003d0: da47 c73c 8d71 7dbb 43db 96bc 840d f6b9
000003e0: 6e36 e13a 70ed b03b 8e6f 8c3c ffcd 74bb
000003f0: ff41 4439 d0d9 423c fc33 e03a 5d0b c5bb
-0.0026473813 -0.009597292 0.004969179 0.0064719613 -0.014606741 -0.004645171 0.013372188 0.010937924
0.0020835614 0.019332916 0.010773729 0.00081880816 -0.0057843286 0.0020786317 -0.019661793 0.007796785
0.055144504 0.011545983 0.009171909 -0.0011756759 0.02978117 -0.0027131469 0.013541008 -0.0047743134
-0.047017377 0.014356618 -0.014392201 0.005714465 -0.011231358 -0.043326836 -0.0031426912 -0.007958746
0.008276638 0.0018050391 -0.008523223 -0.004508673 -0.004915263 0.005275713 0.014932277 0.032662157
-0.0049830377 0.0022950957 0.0013516865 0.10419033 -0.0076868567 0.015971554 0.013526916 0.0026433077
-0.001376152 0.010471558 -0.013543819 -0.00028737573 -0.004143889 0.025020024 -0.020346738 0.0049004965
-0.014985027 -0.0110714035 -0.0024222792 -0.00764858 -0.010939224 0.0065145693 -0.041675758 -0.011018528
0.021935055 -0.008233492 0.010305492 -0.008351988 0.018732699 0.013899247 -0.0055789733 0.0018269639
-0.00042890152 0.012465208 -0.015654596 0.0154722165 0.011261135 -0.016281018 -0.026121816 0.010220968
0.053167157 0.051464185 0.0024912376 -0.0073983753 -0.010928993 0.027208121 -0.016032638 0.008738957
-0.0023702441 -0.00048763808 -0.015148593 0.010720019 0.00217071 0.01653882 -0.0025909862 0.008743868
0.0016023135 -0.0100214165 0.010327052 0.02798743 -0.016869865 -0.00017740458 -0.013133245 0.005728633
-0.00427027 -0.008220801 -0.009985921 -0.013831994 -0.0038642448 -0.0067282245 -0.00854143 0.0013366173
-0.0032144953 0.019147621 0.021700373 -0.0073533733 -0.023263078 -0.022195335 -0.00741896 0.0022953034
-0.0043311226 -0.0088279955 -0.01765877 -0.00036024975 0.010652169 -0.02930241 -0.005710311 0.020514963
-0.003821854 0.006231412 -0.010229681 -0.00040350982 0.002977132 -0.0048447573 -0.015471596 0.0027224324
-0.0038885665 -0.014036286 0.014383845 0.009978562 0.011276297 0.0073520076 -0.003592274 0.007259401
-0.054066762 -0.016634561 -0.008680492 0.00921857 -0.031742714 0.0040215515 -0.009646423 0.005308565
0.050738443 -0.015678199 0.014202241 -0.0050155246 0.016307559 0.0373231 0.014712044 0.008703529
0.013472323 0.014410463 0.04850923 -0.004616364 0.021518229 0.004677256 -0.012962686 -0.01375935
0.006214389 0.003019892 0.018618217 -0.09275774 -0.0061285845 -0.010350295 -0.014204117 0.0066822963
0.014809515 -0.0011538629 0.00056670647 -0.0076522287 0.010189413 -0.015956825 0.021462722 0.007747168
0.018276041 -0.003675743 0.005054218 -0.003363995 0.014354416 -0.0054232366 0.04436779 -0.019307503
-0.024506561 0.03354939 0.0069502317 -0.011354726 -0.010860368 -0.0064621707 -0.009109399 -0.0050900895
0.0021539056 0.0010112611 0.0136784185 0.009788028 0.0032386936 -0.008713251 0.0077812606 0.001820589
-0.034371544 -0.04359257 0.0084672235 0.0021953995 0.0019730951 0.0040554795 0.016370388 -0.008915417
-0.0035028423 0.011272016 0.017303452 -0.0060938676 -0.022817904 -0.0042766114 -0.003669843 -0.0033031574
-0.00079422747 0.014989629 -0.01981946 -0.029500004 0.010789953 0.007221391 0.0021535342 -0.012949395
-0.00558318 0.0208977 0.0010940538 -0.0041797836 -0.0014476117 -0.001519117 0.0040334985 0.0077859033
0.0066575836 -0.022089968 -0.021231167 -0.0022723128 0.024326254 -0.0038672418 -0.018415099 -0.00046930846
0.0017182359 0.0053993985 0.017143037 -0.0037354229 0.00018716602 0.011892751 0.0017105336 -0.0060133175

action_model._discrete_distribution.branches.1.bias f4 [2]
00000000: 07f0 a1bb 01f0 a13b
-0.0049419436 0.004941941

action_model._discrete_distribution.branches.2.weight f4 [2, 128]
00000000: 0a66 f83b 8d4a 7c3c a845 e93a f3a2 573b
00000010: 7ba2 40bc f98e bf3b 3316 8ebb 81a8 e537
00000020: ad7c 3c3c 14a4 713a 1d13 aeba 26f1 0abb
00000030: 16eb a33b ead3 383b acac 02bc 1843 40bc
00000040: 02d4 c3ba f358 4abc 0f13 05bc cde0 9d39
00000050: 0dea 103b 42e6 dc3b f840 4cbc c283 10bc
00000060: b963 b93b 7ce9 483c 863d 0d3a ae71 283b
00000070: 7603 553c a8bf 5c3c 4dc6 8c3c 7375 e43b
00000080: 560c 1fbc e1ed 77bb 1566 8dbb 0b25 a6ba
00000090: 0bcf a7bc 18a3 d8bc 5186 153b 4698 cebb
000000a0: 75fa 293c d2fb 443c f175 40bc 3aa8 dcbb
000000b0: f4ff 36b9 edb1 343c b32a cc3b 1294 6cba
000000c0: c2c2 5d3b 777c ba3b cb99 49bb a25e 33bb
000000d0: e7de a83c 3623 943b 1aea afbb e01f 68bc
000000e0: aafe 093c 9cee 983b 2887 23bc 4fb9 aeba
000000f0: bea0 ea3a b0bc b739 001e 943b a165 d63b
00000100: 4847 943b 7bb3 0ebc caed 8a3b 7dcc a03b
00000110: 4855 b03c fbc6 43ba 4211 de3b 4a23 01bc
00000120: 83f1 52bc d6d1 1638 1822 983a 33a6 983b
00000130: 590e 103c 28dc 893c cd04 fbbb 1a5a 783b
00000140: 301c 4e3c fa24 9ebc da99 c23b 23df dbbb
00000150: 1829 eeba dfa8 dcbb c354 6dbb a1af 4f3c
00000160: 8eb6 3d3c eccc e73b 1cef 03bc 6e66 773b
00000170: 83fb 2b3c 268b f03b 6088 543c 6e16 553c
00000180: 0748 0d3c 6307 27bc f44d 983a 81ae 37bb
00000190: 02d6 383c 36eb 383b 83b3 5db9 b0a7 4f3c
000001a0: 46e9 3f3b 1e22 853b 85c8 ba3b c4cf 88bc
000001b0: 6760 0e3c 7ba5 3abc 277a 8cbb 3e7e e439
000001c0: 485c 95ba 7c72 65bc c2c1 5ebb 237e 1abc
000001d0: 2247 c43a 3c6e efbb 06bb 64bb fce2 e7bb
000001e0: 4ddd 963b aafe 3cbb b079 1dbc a871 063c
000001f0: 5b8e 473c b240 e7ba 42fc 30bb c5b8 e73b
00000200: 228a 76ba f943 183c 4b24 393b 4e32 3d3c
00000210: 6219 5ebc 29e6 ae3a 15f4 4d3c 23bd 12bb
00000220: 0c20 3d3b 944d a13c 642f ffb9 5bff 80bc
00000230: 7387 3f3c 7c8d cbbb 921c f6bb 56d0 d83b
00000240: 21ff 533c edf5 503c 5072 db39 4ec7 44bc
00000250: cc49 68b9 ca22 5739 72a1 d53a e1cf 54bc
00000260: 5b4c 0abb 7437 0e3a 7d20 f4ba a763 873b
00000270: fd39 69bb a5e9 86bb 94e8 b73b f029 b43b
00000280: 78cd d239 566f 5b3c 2f88 b03a d214 81bb
00000290: 27ad d3bb 8951 02ba 7f41 78bb b095 62bb
000002a0: de30 86bb f249 803b 6e6d fbbb 1ae0 56bc
000002b0: 6796 65bc b4b5 393b 4527 843c 0878 22bc
000002c0: 2574 8ebb e7bd 323c 9525 083c 4c36 50bb
000002d0: 37dd 5b3b 26b8 4abc 6afb 003c 9851 7cbb
000002e0: 5e56 b1bb 9a4b f8ba b450 0dba 8b08 aeba
000002f0: 8a00 9bba 52d7 8c3b 39f0 33bb 58b6 a4ba
00000300: 7645 8d3b 841e fa3b f8e7 6cbc 9213 5cba
00000310: 7948 f53a fe15 2bbc 2183 a93a 7a84 a2bb
00000320: 1cfc 65bb c9de 5f3c 331f 813c 1736 de3b
00000330: 3a96 933b 761f a03b 304e 04bc d396 c2bb
00000340: cd6e 45bb 5d63 e2bb af04 0abc dc76 873b
00000350: fc2e b33b 0bfe 8c3b 82bc 4a3c b2f6 58bc
00000360: e938 25bc e480 713c 9f3e 64bc cbc5 07bc
00000370: 9f1b 94bc 08c3 3e3c 0116 123c 51da 05bc
00000380: 5096 003c 563c c63b 0e47 3cbc da0e 503c
00000390: c496 29bc f693 d13b d181 10bc a499 563c
000003a0: 82f5 54bb 3c55 e2bb 5b41 273c 32bd 61bb
000003b0: 083d 003c bf0e 763c 4205 8d3c 8faf 433a
000003c0: 21f8 a7bb 38c8 813a faeb 783c 6659 49ba
000003d0: f380 9bbb ec79 55bb d11e eb3b a12f c03b
000003e0: ea40 15bc 8bf7 d5bb 55ee 473c 2939 803b
000003f0: 2618 54bc edf4 2cbb bb2f a93b 0988 7cbb
0.0075805234 0.015398634 0.0017797248 0.0032903522 -0.011757488 0.005845901 -0.0043361424 2.7377393e-05
0.011504334 0.000921787 -0.0013280843 -0.0021200865 0.0050023897 0.0028202482 -0.0079757385 -0.011734746
-0.0014940503 -0.012350309 -0.00812222 0.00030112863 0.0022112161 0.006741316 -0.012466662 -0.008820476
0.00565764 0.012262698 0.0005387891 0.0025702524 0.013001313 0.013473429 0.0171844 0.006972009
-0.009707531 -0.0037830996 -0.0043151476 -0.0012675835 -0.020484468 -0.026444957 0.0022815655 -0.0063047735
0.010374655 0.012022929 -0.011746869 -0.0067339214 -0.00017452223 0.011028749 0.006230676 -0.000902475
0.0033838009 0.005691107 -0.0030761834 -0.0027369638 0.0206141 0.004520799 -0.0053684833 -0.014167756
0.008422533 0.0046671163 -0.009980954 -0.0013330373 0.0017900688 0.00035045063 0.004520178 0.006542877
0.004525099 -0.008709784 0.0042397724 0.0049071894 0.02152504 -0.000746831 0.0067769596 -0.007881949
-0.012874964 3.595821e-05 0.001160684 0.0046584844 0.008792483 0.016828611 -0.0076604844 0.0037895502
0.012579963 -0.019304741 0.0059387507 -0.0067099496 -0.0018170206 -0.006733998 -0.0036213852 0.012676151
0.011579169 0.007073989 -0.008052614 0.0037750262 0.010496977 0.0073408065 0.012971967 0.013005836
0.00862313 -0.010194632 0.0011619912 -0.0028027596 0.011281492 0.0028216369 -0.00021143076 0.012674257
0.002928333 0.004062905 0.0057001733 -0.016700633 0.008689976 -0.011391993 -0.0042870226 0.00043581607
-0.00113953 -0.014004346 -0.003399 -0.009429487 0.0014974813 -0.007306842 -0.0034901514 -0.007076619
0.004604018 -0.0028838315 -0.009611532 0.008205809 0.012179936 -0.0017643182 -0.0027005826 0.007071587
-0.00094047387 0.00929355 0.0028250392 0.011547638 -0.013555856 0.001334374 0.012570401 -0.0022390566
0.0028858213 0.019690312 -0.000486727 -0.015746763 0.011690008 -0.0062119346 -0.00751073 0.0066166325
0.012939245 0.012753946 0.00041856105 -0.012010409 -0.00022152736 0.00020516958 0.0016298725 -0.012989015
-0.002110264 0.0005425133 -0.0018625405 0.0041317525 -0.0035587542 -0.004117208 0.0056124423 0.0054981634
0.00040207407 0.013393244 0.001346832 -0.0039392496 -0.0064598504 -0.0004971256 -0.0037880836 -0.0034574084
-0.004095181 0.003915065 -0.007672957 -0.013114953 -0.0140129095 0.0028337063 0.016132006 -0.009916313
-0.0043473416 0.010909534 0.0083097415 -0.0031770645 0.0033548602 -0.012373006 0.007872442 -0.0038500782
-0.005411907 -0.001894343 -0.0005390749 -0.0013277692 -0.0011825722 0.004298129 -0.0027456416 -0.001256655
0.004311259 0.0076330323 -0.014459603 -0.000839525 0.0018713615 -0.010442255 0.0012932756 -0.00495964
-0.0035092896 0.013663956 0.015761947 0.0067813504 0.0045039924 0.004886563 -0.008075282 -0.00593839
-0.0030125857 -0.0069088177 -0.008423968 0.004134042 0.0054682475 0.004302745 0.012374045 -0.0132424105
-0.010084369 0.014740203 -0.013930946 -0.008286904 -0.018079577 0.011643179 0.008916379 -0.0081697265
0.007848337 0.006049673 -0.01149155 0.012698853 -0.010350887 0.006395812 -0.008820013 0.013098154
-0.0032494967 -0.0069071334 0.010208453 -0.0034445045 0.007827051 0.015018164 0.017214421 0.000746482
-0.005126015 0.0009901589 0.01519298 -0.0007680863 -0.0047455966 -0.0032573892 0.0071753045 0.005865053
-0.009109715 -0.0065297536 0.012202819 0.003913064 -0.012945211 -0.0026391104 0.0051631606 -0.0038533232

action_model._discrete_distribution.branches.2.bias f4 [2]
00000000: d406 4cba d306 4c3a
-0.0007783 0.00077829993
