results/GoodAi_Test/BossAi/BossAi-144476.onnx (onnx, 79397 bytes, 9 tensors)

discrete_act_size_vector f4 [1, 2]
3.0 2.0
00000000: 0000 4040 0000 0040

network_body._body_endoder.seq_layers.0.weight f4 [128, 6]
-0.16478685 -0.41424862 -0.016390268 0.86804974 -0.050938457 0.70792156 -0.11012331 0.028551234
1.2029369 -0.34892675 0.5756297 -0.880036 0.22068746 0.33559746 -0.22404897 -0.17897822
-0.18295324 0.46567053 0.029616006 -0.5225844 -0.28617653 -0.69516766 -0.22555389 -0.50181997
0.9702319 -0.20921664 -0.055788174 0.76154035 0.088682234 0.11614438 0.2250128 0.31877387
-0.1981582 -0.081604786 -0.6472352 -0.26974434 -0.24969305 -0.018920487 -0.8354837 -0.05893412
0.41791245 0.3752024 0.3151427 -0.08048851 0.05119467 -0.492766 0.086411975 -0.06559058
0.6011581 -0.74009943 -0.44234583 0.29937726 -0.5186312 -0.5985227 -0.0060145278 0.6530125
0.9241654 -0.55743253 -0.1938981 -0.47767988 0.61760885 0.3388427 0.03825759 0.0682506
-0.33829042 -0.42700085 0.3330086 -0.49158302 -0.32311115 -0.18867928 0.25589305 -0.12673247
-0.10064988 0.63504404 -0.236541 -0.34935588 0.14396635 -0.2578177 -0.30544546 0.016553365
0.0059040096 -0.16240631 -0.14482588 -0.1383205 -0.105972394 0.3245114 0.12630415 0.38646895
-0.37996787 0.3509695 0.12956539 -0.52276313 0.4690254 -0.052921634 -0.51568395 0.020279707
0.032621242 -0.14572102 0.073164485 0.33106115 0.42737573 -0.55139744 -0.11750552 -0.05711136
1.0092669 -0.19615656 -0.0029564714 0.5874378 0.31119177 0.55515915 -0.22732279 0.3601901
-0.38877887 -0.29653743 0.4769282 -0.7103745 0.24706534 -0.542031 -0.0161431 0.4374448
-0.21955541 -0.24158937 -0.00065189105 0.72919244 0.19419001 0.31994587 0.7420368 0.09888774
-0.31440976 -0.11327304 0.9700798 -0.04010988 0.30931887 -0.69539434 0.48811877 -0.440831
0.6978742 -0.08871824 -0.5762514 -0.32289866 -0.029521473 -0.63696283 -0.82614696 0.22797835
0.35320348 -0.65488267 0.6303391 -0.1366813 0.25420377 -0.200204 0.20928197 -0.26867276
0.17314175 1.1307974 -0.0013918459 0.4953539 -0.4063209 -0.2690147 0.22711089 -0.6837481
-0.34959188 0.4296152 0.020968331 0.15646891 0.7437065 0.45908487 0.2204318 -0.30893776
0.416454 -0.19692601 -0.23011765 0.4269258 0.17157663 0.67589855 0.085977145 -0.04356034
0.23598593 0.137838 -0.32508075 -0.76184034 -0.42191043 -0.23022869 0.41335005 -0.45637572
0.19482133 -0.33047166 0.24668148 -0.73146576 -0.112716004 0.27486768 0.22564806 -0.015278985
0.16959545 -0.45079735 -0.42485273 0.7953718 -0.6910985 0.012408103 -0.5638382 -0.3594934
-0.3459399 0.5521661 0.30685797 0.0882494 0.49548993 -0.07538339 -0.1755964 -0.57479167
-0.071729496 -0.3068232 0.8206661 0.3597911 -1.0064185 0.6576435 0.45630342 -0.97047037
-0.09512606 -0.15690741 0.012390338 -0.37907082 0.72474307 -0.8849906 0.23811056 -0.3093185
-0.02402473 0.43717197 -0.30310124 0.63082224 0.24482958 -0.1456325 -0.45561364 0.026381923
-0.17246883 -0.3073179 -0.5435716 0.09026983 -0.27292007 0.06483042 -0.75537616 0.3629471
0.21184783 0.4706966 -0.14366059 0.18454325 0.048731778 0.094831936 -0.0028458494 -0.19787934
0.22729863 0.6202879 0.051227435 -0.20462789 -0.46180058 0.07531153 0.39868662 0.57793516
00000000: e2bd 28be 6518 d4be e244 86bc 8238 5e3f
00000010: d8a4 50bd 593a 353f 5488 e1bd 47e4 e93c
00000020: d6f9 993f 87a6 b2be 785c 133f 0a4a 61bf
00000030: e5fb 613e 6ed3 ab3e 186d 65be 1146 37be
00000040: 1858 3bbe 5e6c ee3e 449d f23c 17c8 05bf
00000050: bb85 92be 82f6 31bf 99f7 66be 4677 00bf
00000060: 1e61 783f e33c 56be 2482 64bd 4ff4 423f
00000070: 089f b53d 1bdd ed3d c169 663e 5436 a33e
00000080: fce9 4abe 6920 a7bd 35b1 25bf ee1b 8abe
00000090: 89af 7fbe 23ff 9abc 42e2 55bf e764 71bd
000000a0: 9ff8 d53e 871a c03e 625a a13e 29d7 a4bd
000000b0: 81b1 513d d34b fcbe c3f8 b03d 5b54 86bd
000000c0: 7fe5 193f 2877 3dbf 277b e2be fa47 993e
000000d0: 04c5 04bf c938 19bf 8415 c5bb d42b 273f
000000e0: 1b96 6c3f e6b3 0ebf 398d 46be 7592 f4be
000000f0: 9d1b 1e3f ca7c ad3e feb3 1c3d f8c6 8b3d
00000100: 6734 adbe db9f dabe 1a80 aa3e c5b0 fbbe
00000110: d36e a5be 2435 41be 6a04 833e 28c6 01be
00000120: 8621 cebd 3f92 223f ce37 72be c6de b2be
00000130: ea6b 133e ae00 84be 5963 9cbe ec9a 873c
00000140: 6c76 c13b d74d 26be 3c4d 14be e4a3 0dbe
00000150: 0e08 d9bd 5c26 a63e e055 013e 42df c53e
00000160: 268b c2be 46b2 b33e caac 043e ced3 05bf
00000170: 1924 f03e 5bc4 58bd dd03 04bf a121 a63c
00000180: da9d 053d e437 15be 43d7 953d d980 a93e
00000190: fed0 da3e 6228 0dbf bca6 f0bd 9aed 69bd
000001a0: a82f 813f 44dd 48be 5cc1 41bb 5362 163f
000001b0: 8754 9f3e e91e 0e3f 4ec7 68be d66a b83e
000001c0: 060e c7be c1d3 97be ef2f f43e 1adb 35bf
000001d0: b2fe 7c3e 8bc2 0abf 893e 84bc c4f8 df3e
000001e0: 22d3 60be 3463 77be abe3 2aba 5bac 3a3f
000001f0: bfd9 463e f2cf a33e 20f6 3d3f a885 ca3d
00000200: 51fa a0be b2fb e7bd 2657 783f 424a 24bd
00000210: 0b5f 9e3e 5d05 32bf b4ea f93e 9ab4 e1be
00000220: e2a7 323f e9b1 b5bd 3685 13bf f952 a5be
00000230: 04d7 f1bc ff0f 23bf 5e7e 53bf 2873 693e
00000240: 16d7 b43e 64a6 27bf e75d 213f 2ff6 0bbe
00000250: ff26 823e 4702 4dbe 034e 563e 7a8f 89be
00000260: 124c 313e f8bd 903f 996e b6ba 079f fd3e
00000270: 4b09 d0be 4bbc 89be c28f 683e 1e0a 2fbf
00000280: b5fd b2be 86f6 db3e c7c5 ab3c 6339 203e
00000290: 8d63 3e3f 2c0d eb3e e0b8 613e 172d 9ebe
000002a0: 7539 d53e f9a6 49be f6a3 6bbe 0596 da3e
000002b0: c9b1 2f3e b007 2d3f c914 b03d 546c 32bd
000002c0: 4ca6 713e 6825 0d3e fc70 a6be f807 43bf
000002d0: a504 d8be 12c1 6bbe 9ea2 d33e 14aa e9be
000002e0: 3e7f 473e 9533 a9be 129a 7c3e 5741 3bbf
000002f0: a6d7 e6bd 75bb 8c3e 4910 673e b554 7abc
00000300: 6eaa 2d3e e9ce e6be 4c86 d9be 7c9d 4b3f
00000310: d5eb 30bf 5b4b 4b3c b357 10bf 850f b8be
00000320: 091f b1be c25a 0d3f 7d1c 9d3e 1abc b43d
00000330: dbb0 fd3e 9b62 9abd 8bcf 33be 8c25 13bf
00000340: eae6 92bd ee17 9dbe 2c17 523f 8a36 b83e
00000350: 52d2 80bf 535b 283f 9aa0 e93e bf70 78bf
00000360: 74d1 c2bd 56ac 20be d800 4b3c 9215 c2be
00000370: c388 393f be8e 62bf 41d3 733e ff5e 9ebe
00000380: 83cf c4bc 01d5 df3e 1630 9bbe 917d 213f
00000390: 9bb4 7a3e b020 15be 3146 e9be e71e d83c
000003a0: ab9b 30be c658 9dbe 8227 0bbf 63df b83d
000003b0: 2ebc 8bbe d0c5 843d 5560 41bf 34d4 b93e
000003c0: a3ee 583e 25ff f03e c31b 13be e8f8 3c3e
000003d0: f99a 473d 3f37 c23d 6e81 3abb e2a0 4abe
000003e0: f9c0 683e 30cb 1e3f dcd3 513d f989 51be
000003f0: 2071 ecbe ee3c 9a3d a720 cc3e 8ff3 133f

network_body._body_endoder.seq_layers.0.bias f4 [128]
0.008527479 -0.00020598558 0.000336979 0.029767688 -0.000589243 -0.0070897904 -0.0017289588 -0.0016599844
-0.01483962 0.0003672244 -0.003749748 -0.0041293465 -0.02262591 0.02078969 0.0233135 -0.0027834198
0.013967651 0.015190883 -0.00066226715 -0.007519885 -0.0076379506 -0.010059277 -0.0037643737 -0.00862428
0.014211111 -0.0029688447 -0.0025322984 -0.008456312 0.017745823 -0.0043755756 0.0005349847 0.011707563
-0.033434078 -0.022896584 0.006312841 -0.02237676 0.021143008 -0.0028661203 -0.0024704512 0.00983903
-0.013549144 -0.007834181 0.040313154 -0.009710023 0.0068559893 -0.02198684 -0.00026313472 -0.0055662077
0.01496729 -0.013146569 -0.015087396 -0.002033147 0.0025024724 0.007417902 0.014555489 0.0057500317
-0.011580572 -0.0044048047 0.006041562 0.008515555 0.015588396 -0.020236393 0.008237363 0.011090751
-0.0035074824 -0.039587576 -0.0035783316 0.019682866 0.013489179 0.00775633 0.016445506 0.009444904
0.013888688 0.020109577 -0.003735942 -0.017743973 0.015300099 0.00014289656 0.013781599 -0.014473711
0.021747958 0.0043305224 -0.015415354 0.016841011 -0.012957488 0.002594102 -0.0049936483 0.010236281
0.011798026 0.026119623 -0.0021158385 -0.0012608978 0.002374565 -0.011816032 0.016698172 0.006297907
0.024156688 -0.004104472 0.006427443 -0.03227081 0.016077526 0.02611541 0.014264032 0.0173453
0.0025484695 0.0038011747 0.010724291 -0.0012577177 0.035381034 0.0007059056 0.0071274824 0.0004377113
0.007534913 -0.010877473 0.036021512 -0.0044667907 -0.006388143 0.009220135 0.044330224 -0.0033980832
0.010880102 0.0038460796 0.024141828 -0.020958848 0.014601112 -0.0014035582 0.024972202 0.005546523
00000000: d7b6 0b3c d5fd 57b9 8eac b039 5edb f33c
00000010: 6e77 1aba 7951 e8bb 3b9e e2ba d593 d9ba
00000020: e121 73bc 0688 c039 55be 75bb 784f 87bb
00000030: f959 b9bc 244f aa3c f4fb be3c 096a 36bb
00000040: 93d8 643c 2ee3 783c ff9b 2dba 5e69 f6bb
00000050: c647 fabb aacf 24bc b6b3 76bb da4c 0dbc
00000060: b8d5 683c f390 42bb ebf4 25bb 588c 0abc
00000070: b05f 913c fd60 8fbb 373e 0c3a 14d1 3f3c
00000080: 2cf2 08bd 9e91 bbbc f3db ce3b 784f b7bc
00000090: 1a34 ad3c 85d5 3bbb 4be7 21bb e233 213c
000000a0: 3bfd 5dbc f05a 00bc 681f 253d ca16 1fbc
000000b0: 35a8 e03b bf1d b4bc 58f5 89b9 bc64 b6bb
000000c0: 5d39 753c b564 57bc 2031 77bc 8c3e 05bb
000000d0: 8500 243b df11 f33b 257a 6e3c c36a bc3b
000000e0: 71bc 3dbc 2e56 90bb 4cf8 c53b d484 0b3c
000000f0: 7966 7f3c cbc6 a5bc 01f6 063c fbb5 353c
00000100: cadd 65bb 9526 22bd 7182 6abb f63d a13c
00000110: b801 5d3c d028 fe3b bab8 863c ccbe 1a3c
00000120: 618d 633c d7bc a43c b5d6 74bb cf5b 91bc
00000130: 44ad 7a3c 81d6 1539 37cc 613c 2523 6dbc
00000140: c628 b23c 0ee7 8d3b ae90 7cbc 29f6 893c
00000150: a54b 54bc cf01 2a3b c2a1 a3bb 13b6 273c
00000160: 824c 413c d2f8 d53c e1a9 0abb b644 a5ba
00000170: 979e 1b3b 0898 41bc 9bca 883c ac5e ce3b
00000180: 3fe4 c53c cf7e 86bb 4d9d d23b 662e 04bd
00000190: 04b5 833c fcef d53c b0b3 693c bb17 8e3c
000001a0: 3904 273b 211d 793b f0b4 2f3c 01da a4ba
000001b0: b4eb 103d 860c 393a a88d e93b 9e7c e539
000001c0: 6ee7 f63b 6e37 32bc 4b8b 133d 285e 92bb
000001d0: a153 d1bb 0d10 173c 9c93 353d 60b2 5ebb
000001e0: 7542 323c 820e 7c3b 15c5 c53c e4b1 abbc
000001f0: 8139 6f3c 99f7 b7ba 8192 cc3c 9bbf b53b

network_body._body_endoder.seq_layers.2.weight f4 [128, 128]
-0.030017674 -0.025801636 -0.02651525 -0.106600516 0.09167637 0.11011529 -0.04999128 0.07398447
0.16278215 -0.043511275 0.08462231 0.008691142 0.052230142 -0.0621673 -0.052347615 0.031810302
0.24985465 -0.05111876 -0.069833085 0.007985017 -0.015127631 -0.08657375 0.04568177 0.03446789
0.08844115 -0.02304723 0.08968798 0.042302504 -0.124739096 0.02151881 -0.040749684 0.106135555
-0.0926289 -0.034708682 -0.045924604 0.016503425 0.04401393 0.09914445 0.04950461 0.06037697
-0.05830209 0.04246992 -0.01066511 -0.10975723 -0.049936365 -0.08337373 -0.18050176 -0.08557049
0.08893601 0.11767577 -0.066249974 -0.1660726 0.09667684 0.009424276 0.08332865 -0.015278996
-0.10390731 -0.0058006886 -0.22230028 -0.0634569 0.17339517 0.1837935 -0.025473567 0.055988748
0.064385906 0.02668335 -0.07741878 -0.027905129 -0.033849973 0.027227348 0.08601808 0.09239168
0.027343648 -0.0700667 0.09332982 -0.16626184 -0.1501268 -0.20959689 0.09643652 0.1062459
0.00091778254 0.1401605 -0.03681302 -0.08686835 0.14917324 -0.049498502 0.054097783 0.04638714
0.048295796 -0.081444815 0.014642355 -0.21137963 0.15460946 0.18532012 -0.04571534 0.013978738
0.1382478 0.046654344 0.029282708 0.046727836 0.06256036 0.042473454 -0.04776377 0.16985093
0.13172278 0.003914514 0.0024562401 0.20669746 0.007744736 0.11393937 -0.055163097 -0.019125212
0.012715619 -0.055958316 0.028501105 0.00247613 0.08239218 -0.10450844 -0.0006575703 0.09975426
-0.07611031 -0.059999283 0.014182135 0.1208918 0.01849142 -0.09224883 0.023437705 0.00359473
-0.121108115 0.16572917 -0.07353854 0.19321729 -0.024068836 -0.1822187 0.021892855 0.0075941524
-0.086033136 0.04166662 -0.07642334 0.02788563 0.015003272 0.016184723 -0.008733943 0.02638661
-0.060693156 0.046561018 -0.15675868 -0.03734248 0.048566163 -0.01569071 0.051505003 0.11536931
-0.07132579 0.028892059 -0.046708692 0.11069911 0.03541287 -0.0034393521 -0.13852592 -0.08703168
-0.02666732 0.015732046 -0.021795407 0.054060187 -0.0058609415 -0.0753411 0.0051627406 0.025584713
0.035675153 -0.018107766 -0.15994169 -0.012585369 0.03792986 -0.03360408 0.055633895 -0.07713268
0.22571795 0.06353839 -0.0006215382 -0.042962205 -0.05599346 0.016101085 0.07899126 0.03323158
0.009409746 -0.13978294 -0.057197176 0.04037321 0.019353751 0.1657127 0.03125401 -0.051270824
-0.1309665 -0.12077419 -0.09405345 0.13146028 -0.10187736 0.018198283 0.023524446 0.083195925
-0.025295608 -0.008393046 0.03797666 -0.043111812 -0.06423232 0.14633015 -0.043638505 0.14998738
-0.10772053 0.14983232 0.059127737 0.13792968 -0.037544794 0.019276945 -0.08010399 0.015161518
-0.09612019 0.0751711 0.016277244 0.008425974 -0.018697351 0.018388472 -0.057798322 -0.053596977
-0.06174224 0.03307955 -0.016888885 -0.020429673 -0.090274595 -0.07488668 0.066317625 -0.2060846
0.060573988 0.015591887 -0.07119268 -0.014325258 0.049397413 -0.08262734 0.06354563 0.059515934
0.0042130384 -0.02155 -0.1022846 0.002276653 0.15243271 0.041885365 0.068143405 0.061452426
-0.055556152 0.072355226 -0.19661014 -0.08913777 0.020493217 0.13711226 0.028905978 0.033736277
00000000: a0e7 f5bc f45d d3bc 8236 d9bc 5f51 dabd
00000010: d2c0 bb3d 2084 e13d a8c3 4cbd 2b85 973d
00000020: 5db0 263e e138 32bd 764e ad3d 4b65 0e3c
00000030: 46ef 553d 24a3 7ebd 746a 56bd 854b 023d
00000040: e6d9 7f3e e861 51bd a604 8fbd 97d3 023c
00000050: e2d9 77bc 944d b1bd cf1c 3b3d 342e 0d3d
00000060: a220 b53d 8bcd bcbc 55ae b73d 6445 2d3d
00000070: 3677 ffbd 3748 b03c 24e9 26bd 995d d93d
00000080: 39b4 bdbd b12a 0ebd 701b 3cbd 3132 873c
00000090: f347 343d 3f0c cb3d 59c5 4a3d d74d 773d
000000a0: 2cce 6ebd f0f4 2d3d b7bc 2ebc 66c8 e0bd
000000b0: 138a 4cbd d9bf aabd 74d5 38be 953f afbd
000000c0: 1524 b63d feff f03d 11ae 87bd f00e 2abe
000000d0: 82fe c53d 4768 1a3c 36a8 aa3d c154 7abc
000000e0: 5bcd d4bd b413 bebb afa2 63be b1f5 81bd
000000f0: 818e 313e 5d34 3c3e f1ad d0bc 7554 653d
00000100: c2dc 833d 0a97 da3c bd8d 9ebd 4c99 e4bc
00000110: 45a6 0abd e30b df3c 3f2a b03d d937 bd3d
00000120: c9ff df3c 217f 8fbd b423 bf3d 8b40 2abe
00000130: d7ba 19be 91a0 56be 8380 c53d 7397 d93d
00000140: 5897 703a 3c86 0f3e 40c9 16bd 09e8 b1bd
00000150: dfc0 183e f1be 4abd a395 5d3d 7100 3e3d
00000160: d0d1 453d 8acc a6bd 7de6 6f3c e773 58be
00000170: f151 1e3e 8fc4 3d3e 0240 3bbd 1407 653c
00000180: d590 0d3e a018 3f3d 4ae2 ef3c b065 3f3d
00000190: a51f 803d a5f8 2d3d f1a3 43bd 67ed 2d3e
000001a0: 56e2 063e 5345 803b dff8 203b 80a8 533e
000001b0: 8ec7 fd3b 0b59 e93d b3f2 61bd 7aac 9cbc
000001c0: 2c55 503c 8c34 65bd 267b e93c 9146 223b
000001d0: 3bbd a83d 8508 d6bd cc60 2cba f64b cc3d
000001e0: b9df 9bbd cfc1 75bd 305c 683c 1f96 f73d
000001f0: 527b 973c f4ec bcbd 6e00 c03c 9095 6b3b
00000200: 8807 f8bd e8b4 293e 609b 96bd c1da 453e
00000210: 022c c5bc 8a97 3abe a558 b33c 5ed8 f83b
00000220: 2432 b0bd 9eaa 2a3d d783 9cbd 6870 e43c
00000230: 49d0 753c d395 843c d018 0fbc bb28 d83c
00000240: 6399 78bd c4b6 3e3d 5985 20be 6ef4 18bd
00000250: 50ed 463d ce89 80bc e9f6 523d bf46 ec3d
00000260: 4113 92bd 0aaf ec3c 9d51 3fbd 37b6 e23d
00000270: 160d 113d c166 61bb bdd9 0dbe aa3d b2bd
00000280: 6c75 dabc 7ee0 803c 488c b2bc 376e 5d3d
00000290: 240d c0bb 6f4c 9abd 352c a93b 0897 d13c
000002a0: 1c20 123d bd56 94bc c1c7 23be dd32 4ebc
000002b0: 575c 1b3d 6fa4 09bd 5ee0 633d bdf7 9dbd
000002c0: 9b22 673e 6a20 823d b9ee 22ba 23f9 2fbd
000002d0: 6659 65bd 6ce6 833c 2bc6 a13d d61d 083d
000002e0: 562b 1a3c 4223 0fbe 9647 6abd 615e 253d
000002f0: c28b 9e3c 97b0 293e 3404 003d 5b01 52bd
00000300: 151c 06be 7558 f7bd 189f c0bd 869d 063e
00000310: 14a5 d0bd 9114 953c 57b6 c03c a062 aa3d
00000320: bc38 cfbc fd82 09bc 6a8d 1b3d 0396 30bd
00000330: 3c8c 83bd 92d7 153e 4abe 32bd 4b96 193e
00000340: 959c dcbd a56d 193e ed2f 723d 703d 0d3e
00000350: 92c8 19bd afea 9d3c 900d a4bd 0468 783c
00000360: aada c4bd 4ef3 993d db57 853c 190d 0a3c
00000370: 302b 99bc 6ca3 963c efbd 6cbd 8188 5bbd
00000380: 6ee5 7cbd 6c7e 073d 8f5a 8abc 215c a7bc
00000390: e3e1 b8bd 305e 99bd 89d1 873d d707 53be
000003a0: 6e1c 783d 1d75 7f3c 78cd 91bd 7db4 6abc
000003b0: f154 4a3d 8638 a9bd 3624 823d fbc6 733d
000003c0: 870d 8a3b a089 b0bc 977a d1bd e633 153b
000003d0: 5217 1c3e fd8f 2b3d c58e 8b3d 8ab5 7b3d
000003e0: d98e 63bd fa2e 943d 2b54 49be dd8d b6bd
000003f0: 64e1 a73c 2867 0c3e 3bcc ec3c 0d2f 0a3d

network_body._body_endoder.seq_layers.2.bias f4 [128]
-0.020035764 0.01231706 -0.005896857 -0.015843706 0.0106487945 -0.009908679 -0.0064429864 0.0041925167
-0.0090758 0.017364033 0.0067156884 -0.007963009 -0.01407792 0.0048149754 -0.0038825246 0.0022534502
0.02420749 0.002606257 -0.009167048 -0.006426719 0.004810898 -0.0014965137 -0.0060189604 -0.0006594272
0.01132638 0.0029627518 0.006662494 -0.015777823 0.0040466436 0.015547606 -0.0121917995 0.01245579
-0.010011776 0.00063867564 0.012483939 -0.011235661 -0.0056843134 -0.0056164805 0.0089872405 0.009753097
-0.0107644275 0.004704031 -0.0026218556 0.06735022 0.010806103 0.0147596 0.0020563921 0.0036763577
-0.010009334 -0.0035721718 0.005690031 -0.017852392 -0.008100232 0.00838788 0.007573984 -0.0024059138
-0.006195009 0.0068841153 -0.008656129 -0.004523309 0.008408599 -0.010392981 0.02281021 -0.0023709717
0.0051603937 0.014437717 -0.0034850123 -0.0040650843 0.019257976 0.009822641 -0.0035817132 -0.014186424
-0.0024499781 0.021855501 0.009414757 -0.0004997955 -0.011374859 9.17481e-05 0.0050739967 0.0011082201
0.023803702 0.013403894 0.0037459002 -0.004775179 -0.010269846 -0.00069694314 0.014033537 0.0029419211
-0.0023666876 0.020745814 0.00094264816 0.0045874706 -0.004826065 0.014653208 0.002691121 -0.005428246
-0.0108263455 0.013506349 0.012912905 0.014731381 0.0060999095 0.011399846 -0.0016659724 -0.0012553597
-0.012141295 0.015316016 0.0010544085 0.00071681937 -0.0054987613 0.0029230309 -0.0065569333 -0.0058131632
-0.0004565986 -0.0011101624 -0.0045108646 -0.0038128027 0.021707866 0.011412667 -0.0017476771 -0.006819987
-0.009522384 -0.005186463 0.00874276 -0.0066855196 -0.0045220177 0.0012735773 -0.0070460807 0.0018265527
00000000: 0b22 a4bc 7ecd 493c 6c3a c1bb a9ca 81bc
00000010: 4878 2e3c 0358 22bc b01f d3bb 6161 893b
00000020: aab2 14bc 043f 8e3c 470f dc3b 4877 02bc
00000030: 13a7 66bc f1c6 9d3b f471 7ebb 9fae 133b
00000040: c94e c63c bdcd 2a3b 6331 16bc 3a97 d2bb
00000050: bda4 9d3b ab26 c4ba b33a c5bb 69dd 2cba
00000060: 4892 393c ba2a 423b 0d51 da3b 7e40 81bc
00000070: b599 843b 63bb 7e3c 1dc0 47bc 5f13 4c3c
00000080: 6f08 24bc cc6c 273a 6f89 4c3c c715 38bc
00000090: 7a43 babb 740a b8bb 383f 133c 74cb 1f3c
000000a0: 485d 30bc 4624 9a3b 70d3 2bbb eaee 893d
000000b0: 150c 313c 40d2 713c 89c4 063b 0cef 703b
000000c0: 31fe 23bc 191b 6abb 7173 ba3b 2e3f 92bc
000000d0: d6b6 04bc 526d 093c 2f2f f83b 89ac 1dbb
000000e0: 81ff cabb 2594 e13b 70d2 0dbc 4438 94bb
000000f0: 38c4 093c 5247 2abc 7adc ba3c 4e62 1bbb
00000100: 8518 a93b 2d8c 6c3c ce64 64bb 6634 85bb
00000110: e7c2 9d3c 24ef 203c 2dbb 6abb 2d6e 68bc
00000120: d08f 20bb 4f0a b33c 5a40 1a3c b504 03ba
00000130: 9e5d 3abc e368 c038 c543 a63b b241 913a
00000140: fbff c23c 029c 5b3c c77d 753b 1b79 9cbb
00000150: db42 28bc 10b3 36ba ecec 653c 3fcd 403b
00000160: 6e1a 1bbb 20f3 a93c 0c1c 773a 7e52 963b
00000170: f823 9ebb 0214 703c 855d 303b 6edf b1bb
00000180: fc60 31bc bc49 5d3c a690 533c e45b 713c
00000190: c0e1 c73b 6bc6 3a3c c25c daba e28a a4ba
000001a0: 48ec 46bc 07f0 7a3c 1434 8a3a efe8 3b3a
000001b0: f42e b4bb 5290 3f3b 8bdb d6bb 597c bebb
000001c0: a063 efb9 de82 91ba e0cf 93bb 37e0 79bb
000001d0: b2d4 b13c 32fc 3a3c 5012 e5ba 337a dfbb
000001e0: c603 1cbc 34f3 a9bb cb3d 0f3c 3412 dbbb
000001f0: 6f2d 94bb 2aee a63a cfe2 e6bb f068 ef3a

action_model._discrete_distribution.branches.0.weight f4 [3, 128]
0.014954584 -0.0056168647 0.0007503487 0.0021113544 -0.0011645197 -0.008586848 -0.0037114585 -0.019310994
-0.011263086 0.0027713652 -0.000602903 0.004404082 -0.0013639051 0.012752518 0.0007451217 -0.013653356
0.019712264 -0.0044603194 0.013336585 0.0005556527 -0.009649073 -0.0021511714 0.004675217 0.009865991
-0.0036169952 0.010663604 -0.0028539635 -0.011236552 0.0028897626 -0.005752912 0.006756712 -0.008340629
0.0041136015 0.0045558847 0.0064568967 0.00047659982 -0.0022647963 -0.0037366215 -0.011198218 0.020040639
-0.001943804 0.019736871 -0.007875998 -0.005292971 0.004789091 0.015651397 -0.0020720034 0.006159969
-0.007552654 -0.019071238 0.008269744 -0.006213519 0.0031338548 -0.008563468 -0.008704038 -0.0044972356
0.0025559303 -0.0059472853 -0.016465385 -0.0013442877 -0.0015709138 -0.007117472 0.00026106794 -0.007869015
-0.010413401 0.0011608525 -0.0127225565 -0.0024844236 -0.0073879133 0.01760688 0.0046260445 -0.0017786891
-0.0002010714 -0.009203551 -0.02126944 -0.008638993 0.009006545 -0.010367955 0.0028163532 -0.005832538
-0.0039335145 -0.009856688 0.0012017173 -0.012621841 0.00081498467 0.010652684 -0.008866658 -0.00046993088
-0.0018163152 -0.011407455 -0.018402273 -0.013346497 -0.0011178255 -0.004417196 -0.0024742112 0.0016082411
0.0071981363 -0.017778352 -0.016837576 0.0107693905 0.010803955 -0.013067456 0.002637658 0.00366533
0.02007378 0.012571449 0.006518861 0.013773071 -0.0016157926 -0.0011692871 -0.0065697837 0.014326263
0.013381734 -0.009223511 0.0032690414 -0.006152789 -0.018611003 0.0030540982 0.004025983 0.004250649
0.0053585307 0.009684953 -0.0017565475 -0.015193771 -0.0064830384 0.015056804 0.0076846667 0.008601429
0.008079373 -0.0016961148 -0.01205623 0.004983474 0.0030839138 0.011268742 -0.0016018662 -0.004270221
-0.010852128 -0.012884274 -0.008419438 -0.003911755 -0.010083987 0.010914545 0.0073654223 0.0052640736
-0.014516883 0.0029366266 -0.018904231 0.006086113 0.007970622 -0.00437669 0.004531109 -0.0017078427
0.0073468187 -0.0012551591 -0.0012738112 -0.006172937 -0.0040050372 0.012223861 -0.008683628 0.017339889
-0.013703352 -0.0095067555 -0.0017593167 -0.010365941 -0.009421974 0.0051995986 0.010689754 -0.0045381463
-0.0028250038 -0.01589284 -0.011180482 0.023662506 0.02249712 0.00023485356 0.0010987386 -0.00048184558
-0.0053187683 0.0053507844 0.01605797 0.0011375743 -0.0036001024 -0.011200261 0.008204224 -0.01006592
-0.008784045 0.006124759 0.0010495456 -0.0004848422 -0.010627808 0.02383346 -0.0044855108 0.002354384
-0.009939915 -0.0036712498 0.0022222253 0.012456668 -0.0023748642 0.011484996 -0.008647187 -0.014688515
-0.019467644 -0.0066201617 -0.012216607 -0.010332781 0.0007117945 -0.0033249909 -0.0010490831 0.007504366
0.009124768 0.007321593 -0.003842351 -0.006508667 -0.0030883313 0.010848434 0.007186404 0.005647537
0.010506519 -0.0071719126 0.005298674 -0.00018249093 -0.0044117863 -0.009129506 -0.0014791086 0.0060263188
-0.009911253 -0.00061512867 0.0027219797 0.002848265 0.0018454195 0.007958561 -0.012072309 0.012527024
-0.007969905 0.016331967 -0.0040166015 -0.012494195 0.011756337 0.013761511 -0.00467446 0.0027377615
-0.0030251779 6.5159875e-05 0.0041811746 0.0046931095 0.015449027 0.01614403 0.0028344349 -0.00081167143
-0.0028450033 -0.011425006 -0.009308289 -0.0112441145 -0.006736554 0.007150087 -0.018770495 0.009732269
00000000: 1204 753c ad0d b8bb 0db3 443a a65e 0a3b
00000010: cca2 98ba daaf 0cbc f13b 73bb 1732 9ebc
00000020: cf88 38bc cb9f 353b 230c 1eba 1e50 903b
00000030: 10c5 b2ba f0ef 503c 4554 433a 53b2 5fbc
00000040: 9d7b a13c df27 92bb b181 5a3c 39a9 113a
00000050: 2517 1ebc abfa 0cbb 9032 993b f7a4 213c
00000060: 1c0b 6dbb 66b6 2e3c 9009 3bbb 8419 38bc
00000070: 2c62 3d3b ec82 bcbb 6967 dd3b 22a7 08bc
00000080: 64cb 863b 8849 953b 6094 d33b 25e0 f939
00000090: fa6c 14bb 1be2 74bb bb78 37bc 442c a43c
000000a0: 3dc7 feba 38af a13c 540a 01bc a970 adbb
000000b0: cfed 9c3b 5c37 803c 73ca 07bb 91d9 c93b
000000c0: 417c f7bb 493b 9cbc d27d 073c c69a cbbb
000000d0: 5c61 4d3b ca4d 0cbc 629b 0ebc 8c5d 93bb
000000e0: 6581 273b 72e1 c2bb 6ae2 86bc cf32 b0ba
000000f0: 1fe7 cdba af39 e9bb f2df 8839 0bed 00bc
00000100: f89c 2abc bf27 983a 4572 50bc b6d1 22bb
00000110: 4f16 f2bb 4e3c 903c 1396 973b e722 e9ba
00000120: b1d6 52b9 7eca 16bc 403d aebc 908a 0dbc
00000130: 3090 133c 5bde 29bc 9192 383b e01e bfbb
00000140: b6e4 80bb f27d 21bc f182 9d3a d7cb 4ebc
00000150: b2a4 553a 9888 2e3c 7645 11bc 0e61 f6b9
00000160: 6d11 eeba 56e6 3abc 5dc0 96bc 44ab 5abc
00000170: 0084 92ba 20be 90bb 6026 22bb 9ecb d23a
00000180: 58de eb3b e8a3 91bc f5ee 89bc 1972 303c
00000190: 1203 313c e218 56bc 8fdc 2c3b 0836 703b
000001a0: c571 a43c 7bf8 4d3c 2b9c d53b 72a8 613c
000001b0: 01c9 d3ba c442 99ba 5747 d7bb b4b8 6a3c
000001c0: 0f3f 5b3c 361e 17bc 6a3d 563b 569d c9bb
000001d0: 1a76 98bc 4427 483b 65ec 833b 0749 8b3b
000001e0: 9d96 af3b a3ad 1e3c f43b e6ba 4bef 78bc
000001f0: ab6f d4bb d0b0 763c a8cf fb3b 02ed 0c3c
00000200: 595f 043c 2b50 deba 7e87 45bc 694c a33b
00000210: 7d1b 4a3b 88a0 383c b6f5 d1ba 36ed 8bbb
00000220: 20cd 31bc 9018 53bc aff1 09bc 2e2e 80bb
00000230: 4f37 25bc ebd2 323c a459 f13b 407e ac3b
00000240: 38d8 6dbc 6b74 403b 0cdd 9abc 046e c73b
00000250: 3697 023c 566a 8fbb b279 943b b1d9 dfba
00000260: 95bd f03b 2784 a4ba 03f6 a6ba 5946 cabb
00000270: b03c 83bb 9746 483c c745 0ebc 620c 8e3c
00000280: 0684 60bc 39c2 1bbc df98 e6ba e8d5 29bc
00000290: a05e 1abc 6561 aa3b 1424 2f3c bbb4 94bb
000002a0: b323 39bb b431 82bc 572e 37bc dfd7 c13c
000002b0: e14b b83c 0643 7639 8d03 903a 38a0 fcb9
000002c0: 1049 aebb a255 af3b 018c 833c a91a 953a
000002d0: b2ef 6bbb 4d81 37bc 026b 063c 87eb 24bc
000002e0: f5ea 0fbc 34b2 c83b e890 893a 6b32 feb9
000002f0: 4220 2ebc 633e c33c 31fb 92bb 024c 1a3b
00000300: 06db 22bc 5a99 70bb c1a2 113b 0d17 4c3c
00000310: 9ca3 1bbb 912b 3c3c eeac 0dbc 19a8 70bc
00000320: 9c7a 9fbc f1ed d8bb 2a28 48bc d34a 29bc
00000330: b897 3a3a 17e8 59bb 6381 89ba 2fe7 f53b
00000340: 0d80 153c f9e9 ef3b f4cf 7bbb a846 d5bb
00000350: 9a65 4abb a1bd 313c ed7b eb3b f90e b93b
00000360: 8923 2c3c 5d02 ebbb 80a0 ad3b 095b 3fb9
00000370: bf90 90bb ec93 15bc a6de c1ba 6d78 c53b
00000380: cf62 22bc 9640 21ba 3e63 323b f5a9 3a3b
00000390: 01e2 f13a a064 023c efca 45bc 263e 4d3c
000003a0: 3494 02bc 9eca 853c b29d 83bb 74b4 4cbc
000003b0: a79d 403c f677 613c 362c 99bb 046c 333b
000003c0: 1042 46bb 71a6 8838 3c02 893b a8c8 993b
000003d0: ea1d 7d3c 7c40 843c edc1 393b 59c6 54ba
000003e0: 3c73 3abb f32f 3bbc cb81 18bc 3c39 38bc
000003f0: 50be dcbb 474b ea3b 95c4 99bc 1874 1f3c

action_model._discrete_distribution.branches.0.bias f4 [3]
-0.0021818704 0.0022761682 0.00090311875
00000000: b6fd 0ebb c42b 153b 46bf 6c3a

action_model._discrete_distribution.branches.1.weight f4 [2, 128]
-0.0041922317 -0.01121885 0.004817025 0.008433552 -0.01467086 -0.005541073 0.0146751935 0.0120880855
-0.0006487777 0.013520229 0.009559584 0.0019241661 -0.005639629 0.005820032 -0.018290376 0.010332855
0.056986287 0.011418918 0.007188745 -0.0038026178 0.025343068 -0.0043750727 0.012757957 -0.004708765
-0.045367766 0.006226433 -0.016376961 0.0031493763 -0.013866851 -0.041134432 0.001714625 -0.008853234
0.006043066 0.0012323305 -0.011473793 -0.006836728 -0.010923092 0.01138031 0.015654072 0.026345562
-0.008974838 0.0030845238 0.0015488995 0.107942834 -0.0077838944 0.017724484 0.016394498 0.0021042945
3.4383502e-06 0.010157943 -0.014579789 -0.0058678593 -0.004626129 0.018670175 -0.025248563 0.00692873
-0.016501574 -0.010152128 0.0009943652 -0.006875719 -0.01269089 0.0058348062 -0.043740865 -0.010316006
0.023791054 -0.010904634 0.00866303 -0.010048436 0.018125571 0.018736718 -0.0056622326 -0.0032998207
0.002577516 0.011016017 -0.015917484 0.016141348 0.010535056 -0.019534107 -0.029690757 0.014042229
0.054238804 0.05083833 0.0034290273 -0.004796506 -0.014074588 0.029951243 -0.018322911 0.00737227
0.0018605307 -0.0016216852 -0.019723646 0.017561918 -0.0020866124 0.01645937 0.008022533 0.009740609
0.00043584572 -0.0112211285 0.010575627 0.030937057 -0.019279422 -0.0005600826 -0.019851077 0.006682783
0.0001359366 -0.011324524 -0.008558363 -0.014386723 -0.0043555996 -0.0056392057 -0.016574657 0.0013104918
-0.003135888 0.013267846 0.02078337 -0.0069939606 -0.024841025 -0.021294655 -0.012222255 0.0102964295
-0.009112424 -0.011434158 -0.019173827 0.00051023 0.013462287 -0.026645517 -0.0064034774 0.024430193
-0.0022770031 0.007852965 -0.010077528 -0.0023651002 0.0030412537 -0.0039488557 -0.016774599 0.0015722725
-0.0011562275 -0.008223601 0.015597991 0.008873206 0.011131597 0.0036106056 -0.0049636797 0.004723329
-0.055908546 -0.016507499 -0.006697328 0.011845514 -0.02730461 0.0056834742 -0.00886337 0.0052430187
0.049088836 -0.007548014 0.016186997 -0.0024504366 0.01894305 0.035130695 0.009854729 0.0095980195
0.015705902 0.014983174 0.051459804 -0.00228831 0.027526056 -0.0014273403 -0.013684486 -0.007442754
0.010206189 0.002230463 0.018421007 -0.09651025 -0.006031545 -0.012103224 -0.017071702 0.0072213127
0.013429927 -0.0008402484 0.0016026748 -0.0020717476 0.010671652 -0.0096069705 0.026364548 0.005718938
0.01979259 -0.004595021 0.0016375731 -0.004136856 0.016106082 -0.0047434736 0.046432897 -0.020010022
-0.026362559 0.036220543 0.008592695 -0.009658278 -0.010253244 -0.011299643 -0.009026136 3.6694564e-05
-0.00085251225 0.002460454 0.013941308 0.009118889 0.003964768 -0.005460169 0.011350199 -0.002000673
-0.035443187 -0.042966712 0.0075294324 -0.00040647082 0.005118683 0.0013123571 0.01866066 -0.007548729
-0.0077336184 0.012406062 0.021878513 -0.012935767 -0.018560575 -0.004197165 -0.014283355 -0.0042998963
0.000372239 0.016189335 -0.02006803 -0.03244963 0.013199511 0.0076040695 0.008871368 -0.013903547
-0.0099893855 0.024001425 -0.0003335033 -0.0036250588 -0.0009562576 -0.0026081358 0.012066732 0.0078120297
0.0065789795 -0.016210185 -0.020314164 -0.0026317257 0.025904201 -0.004767933 -0.013611806 -0.008470435
0.0064995387 0.008005565 0.018658092 -0.004605904 -0.0026229569 0.009235856 0.0024036996 -0.009928552
00000000: fd5e 89bb 44cf 37bc 22d8 9d3b e22c 0a3c
00000010: 0c5e 70bc e491 b5bb 3970 703c 1b0d 463c
00000020: bc12 2aba f383 5d3c cd9f 1c3c 4d34 fc3a
00000030: a3cc b8bb f8b5 be3b b3d5 95bc 234b 293c
00000040: 746a 693d 6a16 3b3c 908f eb3b 5735 79bb
00000050: 449c cf3c c55c 8fbb c006 513c fc4b 9abb
00000060: 8dd3 39bd 1b07 cc3b fa28 86bc c465 4e3b
00000070: ca31 63bc 947c 28bd 45bd e03a 280d 11bc
00000080: e904 c63b 2686 a13a 93fc 3bbc a206 e0bb
00000090: c5f6 32bc 7b74 3a3c f83c 803c a6d2 d73c
000000a0: 330b 13bc b925 4a3b 7104 cb3a 2211 dd3d
000000b0: 0a10 ffbb f032 913c c14d 863c 34e8 093b
000000c0: 68be 6636 806d 263c 11e0 6ebc 2c47 c0bb
000000d0: c896 97bb 32f2 983c 13d6 cebc 660a e33b
000000e0: 4f2e 87bc 1c55 26bc 5c55 823a b64d e1bb
000000f0: 73ed 4fbc e731 bf3b 9f29 33bd 7704 29bc
00000100: 75e5 c23c 5aa9 32bc 62ef 0d3c 32a2 24bc
00000110: 147c 943c bf7d 993c 408a b9bb ce41 58bb
00000120: 8beb 283b 867c 343c 6265 82bc dc3a 843c
00000130: 3a9b 2c3c fe05 a0bc 083a f3bc 6111 663c
00000140: 8229 5e3d da3b 503d 88b9 603b 022c 9dbb
00000150: 1a99 66bc 4f5c f53c ee19 96bc 1593 f13b
00000160: 0ddd f33a ba8e d4ba 7c93 a1bc 03de 8f3c
00000170: 8cbf 08bb cdd5 863c f170 033c 1397 1f3c
00000180: 3982 e439 d3d8 37bc 6545 2d3c b66f fd3c
00000190: e1ef 9dbc 82d2 12ba ba9e a2bc 3ffb da3b
000001a0: 348a 0e39 7f8a 39bc 6038 0cbc 4ab6 6bbc
000001b0: 6bb9 8ebb 16c9 b8bb 93c7 87bc cfc4 ab3a
000001c0: 7883 4dbb 6161 593c e341 aa3c 982d e5bb
000001d0: 687f cbbc 2172 aebc da3f 48bc 5bb2 283c
000001e0: 474c 15bc 5656 3bbc 6e12 9dbc f5c0 053a
000001f0: ed90 5c3c b347 dabc 43d4 d1bb d421 c83c
00000200: c639 15bb b9a9 003c 371c 25bc ccff 1abb
00000210: c54f 473b 6765 81bb e26a 89bc b614 ce3a
00000220: 8f8c 97ba 48bc 06bc b78e 7f3c ec60 113c
00000230: 4d61 363c e99f 6c3b 5da6 a2bb 28c6 9a3b
00000240: 5c00 65bd bc3a 87bc 4275 dbbb b013 423c
00000250: ebad dfbc 703c ba3b ab37 11bc a1cd ab3b
00000260: 6011 493d 5555 f7bb 989a 843c 8197 20bb
00000270: 752e 9b3c 34e5 0f3d bb75 213c 0341 1d3c
00000280: aaa9 803c fd7b 753c 84c7 523d 79f7 15bb
00000290: 537e e13c 9815 bbba e534 60bc 59e2 f3bb
000002a0: dc37 273c f62c 123b a7e7 963c 2aa7 c5bd
000002b0: 44a4 c5bb 9a4c 46bc f4d9 8bbc c3a0 ec3b
000002c0: 3209 5c3c 1e44 5cba d810 d23a 28c6 07bb
000002d0: 27d8 2e3c 8e66 1dbc 77fa d73c ee65 bb3b
000002e0: 1224 a23c d491 96bb d6a3 d63a 778e 87bb
000002f0: e7f0 833c 246f 9bbb 6c30 3e3d 0fec a3bc
00000300: 4bf6 d7bc fe5b 143d 60c8 0c3c c13d 1ebc
00000310: 39fd 27bc 2322 39bc 5ce2 13bc 7de8 1938
00000320: 217b 5fba 913f 213b 156a 643c 6567 153c
00000330: e2ea 813b 38eb b2bb 2ff6 393c b91d 03bb
00000340: e02c 11bd ddfd 2fbd 75b9 f63b 971b d5b9
00000350: a0ba a73b 6603 ac3a 3ede 983c 545b f7bb
00000360: 4b6a fdbb cc42 4b3c 913a b33c 8af0 53bc
00000370: 590c 98bc 5f88 89bb bc04 6abc 25e6 8cbb
00000380: 1329 c339 7f9f 843c b665 a4bc e7e9 04bd
00000390: c342 583c 8f2b f93b 3759 113c b4cb 63bc
000003a0: 85aa 23bc a39e c43c 0eda aeb9 6592 6dbb
000003b0: 5cad 7aba 42ed 2abb 8bb3 453c 0efc ff3b
000003c0: 7b94 d73b 39cb 84bc e469 a6bc 0879 2cbb
000003d0: 0c35 d43c 523c 9cbb 0d04 5fbc 94c7 0abc
000003e0: 15fa d43b c629 033c dbd8 983c 20ed 96bb
000003f0: eae5 2bbb fd51 173c 6387 1d3b 5eab 22bc

action_model._discrete_distribution.branches.1.bias f4 [2]
-0.0026856607 0.002685658
00000000: e901 30bb dd01 303b
