results/GoodAi_Test/BossAi/BossAi-114138.onnx (onnx, 78881 bytes, 9 tensors)

discrete_act_size_vector f4 [1, 2]
000000 00 00 00 40 00 00 00 40
       2.0 2.0

network_body._body_endoder.seq_layers.0.weight f4 [128, 6]
000000 6d 7c 28 be 52 56 d3 be 7d 5d 96 bc 5f 9f 5e 3f
       -0.16453715 -0.41276795 -0.018355126 0.8696193
000010 9b 7e 56 bd 10 88 35 3f 56 22 e2 bd ed d9 df 3c
       -0.052366834 0.7091074 -0.11041705 0.027325595
000020 f1 d2 99 3f 00 3a b3 be 67 5b 12 3f 4d 50 62 bf
       1.2017499 -0.35005188 0.5717072 -0.8840378
000030 61 bf 60 3e ae 7a aa 3e b3 4f 65 be 13 fb 39 be
       0.21948005 0.33296722 -0.22393684 -0.18162183
000040 75 52 38 be d5 80 ee 3e 70 e9 c2 3c d9 90 07 bf
       -0.18000205 0.46582666 0.023792952 -0.52955395
000050 2f 7f 95 be ba bc 33 bf 62 d9 60 be 79 2b 02 bf
       -0.29198596 -0.7020985 -0.21957925 -0.50847584
000060 2c f7 78 3f 36 d2 52 be 04 39 5a bd ba d4 43 3f
       0.97252154 -0.20588002 -0.05327703 0.7649647
000070 7f 52 bd 3d 04 91 e9 3d 88 47 6a 3e 78 d4 a5 3e
       0.092442505 0.11404613 0.2287885 0.32388663
000080 9a be 47 be 3b bd 9c bd 57 60 26 bf b7 eb 88 be
       -0.19506302 -0.0765328 -0.6499075 -0.26742336
000090 70 99 80 be 7b a8 a7 bc 58 d2 56 bf 12 b0 77 bd
       -0.25117064 -0.02046608 -0.8391471 -0.060470648
0000a0 e9 a2 d3 3e cc 61 bf 3e c5 01 a2 3e 14 40 a1 bd
       0.41335228 0.373793 0.31641975 -0.0787355
0000b0 56 bb 5c 3d c4 67 fb be bd f4 b3 3d 53 bf 85 bd
       0.053889595 -0.49102604 0.087869145 -0.06530633
0000c0 3b 4b 1a 3f d6 3a 3d bf 0f 51 e3 be 3b a2 99 3e
       0.6027104 -0.739179 -0.4439778 0.30006585
0000d0 46 a7 04 bf e8 4a 19 bf dc ec 93 bb 84 ea 27 3f
       -0.5181774 -0.5987992 -0.00451432 0.6559222
0000e0 38 cb 6c 3f b9 eb 0d bf 55 98 4a be b1 e6 f3 be
       0.9249759 -0.5543781 -0.19784673 -0.4763694
0000f0 27 2a 1e 3f 8d d6 ad 3e 30 7d 14 3d ce 3d 8d 3d
       0.6178307 0.33952752 0.0362522 0.06896554
000100 56 6f af be d6 88 db be b4 a5 aa 3e 85 3c fb be
       -0.3426463 -0.42877835 0.33329546 -0.4906961
000110 92 fc a4 be 4e 64 40 be a3 73 85 3e 66 f9 01 be
       -0.32223946 -0.18788263 0.26064786 -0.12692794
000120 e8 42 c8 bd f9 fd 23 3f f9 aa 70 be d0 03 b0 be
       -0.09778386 0.64059407 -0.23502721 -0.3437791
000130 97 8b 1c 3e 22 4b 85 be 92 d9 9d be ea a2 5d 3c
       0.15287624 -0.26033884 -0.30830055 0.013527611
000140 e8 8d 56 3b e0 60 29 be d3 3b 12 be 06 4e 19 be
       0.0032738391 -0.16540861 -0.14280634 -0.1497117
000150 63 cd db bd cb bd a4 3e 91 89 fe 3d b9 7f c4 3e
       -0.10732534 0.3217605 0.124285825 0.38378695
000160 1d 38 c3 be eb 98 b2 3e 73 a4 05 3e dd f2 04 bf
       -0.3812875 0.34882292 0.13051014 -0.5193308
000170 5b 75 f0 3e 45 f0 4a bd 4a e4 04 bf 85 52 bc 3c
       0.46964535 -0.049545545 -0.5191084 0.022988567
000180 b9 9a 06 3d c8 bf 15 be 79 35 99 3d a5 36 a9 3e
       0.0328624 -0.1462394 0.07480902 0.33049503
000190 eb 4b db 3e 19 9f 0c bf ec 86 ed bd d3 11 61 bd
       0.42831358 -0.54930264 -0.11598 -0.05494864
0001a0 c2 37 81 3f 02 97 46 be 14 db bf bb e5 0a 17 3f
       1.0095141 -0.19393542 -0.0058549736 0.59001
0001b0 d0 2e 9f 3e 93 d1 0d 3f 3d 39 67 be 7b c9 b7 3e
       0.31090403 0.5539791 -0.22580428 0.35895905
0001c0 52 df c5 be 56 2d 97 be 4c 36 f4 3e 58 47 36 bf
       -0.38646942 -0.29526776 0.47697675 -0.7120261
0001d0 94 69 7d 3e d7 35 0b bf 9b 70 5d bc 71 63 e0 3e
       0.24747306 -0.5437903 -0.013515617 0.43825868
0001e0 57 1f 61 be e1 e9 7a be a2 e4 eb b9 f1 d2 39 3f
       -0.21984611 -0.2450328 -0.00044993038 0.72587496
0001f0 48 b3 47 3e 62 5a a2 3e 27 d5 3d 3f 1b 6a c8 3d
       0.19501984 0.31709582 0.7415337 0.09785863
000200 13 2d a0 be d1 2e eb bd 4d 2d 79 3f b5 5b 21 bd
       -0.3128439 -0.11483539 0.9733475 -0.0393941
000210 4d 92 9f 3e 03 4a 31 bf 3a 31 fb 3e 15 3c e0 be
       0.31166306 -0.6925356 0.49060994 -0.4379584
000220 25 07 32 3f ac 41 b2 bd 39 72 14 bf 48 85 a6 be
       0.6954215 -0.08703932 -0.5798679 -0.3252356
000230 38 36 08 bd 92 a7 23 bf 2b 1d 53 bf e9 76 67 3e
       -0.033254832 -0.63927567 -0.8246638 0.22603954
000240 f1 98 b5 3e 40 1b 27 bf 90 cf 21 3f f6 d9 09 be
       0.35468248 -0.65275955 0.6320734 -0.13462052
000250 0c f1 81 3e c2 b0 4a be 6d 50 57 3e ba 95 88 be
       0.25379217 -0.1979399 0.21026774 -0.26676732
000260 d4 aa 31 3e 3e fe 90 3f 29 e0 85 bb 61 7f fd 3e
       0.17350322 1.1327589 -0.00408556 0.49511245
000270 7a 19 ce be c1 2c 88 be dd 65 6b 3e 2e 42 2e bf
       -0.40253812 -0.26596645 0.22988077 -0.6806973
000280 1a a9 b4 be 84 14 dd 3e ff 4a ba 3c 85 c4 23 3e
       -0.35285264 0.43179715 0.022740839 0.15992935
000290 39 29 3f 3f c9 de ec 3e a8 6f 5e 3e ea b5 9c be
       0.74672276 0.46263722 0.21722281 -0.3060754
0002a0 fb 66 d4 3e c0 60 4e be c6 f5 6b be e7 39 d8 3e
       0.41484818 -0.20154095 -0.23042974 0.42231676
0002b0 42 35 35 3e f8 90 2c 3f 07 61 ae 3d 77 25 32 bd
       0.17696097 0.67408705 0.085146 -0.04349276
0002c0 ef fa 72 3e a8 0e 0d 3e 33 bf a6 be f1 f2 42 bf
       0.23728536 0.13775122 -0.32567748 -0.7615195
0002d0 c4 c9 d6 be 66 8d 6a be fb 0e d4 3e f2 17 e9 be
       -0.4195081 -0.22905502 0.4141768 -0.4552608
0002e0 ef bb 41 3e 20 63 ac be f8 2c 7b 3e 97 48 3b bf
       0.18919347 -0.33669376 0.24528873 -0.7315764
0002f0 15 d2 e7 bd 46 7e 8c 3e 5f d6 6d 3e 98 51 58 bc
       -0.11319367 0.2744009 0.23226307 -0.013203047
000300 47 ec 31 3e 55 87 e3 be a5 85 d7 be 92 3d 4d 3f
       0.17375289 -0.44439188 -0.4209415 0.80172074
000310 f9 d5 32 bf ec 86 91 3c 1f b9 10 bf 90 98 b9 be
       -0.69857746 0.017764531 -0.5653247 -0.36249208
000320 67 5d b4 be 3b 98 0c 3f 25 ff 9c 3e 03 9f b6 3d
       -0.3522751 0.54919785 0.3066341 0.08917048
000330 c0 24 fd 3e ba 8c 9c bd 86 d3 32 be ab 76 13 bf
       0.494421 -0.07644029 -0.17463502 -0.5760295
000340 80 d3 84 bd d0 89 9e be 78 fe 52 3f df 0b bb 3e
       -0.06485653 -0.30964518 0.8241954 0.36532494
000350 e0 71 80 bf 55 c6 29 3f c9 47 e9 3e ab 36 77 bf
       -1.0034752 0.66318256 0.4556258 -0.9656779
000360 af b0 c6 bd b9 aa 22 be 11 f5 54 3c 53 13 c3 be
       -0.097016685 -0.15885438 0.0129978815 -0.3810068
000370 2c 0a 39 3f d2 2b 63 bf 18 e3 73 3e de 39 9f be
       0.72281146 -0.8873874 0.23817098 -0.31098837
000380 16 59 bd bc d8 f1 de 3e 18 be 99 be c4 85 21 3f
       -0.023113769 0.43543887 -0.30027843 0.63094735
000390 03 dd 75 3e 0f ec 19 be 76 21 ec be 6d 64 b1 3c
       0.2401009 -0.15031455 -0.4611928 0.021654332
0003a0 2a ab 2d be b9 68 9e be 42 76 0c bf f1 b7 ae 3d
       -0.16959825 -0.30939272 -0.5486795 0.08531178
0003b0 a8 15 8e be ad 30 75 3d 33 10 40 bf 11 4f b7 3e
       -0.27750897 0.059860874 -0.7502472 0.3580251
0003c0 95 b7 57 3e 50 5b ef 3e 16 2d 13 be 3a a2 39 3e
       0.21066125 0.46749353 -0.14372668 0.18128291
0003d0 b8 32 55 3d 60 eb c3 3d ef 52 29 bb 4c 04 4a be
       0.052050322 0.095663786 -0.0025836786 -0.19728202
0003e0 87 2a 69 3e c4 e7 1e 3f 5e 38 5f 3d 6f 81 50 be
       0.22770129 0.62072396 0.054497115 -0.20361875
0003f0 7c 48 ec be e6 c6 9d 3d 75 a4 cb 3e 23 66 14 3f
       -0.4614905 0.077039525 0.39773908 0.5796835

network_body._body_endoder.seq_layers.0.bias f4 [128]
000000 96 74 25 3c ae 51 ae ba 0e df 16 bb b9 3b bb 3c
       0.010098597 -0.0013299489 -0.0023021135 0.022855626
000010 02 9d 39 3b a9 1f 04 bb 26 69 55 bb 90 1e af 38
       0.0028322344 -0.0020160472 -0.0032563894 8.350343e-05
000020 c2 c7 67 bc 13 21 60 3b c8 fa 46 bb 15 73 5b bb
       -0.014146747 0.0034199401 -0.003036188 -0.0033485342
000030 f6 c2 8b bc 5c b5 91 3c e5 02 a9 3c 07 a7 1a 3a
       -0.017060738 0.017786674 0.020631263 0.0005899523
000040 ab 99 5b 3c 60 a0 8e 3c 80 da f7 ba fb fe 17 bc
       0.0134033365 0.017410457 -0.0018909723 -0.009277101
000050 6a 64 33 bc 48 5d 3e bc 5e 2d 69 ba 32 4c 33 bc
       -0.010949234 -0.01161892 -0.0008895005 -0.010943459
000060 03 48 85 3c e9 66 84 ba d2 48 07 3a 20 a9 a0 bb
       0.01626969 -0.001010147 0.00051606924 -0.004902974
000070 aa 40 57 3c e0 38 92 bb d6 13 d7 3a 99 49 38 3c
       0.013137976 -0.0044623464 0.001640911 0.011248016
000080 51 e0 dd bc f3 ef d2 bc 99 4f a6 3b ef fa 89 bc
       -0.027084501 -0.025749182 0.0050754067 -0.016843287
000090 92 53 9d 3c 99 91 96 bb e9 58 ec bb 5f 6a 9f 3b
       0.019204888 -0.0045949933 -0.0072127474 0.0048649753
0000a0 62 ad 89 bc 05 98 f2 bb f1 4a 2c 3d 17 68 d8 bb
       -0.016806308 -0.007403376 0.042063657 -0.0066042054
0000b0 87 5d 13 3c a2 dc ab bc d0 7a ef 3b 34 0c 1b bc
       0.008994467 -0.02097923 0.0073083416 -0.009463359
0000c0 07 a9 4b 3c d8 0b 69 bc 80 9e 63 bc 30 cd 50 b7
       0.012430436 -0.014224015 -0.01389277 -1.244554e-05
0000d0 c9 9d 93 3b d7 32 e2 3b 8b f1 4b 3c ae f1 11 3c
       0.0045048934 0.0069030332 0.012447725 0.008907719
0000e0 68 ca 8c bc 43 0d 64 bb 18 c0 e2 ba f7 0a 0e 3c
       -0.017186359 -0.0034797944 -0.001729968 0.008669606
0000f0 f2 2b 7e 3c 36 97 84 bc cb 15 0e 3c c2 4a 34 3c
       0.015513407 -0.016185384 0.008672188 0.011004152
000100 26 20 1a bc d5 b2 10 bd 06 50 e4 ba df 0c a3 3c
       -0.009407079 -0.035326798 -0.0017418868 0.019903598
000110 58 f1 66 3c 1b 8e 13 3c 9f 18 8e 3c 2d 09 1e 3c
       0.014095627 0.009006049 0.017345725 0.009645742
000120 5b 74 37 3c 12 be ac 3c aa 43 f1 b9 6f f2 8b bc
       0.011197175 0.021086726 -0.00046017516 -0.017083375
000130 27 af 8e 3c df 34 2b bc a3 fa 19 3c e8 c2 71 bc
       0.017417504 -0.010449617 0.009398135 -0.014755942
000140 48 f0 a4 3c 22 84 40 3a b0 b2 b2 bc fe ca 77 3c
       0.020134106 0.0007343908 -0.02181372 0.015124081
000150 d4 45 83 bc 22 a7 ff 3a 6c 51 fd bb c6 32 46 3c
       -0.016024508 0.0019504766 -0.0077306535 0.012097066
000160 d3 12 fd 3b ee 07 c1 3c 4e 12 3d bb cf c8 14 3b
       0.0077231913 0.023563351 -0.0028850022 0.00227027
000170 3d 32 b8 ba 18 82 81 bc 90 c7 5e 3c d3 a6 66 3b
       -0.0014053058 -0.015809104 0.013597384 0.003519465
000180 e1 9e bd 3c 46 72 65 3b d0 f0 cd 3b 8a 64 d7 bc
       0.023147048 0.003501074 0.0062848106 -0.026293058
000190 3a 53 4c 3c 8c f0 bd 3c e5 fe 4d 3c 52 24 81 3c
       0.012471015 0.02318599 0.012572979 0.01576439
0001a0 a1 06 25 3b 45 7c 9d 3b c3 fd 5a 3c a1 c0 90 3b
       0.0025180953 0.004806074 0.013366166 0.0044174944
0001b0 c8 d5 ff 3c 6c 7a dc 3a 64 46 23 3a a4 52 50 3b
       0.031229869 0.0016821153 0.00062284456 0.003178754
0001c0 23 30 81 3b 51 b8 4c bc ed 70 d8 3c 96 37 b2 bb
       0.003942506 -0.012495116 0.026421035 -0.0054387553
0001d0 71 0c 55 bb 2f ff 13 3c a3 3c 35 3d 54 89 96 bb
       -0.0032508636 0.0090330085 0.04424728 -0.0045940075
0001e0 88 45 11 3c 7c c2 51 3b 74 28 c4 3c 01 8a 3f bc
       0.008866675 0.003200679 0.02394507 -0.011690618
0001f0 33 1e 51 3c 46 bf 9a bb 8c df c8 3c 96 26 b5 3b
       0.012763548 -0.0047225086 0.024520658 0.0055282814

network_body._body_endoder.seq_layers.2.weight f4 [128, 128]
000000 fe a2 04 bd 64 25 cb bc c7 df d6 bc 81 97 e5 bd
       -0.032382004 -0.024798103 -0.026229752 -0.11210538
000010 95 9a bf 3d 97 33 ea 3d 74 b2 2e bd 4d 95 9a 3d
       0.09355656 0.11435621 -0.042650655 0.07548008
000020 70 f1 28 3e 1f 53 2e bd df fc b1 3d 88 79 03 3c
       0.16498351 -0.04255974 0.086908095 0.008024581
000030 2d d5 3f 3d c4 f9 82 bd ca df 55 bd 0c 0e 04 3d
       0.04683416 -0.06395295 -0.052215375 0.03223996
000040 e0 4e 81 3e ad 6a 50 bd 7a 83 85 bd 9d 6a ff 3b
       0.2525549 -0.050882984 -0.06519218 0.0077946917
000050 e9 b4 76 bc 1f 9b a9 bd be 51 3d 3d 47 f8 00 3d
       -0.015057781 -0.0828154 0.046220534 0.031486776
000060 0f b3 b6 3d 0f 7e b7 bc c3 af bd 3d 00 46 31 3d
       0.089208715 -0.022398977 0.092620395 0.043279648
000070 08 46 fb bd 18 b8 c3 3c 75 6d 25 bd 3a 13 d8 3d
       -0.12269217 0.023891494 -0.04038759 0.10550542
000080 ae 93 c5 bd 29 35 05 bd ba 6e 2d bd f1 ae ac 3c
       -0.09647308 -0.0325214 -0.042341925 0.021079512
000090 5f 0d 26 3d 82 3f ca 3d ab f4 46 3d 6b 1f 74 3d
       0.040540095 0.098753944 0.048573177 0.059600275
0000a0 c5 7c 61 bd fc 13 33 3d af ac 26 bc da 43 db bd
       -0.05505063 0.04372023 -0.010173007 -0.10706301
0000b0 32 1d 4a bd a8 0d a7 bd 49 fe 3c be dd 40 aa bd
       -0.04934425 -0.081569016 -0.18456377 -0.08313153
0000c0 3d e9 b4 3d 5f 4e f2 3d d1 3c 82 bd da b5 2e be
       0.08833549 0.11831354 -0.06359256 -0.17061558
0000d0 63 33 c1 3d cf ce 2d 3c ef a3 b0 3d 0e e9 76 bc
       0.09433629 0.010608389 0.08625018 -0.015070213
0000e0 85 b5 de bd 06 6b 05 ba 33 91 63 be 58 5f 80 bd
       -0.10874466 -0.0005089495 -0.22223358 -0.062681854
0000f0 09 21 32 3e c7 49 39 3e 6d dd c2 bc 7c 0a 6f 3d
       0.17395414 0.1809455 -0.023787225 0.058359608
000100 f6 72 83 3d 0c 2f ab 3c 80 91 9d bd 32 23 d3 bc
       0.064184114 0.020896457 -0.076937675 -0.025773618
000110 95 d1 fb bc 04 58 e6 3c f4 a4 b1 3d b5 02 be 3d
       -0.030739585 0.028118141 0.086740404 0.0927786
000120 2c 79 c0 3c 8b a6 8d bd b4 2c c1 3d 9f 3f 2c be
       0.02349528 -0.06916531 0.094323546 -0.16821145
000130 12 0f 18 be 15 57 59 be 7e 44 d2 3d fc fa dd 3d
       -0.14849499 -0.21224625 0.1026697 0.10838887
000140 6a 74 16 3c ad 48 0d 3e e3 6f 0f bd ba 04 b0 bd
       0.009183029 0.13797255 -0.035018813 -0.085946515
000150 f3 fa 17 3e 25 13 50 bd df 4b 57 3d 2a cf 4b 3d
       0.14841823 -0.050799508 0.05256259 0.049758114
000160 e9 22 4f 3d 6f 1f a2 bd f4 4c 52 3c 28 71 57 be
       0.050570402 -0.07916152 0.01283573 -0.2103926
000170 8d 9a 20 3e 71 67 3b 3e 20 97 4b bd 42 a7 64 3c
       0.15683956 0.18301179 -0.04970467 0.013955893
000180 5b 73 0e 3e ff 61 3c 3d 34 d8 dd 3c 96 07 2b 3d
       0.13911192 0.045991894 0.027080633 0.04175528
000190 86 d7 7d 3d ea a1 2d 3d 01 1f 42 bd 10 1d 2e 3e
       0.061973117 0.04239074 -0.04739285 0.17003274
0001a0 5a 4a 07 3e dc 3f 63 3b 65 7d 12 3b 3c 02 56 3e
       0.13211957 0.0034675514 0.0022352573 0.2089929
0001b0 9a 61 00 3c 23 50 ea 3d 96 f4 70 bd 5f 90 af bc
       0.00783577 0.11441066 -0.058827005 -0.021431146
0001c0 96 24 5f 3c 1a 21 69 bd 3c 23 ea 3c 2e a1 d4 3b
       0.013619563 -0.056916334 0.028581254 0.0064889407
0001d0 57 12 a4 3d 16 79 de bd 85 d3 7c bb f2 51 ca 3d
       0.080113105 -0.10862939 -0.0038578224 0.09878911
0001e0 fc 83 9e bd 0d be 78 bd c3 77 6a 3c e7 77 f4 3d
       -0.07740018 -0.06072812 0.01431078 0.11936932
0001f0 8d 52 8d 3c 8b 6c b8 bd 4d a9 9a 3c 29 84 ae 3b
       0.017251277 -0.09005078 0.018879557 0.0053258133
000200 70 b1 fd bd 51 f2 29 3e ab c1 99 bd 83 ba 3f 3e
       -0.12387359 0.16596343 -0.07507642 0.18723492
000210 db 35 be bc ea 59 34 be 6b 93 c2 3c ab d0 00 3c
       -0.02321904 -0.17612424 0.023751935 0.00786225
000220 2f 92 a2 bd 0a 09 2d 3d 62 3c 99 bd 4e e0 c4 3c
       -0.079380386 0.04224495 -0.0748222 0.024032738
000230 b3 36 1e 3c 37 71 36 3c f6 11 0b bc ad d4 da 3c
       0.009656596 0.011135391 -0.008488169 0.02671274
000240 4f cb 72 bd fe ed 3c 3d 6b 70 1c be 7f fe 1b bd
       -0.05927592 0.046125405 -0.15277259 -0.038084503
000250 24 2f 45 3d ea b9 7a bc 48 f4 51 3d 25 50 ed 3d
       0.04814066 -0.015303114 0.051258355 0.11587552
000260 60 b9 91 bd 88 73 ed 3c b9 bc 2e bd 89 d3 e3 3d
       -0.071154356 0.028985754 -0.04266045 0.111243315
000270 81 57 0c 3d c3 12 c9 ba e5 5c 0b be 11 c3 ae bd
       0.034263138 -0.0015340674 -0.13609655 -0.085333
000280 a9 8e ce bc 0c bb 45 3c b0 cf 8f bc 48 5f 7c 3d
       -0.02521451 0.012068521 -0.017555088 0.061614305
000290 99 96 1c bc 10 b0 9b bd b0 31 52 3a e0 58 fe 3c
       -0.00955739 -0.07601941 0.0008018268 0.031048238
0002a0 d9 d2 15 3d 92 d9 8d bc 93 1c 24 be c8 f4 52 bc
       0.036578033 -0.01731566 -0.16026525 -0.012875743
0002b0 b2 82 1c 3d e0 b8 06 bd 33 cb 72 3d 30 70 a0 bd
       0.03821058 -0.032891154 0.059275817 -0.07833898
0002c0 0a 3d 66 3e cd 0d 83 3d 7a a2 97 39 b4 c6 31 bd
       0.22484222 0.06399117 0.0002892202 -0.04340239
0002d0 85 b6 63 bd b1 fb 8a 3c 8f 90 a7 3d 3f 39 07 3d
       -0.055593986 0.016965719 0.08181869 0.03301358
0002e0 a3 21 5b 3c 26 24 0b be 7e 44 7b bd d2 a7 27 3d
       0.013374719 -0.13588008 -0.061344616 0.04093153
0002f0 b4 27 a1 3c 1b d9 24 3e 33 d8 f5 3c 40 eb 4a bd
       0.019672252 0.16098444 0.030010318 -0.049540758
000300 1b 1f 04 be 34 6e 01 be b3 01 c0 bd 79 97 07 3e
       -0.12902491 -0.12639695 -0.09375324 0.13241376
000310 52 bf ca bd 68 87 93 3c 86 ad be 3c e3 3b a9 3d
       -0.09899773 0.018008903 0.023276102 0.082633756
000320 cc 06 d0 bc 7f 08 00 bc 84 fd 1d 3d 07 c3 34 bd
       -0.025393866 -0.007814526 0.03857185 -0.044131305
000330 82 6e 81 bd 12 17 12 3e ef 97 3c bd 92 53 1d 3e
       -0.06319906 0.14266613 -0.046043333 0.15363911
000340 3a 47 d3 bd 56 db 18 3e 0a 90 5a 3d f4 d4 0d 3e
       -0.1031632 0.1492742 0.053360023 0.13850766
000350 66 bc 2a bd cd b1 99 3c 01 3e aa bd 67 1f 47 3c
       -0.041683577 0.01876154 -0.083126076 0.012153483
000360 f0 2a c5 bd dd 54 9a 3d 78 74 a2 3c 96 4b 17 3c
       -0.0962733 0.07535718 0.019830927 0.00923433
000370 6f 9a 8d bc 69 b9 88 3c f9 3e 77 bd 29 73 5d bd
       -0.017285554 0.016689973 -0.06036279 -0.054064903
000380 b2 e3 7a bd 96 32 18 3d 22 0b 98 bc cd f6 a8 bc
       -0.061252303 0.037157618 -0.018559996 -0.020625496
000390 c7 bf b8 bd 74 2b 98 bd db bc 85 3d b1 a4 51 be
       -0.090209536 -0.07430163 0.06530162 -0.20472981
0003a0 86 9a 75 3d e9 d7 2c 3c f5 2c 93 bd c4 78 9d bc
       0.05996182 0.010549524 -0.07186309 -0.019222625
0003b0 5d d3 4b 3d 01 d2 a9 bd ea 27 6a 3d 3b 22 71 3d
       0.04976212 -0.08292008 0.05716697 0.058870535
0003c0 55 41 4c 3b 1a 5b ca bc 0d d1 da bd cd e0 b9 3b
       0.003116687 -0.024701644 -0.106844045 0.0056725503
0003d0 be 50 1d 3e 48 e3 15 3d 84 25 86 3d 24 76 64 3d
       0.15362832 0.036593705 0.06550124 0.05577673
0003e0 a9 23 77 bd 97 c5 91 3d 4c 59 48 be 9c 40 c4 bd
       -0.060336743 0.071177654 -0.19565314 -0.09582636
0003f0 74 1f b2 3c d7 20 0d 3e f4 75 d3 3c 87 be 0f 3d
       0.021743514 0.13782059 0.02581308 0.03509381

network_body._body_endoder.seq_layers.2.bias f4 [128]
000000 6b 4e 95 bc e9 56 65 3c 0f 32 97 bb ae e8 89 bc
       -0.01822587 0.013997772 -0.0046141217 -0.016834583
000010 04 26 55 3c fa f4 28 bc 3e f2 08 bc a3 43 cd 3a
       0.013009552 -0.010312313 -0.008358536 0.0015660416
000020 fc bc 18 bc 9b 79 49 3c 15 0d 3a 3c 01 89 43 bb
       -0.009322401 0.012297059 0.011355658 -0.00298363
000030 8d ce 1f bc 87 82 12 3a 40 f7 f1 39 b1 6f e3 b9
       -0.009753835 0.0005588908 0.00046151318 -0.0004338003
000040 3c 2d c3 3c b6 bc 02 3b aa ab de bb 1e 70 bf bb
       0.02382528 0.0019948906 -0.0067953663 -0.005842223
000050 bc c2 04 3c 04 84 29 3b d5 b7 ef bb fa 66 c3 3a
       0.008103069 0.002586604 -0.0073156157 0.0014908009
000060 0e 13 62 3c 67 5e af 3b 60 20 fe 3b 7c 1a 8b bc
       0.013798488 0.00535183 0.0077553242 -0.016980402
000070 92 e6 89 3b 6b d9 93 3c 1d 25 bd bb b9 b6 3f 3c
       0.0042083943 0.018048009 -0.0057722465 0.011701279
000080 b6 1e 0e bc 82 88 79 3b 9f b2 5a 3c d1 51 4e bc
       -0.008674314 0.003807575 0.013348251 -0.012592749
000090 21 c8 4d bb 58 dd a3 bb 84 74 9b 3b 1e 8e 24 3c
       -0.0031399804 -0.0050007515 0.0047441144 0.010043649
0000a0 bb 7f d3 bb e7 00 01 3c b7 78 6f ba df 55 84 3d
       -0.0064544356 0.00787375 -0.00091351144 0.06461691
0000b0 a2 73 2d 3c 7a aa 66 3c 76 d2 a8 bb 60 e5 b6 3b
       0.010586651 0.014078731 -0.005152042 0.005581543
0000c0 8a fb e3 bb 3e 41 d3 bb fb 7e c8 3b 74 00 1f bc
       -0.006957476 -0.0064469865 0.006118653 -0.009704698
0000d0 e9 93 79 bb a9 11 1d 3c 93 a3 16 3c 58 b6 88 ba
       -0.0038082546 0.00958673 0.009194273 -0.0010430319
0000e0 3d 7f e0 ba de 0f f5 3b ce bc 41 bc be 3c 38 bb
       -0.0017127764 0.007478698 -0.0118248 -0.0028112377
0000f0 4b d4 42 3c 5a a3 37 bc bf 9a ca 3c 29 69 da bb
       0.011891435 -0.01120838 0.024731992 -0.006665368
000100 55 c7 9b 3b 9f 47 74 3c 82 95 8a bb 2c f2 8e bb
       0.004753987 0.014909654 -0.0042292485 -0.004362365
000110 46 7b 4e 3c 0f 56 0e 3c c0 23 09 ba 60 d5 7e bc
       0.012602633 0.00868751 -0.00052314624 -0.015553802
000120 f9 aa 16 bb e1 28 3d 3c 15 fa 13 3c bf 5e 78 3a
       -0.0022990091 0.011545391 0.009031792 0.00094745675
000130 13 84 49 bc c6 f1 a0 b9 c0 a9 b6 3b 86 dd 05 bc
       -0.012299555 -0.00030697713 0.005574435 -0.008170491
000140 d3 34 a5 3c ad 81 25 3c 95 bd 05 3c a7 fb 7f bb
       0.02016679 0.010101718 0.008162876 -0.0039059909
000150 8b 59 da bb 2c 7e c0 ba 74 22 5f 3c b0 00 9c b8
       -0.0066635064 -0.001468604 0.013619054 -7.438788e-05
000160 8c fa 12 bc 00 64 a4 3c 76 df 47 3a b9 cc f2 bb
       -0.008970868 0.020067215 0.0007624546 -0.0074096587
000170 0b c9 82 bb b5 2a 57 3c f5 ea cf bb f3 0c f9 bb
       -0.0039912513 0.013132741 -0.0063451477 -0.0076004206
000180 e8 63 15 bc 3c 58 4d 3c ba 3a 10 3c f2 28 41 3c
       -0.009118058 0.012533244 0.008803064 0.011789547
000190 17 d9 11 3c 76 11 21 3c cc 17 8e bb 79 02 86 bb
       0.008901856 0.009830823 -0.004336333 -0.00408965
0001a0 cf 39 26 bc 49 18 8b 3c 1b 79 90 3b f2 f3 26 3b
       -0.010145619 0.016979354 0.004408968 0.0025474993
0001b0 b8 a9 bf bb 3f 1d 0c 3b 0f da 75 bb 86 fb 4f bb
       -0.0058490895 0.0021379737 -0.0037514006 -0.0031735613
0001c0 1c 1c 86 3b 97 d0 c8 3b da 3e 9d bb 71 2b 4f bb
       0.0040927064 0.0061283815 -0.0047987523 -0.0031611586
0001d0 fb d9 a6 3c ec 3b 47 3c c1 75 7e 3b ab 58 62 bc
       0.020367613 0.012160283 0.003882751 -0.013815085
0001e0 16 03 57 bb f2 d1 2a ba d0 e1 2d 3c 91 f6 a9 bb
       -0.0032808236 -0.00065162696 0.01061292 -0.0051868637
0001f0 84 99 9e bb fe a8 cd 3b 7d 21 9f bb e6 f6 3c bb
       -0.004840078 0.006276249 -0.004856287 -0.0028833686

action_model._discrete_distribution.branches.0.weight f4 [2, 128]
000000 6b e4 e9 ba 69 51 b6 3a f9 1a e4 3b 25 78 9b 3b
       -0.0017844563 0.001390976 0.006961223 0.004744547
000010 46 ed b6 bc e2 87 52 ba 6b 79 40 bc 4b c1 2e bc
       -0.022329938 -0.00080311124 -0.011747698 -0.010666202
000020 d2 93 49 3c bc 03 0b 3d 16 41 4d bc d0 d9 1f 3c
       0.0123033095 0.03393911 -0.012527725 0.00975652
000030 65 dc cb 3b 61 2d 7d 3c 51 a8 cf 3b c9 79 67 bb
       0.0062213414 0.015452714 0.0063372036 -0.0035320392
000040 79 bf b8 bb b5 54 90 3c 32 94 73 bb 10 5d 9e bb
       -0.0056380597 0.017618516 -0.0037167189 -0.0048328713
000050 30 69 a1 3c 73 33 77 bc 38 47 01 3c c3 6b b4 3c
       0.019703478 -0.01508795 0.007890515 0.022024041
000060 cd ba df 3a 73 a4 d2 bb 6d 1d 26 3c e2 7c b9 bb
       0.0017069221 -0.0064282953 0.010138852 -0.005660639
000070 6f e0 49 bc e4 6d 7b 3c 05 dd 68 3b 4e a3 80 bb
       -0.012321576 0.015346024 0.0035532129 -0.0039257174
000080 d5 4a e8 3b 5b 13 96 ba bb a3 33 3b 78 b0 90 3b
       0.007088999 -0.001144986 0.0027410823 0.004415568
000090 fe 5b 83 3c 82 3c 11 3c c9 10 c6 bb cb b4 25 3c
       0.016035076 0.008864524 -0.0060444814 0.010113905
0000a0 da 45 fa 3b 17 ee 56 bc 13 eb 70 3c a3 bb 07 bd
       0.0076377215 -0.0131182885 0.014704484 -0.03313793
0000b0 51 32 f4 bb 80 bc 24 3c 1d 18 8c 3c 0b 40 73 bc
       -0.0074522872 0.0100547075 0.017101342 -0.014846812
0000c0 46 99 41 3b cb 84 6d bb e3 a7 8f bb c8 8f 6b 3c
       0.002954082 -0.003624248 -0.0043840273 0.014377542
0000d0 5f a0 05 bb 5d ac dc 3c ce 60 3e 3d 4d 80 20 3b
       -0.0020389778 0.026937658 0.04647904 0.0024490536
0000e0 71 96 70 3c 7e fc 8e bc 9a c9 c4 3b 24 01 38 3b
       0.0146843055 -0.017454382 0.006005478 0.0028076852
0000f0 53 29 3a 3b f5 02 4c 3c 53 c0 9c bc 09 89 0b 3c
       0.0028405979 0.012451877 -0.019134676 0.008516558
000100 f2 6b 8b 3c 38 28 75 3b ed 4f b4 bb 39 e8 62 3b
       0.017019246 0.0037408005 -0.005502692 0.0034623279
000110 10 7b 53 bc 9c 82 80 bc 1b d3 10 bc 99 95 ea 3b
       -0.012907758 -0.01568728 -0.008839394 0.0071589467
000120 3a cc 54 bb aa 87 05 3d 8c 05 cd bb 1c 1d e1 3a
       -0.0032470361 0.032600082 -0.0062567648 0.0017174813
000130 74 3f 20 3c 7f cd b5 3b 53 87 09 3c 6b e0 8e 3c
       0.009780753 0.0055481787 0.00839408 0.017440995
000140 8e d9 a7 bc d2 66 bc bb f5 e5 55 bc 04 cc ce bc
       -0.02048948 -0.005749562 -0.013055314 -0.025243767
000150 49 bf 38 3c 7a b3 37 3c d4 0a 19 bc 95 5c 62 3c
       0.011276075 0.011212224 -0.0093409605 0.013816019
000160 65 21 f7 3a a7 32 a2 b9 7b 9e ac bc 84 51 f8 3b
       0.0018854557 -0.00030936787 -0.021071663 0.007578077
000170 b5 db 8d 3c 7c 44 8c 3c 88 64 98 3c 22 b8 17 bc
       0.017316679 0.0171225 0.018602625 -0.009260209
000180 6a 2a 8d 3c 77 d2 43 bc 60 0f 94 3c 51 e4 7f ba
       0.017232139 -0.011952034 0.018073738 -0.00097615
000190 4c 58 11 3c 1a 61 9d bb 72 c9 ba 3c 72 ca e6 bb
       0.008871149 -0.004802835 0.022801135 -0.0070431763
0001a0 7f 8a 20 3c 38 17 52 3c 46 0a 68 bc 4c 11 49 3c
       0.009798645 0.012822919 -0.014162606 0.01227219
0001b0 dd aa 27 3b 5e aa 89 bb 11 18 4a 3b 24 dc 48 3c
       0.002558402 -0.0042012176 0.0030837099 0.012259517
0001c0 34 b4 11 bc 5e 5b b5 3b e1 3c f2 ba eb 78 86 ba
       -0.008893061 0.0055345735 -0.0018481278 -0.0010259425
0001d0 2b db ed bb 2e af 9a bc f1 cf a9 3b 1e 79 0b 3c
       -0.007258793 -0.01888236 0.0051822593 0.008512763
0001e0 7a 8f 2f 3b 2a 0d ec 3b db b4 88 3b 07 54 0e 3b
       0.00267884 0.0072037177 0.0041719503 0.0021717565
0001f0 a1 10 6f 3c 91 2e b5 bc 4e 72 95 3b 8b 3c 1f 3c
       0.014591367 -0.022116931 0.0045607453 0.009719024
000200 10 a9 ff bb 32 2e 20 3c 07 e6 32 3c a0 12 00 bc
       -0.0078021362 0.009776639 0.010919101 -0.007816941
000210 54 21 9b 3b 70 9d 11 bc f5 08 1e bc e2 70 ff 3b
       0.0047341976 -0.008887634 -0.00964569 0.007795439
000220 5d c0 e9 bc de 7f b0 bc 9a d7 e8 3b cc 04 5f 3c
       -0.028534109 -0.021545347 0.00710578 0.0136119835
000230 f3 d9 37 bc f0 e4 79 bc 3e 1d 9e bc 7e 7b 01 3c
       -0.011221397 -0.015252337 -0.019301053 0.007902978
000240 39 76 e8 3b 85 a9 a4 bc 27 fe 65 bc 1c 75 bf 3a
       0.0070941714 -0.020100364 -0.014037645 0.0014607045
000250 34 da 28 3c 22 da e6 bb 2f aa d8 39 99 ad 9b bc
       0.01030593 -0.0070450464 0.00041325527 -0.019003676
000260 98 f3 06 bc 4c 85 88 bb 77 4f 99 3c 8b e5 58 bc
       -0.008236788 -0.004166281 0.01871465 -0.013238321
000270 d3 fc 30 bc 36 b3 65 bc 44 46 3d bc 6e 37 e0 3b
       -0.0108024655 -0.014019778 -0.011552397 0.0068425452
000280 69 22 03 bc 18 62 fe 3a e4 42 c3 bb 3b f9 48 bb
       -0.0080038095 0.0019407896 -0.0059589017 -0.003066613
000290 bb 6e 36 bc 8b 5f 81 bc 29 d8 9c 3c 17 47 2c bc
       -0.011134799 -0.015792629 0.019146042 -0.010514996
0002a0 c1 8e f9 bc a0 c4 7e 3c 14 e2 85 b6 d6 75 e5 3c
       -0.030463578 0.015549809 -3.990028e-06 0.02801029
0002b0 60 5f 04 3c 30 21 41 bb 0b 4f ab bb 1b 39 ee 3c
       0.00807938 -0.0029469244 -0.0052279285 0.029079964
0002c0 b7 b5 14 bc d7 8d b1 ba 25 1b 53 3b e6 c6 a3 bb
       -0.009076527 -0.00135463 0.0032212224 -0.004998076
0002d0 08 a1 84 bc da 3d 96 bc 19 81 22 bd 2b e2 96 3b
       -0.016190067 -0.01834004 -0.0396739 0.004604598
0002e0 8c 03 40 bc bb 0e 0e 3b b3 40 1e 3b ef 8c 24 3b
       -0.011719596 0.002167626 0.002414745 0.0025108417
0002f0 59 18 73 ba e6 c1 0d 3b 9a 43 cf 3c 0f b3 91 bc
       -0.00092733424 0.0021630465 0.02530079 -0.017785577
000300 f8 c8 d0 3b 40 9e 9e bc f1 2a d8 bb eb c0 b1 ba
       0.0063716136 -0.019362569 -0.006596916 -0.0013561522
000310 27 44 ce 3c 02 1e 01 3c 7d 71 85 3a 8b dd e2 bb
       0.025178982 0.00788069 0.0010180917 -0.0069233826
000320 ea 68 b9 ba d6 5c 0e bd a5 60 b1 3b 1b 0a 6e 3c
       -0.0014145647 -0.034756504 0.0054131323 0.0145287765
000330 ae f0 ff bb e8 a3 66 3b 7c 55 06 bc c0 6e 30 bb
       -0.0078106737 0.003519291 -0.008199092 -0.002692148
000340 1b b2 68 3c ee b3 81 3c cb c1 83 3c de 39 64 3c
       0.01420262 0.015832867 0.016083619 0.013929812
000350 83 e4 a0 bc 18 02 a8 3b d5 9c aa bc 02 d8 af bb
       -0.019640213 0.0051272027 -0.020826736 -0.0053663263
000360 03 c0 62 bc af 33 e0 3c ed 23 c7 ba 98 ae 81 bc
       -0.0138397245 0.027368395 -0.0015193202 -0.015830323
000370 f0 b3 ff 3b d7 57 ac bc 91 21 19 bc 91 fa 8e bc
       0.0078034326 -0.021037979 -0.009346382 -0.017453464
000380 fd 2a 17 bc 71 34 31 3c f9 6f 79 bb d3 49 2b bc
       -0.009226558 0.010815726 -0.0038061126 -0.010454613
000390 d6 19 ab 37 36 22 50 3c 72 ed 6d bb 93 86 56 bc
       2.039682e-05 0.012703469 -0.0036304859 -0.013093608
0003a0 76 20 c4 bc ec e0 6b 3c 2b cb 9e 3a 7f b9 88 bc
       -0.02394126 0.014396887 0.0012114992 -0.016690014
0003b0 ee 82 1f b9 9b 85 46 3b db dd 31 bc e5 22 8c 3b
       -0.00015212197 0.0030292037 -0.010856117 0.0042766207
0003c0 82 ac 54 bb 72 35 76 bc fd fb b8 bb ed 43 88 3c
       -0.0032451455 -0.015027391 -0.0056452737 0.016633952
0003d0 60 3b f3 3c c2 77 76 3b 09 30 44 bb af 8e b8 bc
       0.029691398 0.0037608002 -0.0029935858 -0.022528974
0003e0 b1 7f c4 bb f8 36 1a 3c 85 fd db bb 0f 73 b8 3b
       -0.0059966673 0.00941252 -0.0067135715 0.0056289504
0003f0 15 20 89 bc 04 6d ef 3c 8d b8 45 3b 1d f8 06 bc
       -0.01673893 0.029226787 0.0030169815 -0.008237866

action_model._discrete_distribution.branches.0.bias f4 [2]
000000 e0 c3 0b bc de c3 0b 3c
       -0.008530587 0.008530585

action_model._discrete_distribution.branches.1.weight f4 [2, 128]
000000 a6 9d 40 bb 42 11 1b bc b5 81 b5 3b b5 d4 0a 3c
       -0.002939084 -0.009464564 0.005539144 0.008473565
000010 db 6b 6a bc 5f 57 9b bb 07 6c 60 3c c5 73 36 3c
       -0.014307941 -0.00474064 0.013697631 0.011136
000020 cd 34 3f 3b bb 98 9f 3c 91 29 31 3c 20 4c 2b 39
       0.0029175759 0.019482007 0.010813133 0.0001633619
000030 c1 a5 d8 bb d8 07 e4 3a 82 01 96 bc 7b d7 ef 3b
       -0.0066115563 0.0017397357 -0.018311266 0.0073193884
000040 c7 81 61 3d 28 44 41 3c a0 e1 03 3c 85 2c 89 ba
       0.055055406 0.011796035 0.008049399 -0.0010465538
000050 c1 47 f1 3c ed 58 32 bb e5 cf 5d 3c aa 22 f7 ba
       0.02945316 -0.0027213648 0.013538335 -0.0018854935
000060 66 a4 46 bd 83 eb 4f 3c cc ca 6a bc 82 fb bf 3b
       -0.048496626 0.012690428 -0.014330577 0.0058588395
000070 b0 49 44 bc 7a d7 36 bd 49 aa 7d ba 24 33 f0 bb
       -0.011980459 -0.04463909 -0.00096765585 -0.007330315
000080 23 3e c1 3b 7f 63 f3 3a 51 b0 09 bc f5 41 c7 bb
       0.0058973 0.0018569081 -0.0084038535 -0.0060808607
000090 0c 1f ae bb 1c 51 16 3c a4 5a 66 3c df bf 05 3d
       -0.0053137597 0.009174611 0.014059696 0.032653686
0000a0 df 38 af bb a6 3b ff 3a 70 90 f6 3a 7f 5c d5 3d
       -0.0053473557 0.0019472733 0.0018811356 0.10418033
0000b0 94 15 14 bc 7d 86 80 3c ae 4a 4c 3c 4d 1f 47 3b
       -0.009038348 0.015689129 0.012468977 0.0030383647
0000c0 a7 41 13 bb ad d5 25 3c 82 12 5b bc da 6a 3a 39
       -0.0022469552 0.010121745 -0.013371112 0.00017778148
0000d0 22 6d af bb 95 2c cf 3c 63 64 9f bc 80 e0 9a 3b
       -0.005353586 0.025289813 -0.019457048 0.0047264695
0000e0 c0 71 70 bc 85 58 31 bc d6 aa 08 bb f1 0e 03 bc
       -0.014675558 -0.010824327 -0.002085378 -0.007999168
0000f0 3c 67 3a bc 21 f3 c6 3b 78 59 2a bd 7a 4e 57 bc
       -0.011377152 0.0060714637 -0.04158923 -0.013141269
000100 0c 45 b6 3c 6c 14 04 bc e6 a4 2a 3c fb f3 08 bc
       0.022249721 -0.00806151 0.010415291 -0.008358951
000110 6a 30 85 3c 47 e4 54 3c 46 90 c6 bb 7d db 8f 3a
       0.016258437 0.012993879 -0.006059679 0.0010975447
000120 a5 10 2a bb 39 bd 48 3c 7a 59 7e bc c0 92 7d 3c
       -0.0025949862 0.012252145 -0.015524263 0.015476882
000130 ed bd 24 3c 86 0f 87 bc 1b 06 d8 bc d5 42 0f 3c
       0.010055047 -0.016486894 -0.026370099 0.008743961
000140 83 f8 54 3d 2d 68 4b 3d 5e 11 15 3b bc d7 0f bc
       0.05199481 0.049659897 0.0022745947 -0.008779462
000150 dd 70 2a bc df 04 e1 3c cc eb 81 bc d3 13 13 3c
       -0.010402885 0.027468143 -0.015859507 0.008976894
000160 6a 95 4d bb be 2d 17 ba 25 a7 83 bc f9 63 3c 3c
       -0.0031369575 -0.0005767009 -0.016070912 0.011498445
000170 c3 e8 c7 3a a5 69 8d 3c 5b 51 88 b9 7f 5b d3 3b
       0.0015251864 0.01726229 -0.00026000556 0.006450116
000180 52 28 0a 3a 54 f8 21 bc 4c 4f 1d 3c 85 2d e9 3c
       0.00052702904 -0.009885866 0.009601425 0.028464088
000190 ee e6 89 bc f2 e4 7e ba 2f b3 6c bc 1f 62 a7 3b
       -0.016833749 -0.00097234466 -0.014447018 0.0051081325
0001a0 53 34 c6 bb f5 ce 05 bc 56 af 37 bc 82 b9 54 bc
       -0.006048718 -0.008167018 -0.011211237 -0.012983682
0001b0 99 fd 8e bb 54 45 c9 bb b2 4f 0b bc 83 cf d4 3a
       -0.0043637273 -0.0061422978 -0.008502888 0.001623616
0001c0 56 68 4c bb df ff 90 3c 28 a7 9c 3c f0 77 18 bc
       -0.0031190119 0.017700134 0.019122675 -0.009305939
0001d0 66 c3 bb bc 13 8c b4 bc d3 f1 f3 bb 78 ed 93 3b
       -0.022920322 -0.022039449 -0.007444599 0.0045143925
0001e0 4a 9e 7a bb 21 8f 20 bc 5b c6 8e bc a9 9d 81 39
       -0.003824132 -0.00979975 -0.017428568 0.00024722263
0001f0 10 d1 23 3c 46 16 00 bd f7 0e b3 bb 83 63 a5 3c
       0.009998575 -0.03127124 -0.0054644304 0.020189052
000200 1a 5a 67 bb 70 d7 c7 3b fe f0 30 bc 35 9f 1d bb
       -0.0035301507 0.00609868 -0.0107996445 -0.0024051194
000210 07 87 2f 3b e6 9f 9b bb ca 68 81 bc a9 6f 25 3b
       0.0026783363 -0.004749286 -0.015797038 0.0025243557
000220 e5 bf 9a bb cc 69 68 bc f4 04 6b 3c 47 3a 2e 3c
       -0.0047225826 -0.01418538 0.014344443 0.010634012
000230 da 4d 46 3c fa 03 fc 3b 33 f7 a1 bb f9 84 fd 3b
       0.012103522 0.0076909037 -0.0049427985 0.007736799
000240 af 17 5d bd 98 51 8a bc ef a8 f7 bb e8 eb 14 3c
       -0.053977665 -0.01688461 -0.0075579803 0.009089448
000250 b9 ac 00 bd 28 0c 84 3b d1 00 1e bc 93 94 1e 3b
       -0.03141472 0.0040297695 -0.009643749 0.0024197444
000260 38 e2 55 3d a0 92 65 bc 0d ae 67 3c 5f 14 a9 bb
       0.052217692 -0.014012009 0.014140618 -0.005159899
000270 69 ba 8b 3c 1a 40 1e 3d 09 68 4d 3c 6d 4d 04 3c
       0.01705666 0.03863535 0.012537011 0.0080751
000280 58 db 81 3c 51 40 6b 3c 73 34 46 3d d1 80 47 bb
       0.015851662 0.014358596 0.048389863 -0.003044177
000290 b3 8a b3 3c ad 0a 4c 3a 94 15 46 bc 60 4b 61 bc
       0.021916723 0.0007783573 -0.012090106 -0.013750881
0002a0 2f 92 d7 3b e3 b4 5c 3b e4 2e 94 3c 87 f2 bd bd
       0.0065787057 0.0033677153 0.018088765 -0.09274774
0002b0 22 89 9c bb ba f3 24 bc 12 63 57 bc 30 05 ce 3b
       -0.0047770897 -0.010067875 -0.013146179 0.0062872395
0002c0 03 74 80 3c b9 c6 52 ba 78 91 ce 39 cb fe 04 bc
       0.015680319 -0.0008040476 0.00039399765 -0.008117388
0002d0 54 c3 3a 3c ae ed 84 bc c6 88 a8 3c e7 c7 01 3c
       0.011399109 -0.016226616 0.020573031 0.007921196
0002e0 a5 2e 93 3c fd 8a 80 bb bc 93 9a 3b 91 7c 45 bb
       0.017966578 -0.0039228187 0.0047173183 -0.0030134062
0002f0 97 5b 72 3c 65 30 a3 bb 48 60 35 3d 0c c7 8c bc
       0.0147923445 -0.0049801343 0.044281274 -0.017184757
000300 e3 55 cb bc c0 b6 08 3d b7 25 e0 3b f7 eb 39 bc
       -0.024821227 0.03337741 0.0068404335 -0.011347762
000310 dd 65 09 bc da 15 b6 bb 5a 5f 0d bc f7 e3 8e bb
       -0.0083861025 -0.005556804 -0.008628691 -0.0043606716
000320 b0 8e 8d 3b 78 79 a0 3a cb f8 5d 3c 6a 4a 20 3c
       0.004319988 0.0012243232 0.013548086 0.009783367
000330 82 a5 91 3b 88 62 0b bc 59 8e 03 3c 7b 1c 58 3b
       0.004444779 -0.008507378 0.008029544 0.003297596
000340 e1 fb 07 bd 30 2a 2b bd cb 46 0e 3c 77 63 6a 3b
       -0.033199195 -0.04178828 0.008683871 0.0035764852
000350 d9 a8 bd 3a 4c bd 78 3b 1d b0 84 3c f3 f7 15 bc
       0.0014469876 0.0037954627 0.016197259 -0.009153354
000360 a2 50 33 bb d2 23 3a 3c 35 4e 95 3c f7 30 e1 bb
       -0.0027361293 0.011361079 0.018225769 -0.006872292
000370 da a2 b5 bc c6 d7 a3 bb 8e a2 c4 bb f4 4d 84 ba
       -0.02217238 -0.0050000874 -0.0060008233 -0.0010094033
000380 8d 5a 93 39 88 5e 73 3c ac 6a 9c bc 9f 91 f5 bc
       0.0002810549 0.014854081 -0.019093834 -0.029976664
000390 da 30 30 3c ef 56 03 3c b6 3b 63 3b 21 ff 49 bc
       0.010753835 0.008016332 0.0034673042 -0.012328894
0003a0 cf 58 79 bb df c0 aa 3c 96 00 18 3b bb c2 a4 bb
       -0.0038047319 0.020843921 0.0023193709 -0.0050280965
0003b0 bb 8b 78 ba c2 f4 09 bb 1a e8 82 3b 5d b9 f5 3b
       -0.00094812707 -0.0021050428 0.003994954 0.0074989037
0003c0 e7 06 d7 3b 6c 1a a9 bc 28 cf 98 bc d7 a3 a7 b9
       0.006562102 -0.020642482 -0.018653467 -0.00031974792
0003d0 0a 79 c4 3c 78 d4 83 bb 80 a5 96 bc d1 2f 30 bb
       0.023983497 -0.004023131 -0.018389463 -0.002688397
0003e0 99 c2 9e 3a 1b c5 d0 3b c9 8c 8a 3c d1 4e 8e bb
       0.0012112438 0.006371153 0.016912835 -0.0043428917
0003f0 77 66 5c 3a b6 1b 63 3c a1 f9 bf 3a 6d 5d ba bb
       0.00084076024 0.013861587 0.0014646539 -0.0056874068

action_model._discrete_distribution.branches.1.bias f4 [2]
000000 2a f3 9b bb 2a f3 9b 3b
       -0.004759212 0.004759212
