results/GoodAi_Test/BossAi/BossAi-133735.onnx (onnx, 79397 bytes, 9 tensors)

discrete_act_size_vector f4 [1, 2]
00000000: 0000 4040 0000 0040
3.0 2.0

network_body._body_endoder.seq_layers.0.weight f4 [128, 6]
00000000: a999 2abe ee25 d4be 532f 98bc 4d31 5e3f
00000010: 781e 56bd ee36 353f ac0c e1bd 500d e23c
00000020: 86db 993f da23 b3be 1671 123f 031c 61bf
00000030: 8c75 603e 2cf2 aa3e 4738 65be 6906 39be
00000040: 91ba 39be 8360 ee3e 11fc cd3c 4347 07bf
00000050: 6e9f 94be 2075 33bf 7939 63be b49b 01bf
00000060: 5f98 783f 3015 54be 076f 5ebd db7d 433f
00000070: 2ed8 b83d ae61 ee3d baf5 693e 84e3 a53e
00000080: d568 47be ba69 9cbd 7304 26bf 46a0 89be
00000090: b59f 7fbe 5d24 9ebc fe1a 56bf 2cf8 72bd
000000a0: cec5 d43e f592 bf3e 89a8 a13e 26d1 a3bd
000000b0: c62b 563d a709 fcbe c6b8 b13d cec4 85bd
000000c0: a4b4 193f 4549 3ebf e61d e3be 25a5 973e
000000d0: b3d2 03bf 5ca7 19bf 2b11 9bbb 99a7 273f
000000e0: 1e9d 6c3f 8638 0ebf 1e94 48be 636c f4be
000000f0: 1137 1e3f 90da ad3e c0fe 173d 243c 8d3d
00000100: 3a36 aebe 9fdc dabe 6512 aa3e 93b5 fbbe
00000110: 3265 a5be cd47 41be b43f 853e 7bb1 02be
00000120: ad6d c6bd bee0 233f fcc8 6fbe 3744 b0be
00000130: 5270 173e 7ce1 85be 5bbd 9ebe 84f4 3f3c
00000140: dfb4 4f3b 8f43 2bbe fc09 12be 3f3d 12be
00000150: 838b dbbd 18e6 a43e e46f ff3d da9e c43e
00000160: c617 c2be 8d92 b33e d242 053e 3346 05bf
00000170: d078 f03e a5ec 4fbd 225f 04bf cbd0 a43c
00000180: b22a 083d 54db 14be 64ed 9a3d 81af a93e
00000190: 265e db3e e7a3 0cbf b1d8 efbd fcec 68bd
000001a0: 8810 813f c99d 48be 8fdc 9abb d6ad 163f
000001b0: 0d49 9f3e 071a 0e3f 944d 67be ce61 b83e
000001c0: 4ab3 c5be 3919 98be 89d5 f33e 6645 36bf
000001d0: 8145 7d3e 572c 0bbf 7a76 6ebc f8fb df3e
000001e0: 7474 61be de94 79be 4c76 22b9 0f20 3a3f
000001f0: f264 473e ba65 a33e 5cf3 3d3f 0eaf c93d
00000200: 7d3b a0be 19cf e8bd 55c9 783f 6d88 23bd
00000210: e7cb 9f3e ef4a 31bf 65cc fa3e 103f e0be
00000220: d4c9 323f d59f b3bd b4c5 13bf 8c59 a5be
00000230: 07a0 f5bc 4514 23bf ad95 53bf 877c 693e
00000240: 7c1b b53e 6726 27bf 44ae 213f 68f7 09be
00000250: 439b 823e f60c 4dbe 1193 563e 573d 89be
00000260: 78eb 303e 57d2 903f f53f 3fbb 15ed fd3e
00000270: 997d cfbe 8fb4 89be aab1 683e 4f06 2fbf
00000280: b43c b3be 3830 dc3e 7eb6 bc3c 139b 223e
00000290: 5dcf 3e3f 393e ec3e eb63 5f3e 27dd 9cbe
000002a0: 29df d43e ab48 4cbe 49b5 6bbe 4745 d93e
000002b0: 7aaf 313e 6bfe 2c3f 04a0 b03d b4fb 2ebd
000002c0: 8a43 733e fc02 0e3e 7f0d a5be e1b8 43bf
000002d0: 57ad d6be bb80 6abe 6023 d43e 3b0c e9be
000002e0: 63d4 443e b0dc aabe 37f6 7b3e cf6d 3bbf
000002f0: ef09 e6bd 9564 8c3e 6fd6 683e ed0b 77bc
00000300: 35e8 303e 5da0 e4be 9ba1 d8be fbb4 4c3f
00000310: fd20 32bf 4fab 743c 59f9 10bf f81b b9be
00000320: 5b54 b3be 69d4 0c3f 6633 9c3e 109e af3d
00000330: ea85 fd3e 3e26 9bbd 4793 32be 713d 13bf
00000340: 374b 8bbd f91e 9ebe 1971 533f c4d8 bb3e
00000350: 1e28 80bf 9d2b 2a3f cb47 e83e b19f 76bf
00000360: 1f1e c4bd 4cbf 21be c30e 5f3c 839f c2be
00000370: 5848 393f 4cdd 62bf 4367 733e af32 9fbe
00000380: c30d bebc 8702 df3e f22e 9abe 3f6a 213f
00000390: 7627 773e 9272 16be ccfb e9be aa48 cd3c
000003a0: a44e 30be 696c 9dbe 1f66 0bbf 89a0 b63d
000003b0: ef10 8cbe 7680 823d da04 41bf de47 b93e
000003c0: 3c09 583e fbf3 ef3e af89 12be 87e4 3a3e
000003d0: e994 523d dc93 c13d 7cb8 94bb 0bc6 4abe
000003e0: 6f4f 683e 44c1 1e3f 81f6 573d 9256 51be
000003f0: add5 ecbe 99d7 993d 5a54 cb3e 06e7 133f
-0.16660179 -0.41435188 -0.018577253 0.8679398 -0.05227515 0.7078694 -0.10988745 0.027594239
1.2020118 -0.3498829 0.57203805 -0.8793337 0.2191984 0.33387887 -0.2238475 -0.18068852
-0.18137576 0.46558008 0.025144609 -0.5284311 -0.29027885 -0.70100594 -0.22189893 -0.5062821
0.971075 -0.20711207 -0.054305103 0.76363915 0.09025608 0.11639725 0.22847643 0.32400143
-0.19473584 -0.07637353 -0.6485054 -0.2688009 -0.24963267 -0.019304449 -0.83634937 -0.059318706
0.41557163 0.37416807 0.31573895 -0.07998876 0.05228784 -0.49226114 0.08677821 -0.06531678
0.6004126 -0.7433055 -0.44358748 0.29618183 -0.51493376 -0.60020995 -0.004732271 0.6549011
0.9242724 -0.55555 -0.19587752 -0.47738943 0.61802775 0.33955812 0.037108183 0.068962365
-0.34025747 -0.42746446 0.3321716 -0.49161968 -0.32303768 -0.18875046 0.26025164 -0.12763016
-0.09688888 0.64014804 -0.23416513 -0.34427044 0.1478894 -0.26148593 -0.31003842 0.011716012
0.00316935 -0.1672499 -0.14261621 -0.14281176 -0.10719969 0.32206798 0.12472513 0.38402444
-0.37908763 0.35072747 0.13013771 -0.5206024 0.46967173 -0.05076279 -0.5170766 0.020119091
0.033243842 -0.14536792 0.0756481 0.3314171 0.42845267 -0.54937595 -0.117112525 -0.05686663
1.008317 -0.1959144 -0.0047259997 0.58859 0.3111042 0.55508465 -0.22588187 0.3601212
-0.3861335 -0.29706743 0.47623852 -0.71199644 0.24733545 -0.5436453 -0.014554614 0.43746924
-0.2201708 -0.24373195 -0.00015493593 0.7270517 0.19472101 0.3191355 0.7419946 0.09847842
-0.31295386 -0.11367626 0.9718221 -0.039925028 0.31210253 -0.69254965 0.48984066 -0.43798113
0.69839215 -0.0877072 -0.57723546 -0.3229488 -0.029983534 -0.63702804 -0.8265026 0.2280141
0.3537253 -0.6529297 0.63156533 -0.13473284 0.2550908 -0.20024475 0.20954539 -0.2680461
0.17277324 1.1314191 -0.0029182408 0.49594942 -0.4052551 -0.26895568 0.22724023 -0.68369
-0.3500725 0.43005538 0.023036238 0.15879469 0.7453516 0.46141222 0.2181546 -0.30637476
0.41576508 -0.19949596 -0.23018374 0.42435667 0.17352095 0.6757571 0.086242706 -0.04272051
0.23756233 0.13868326 -0.3223686 -0.7645398 -0.41929123 -0.2290067 0.4143324 -0.45517144
0.19221644 -0.33371496 0.24605642 -0.7321443 -0.112323634 0.27420488 0.2273805 -0.015078527
0.1727608 -0.44653597 -0.42310795 0.79963654 -0.69581586 0.014933421 -0.56630474 -0.3615415
-0.35025296 0.5501161 0.30507964 0.0857507 0.4951623 -0.075756535 -0.17438994 -0.5751563
-0.068014555 -0.30883005 0.8259445 0.36688817 -1.0012243 0.664728 0.45367274 -0.9633742
-0.09576058 -0.1579563 0.013614359 -0.38012323 0.7237601 -0.8861892 0.2376986 -0.31093356
-0.023199921 0.43556616 -0.3011394 0.63052744 0.24136147 -0.14692143 -0.45699918 0.025059063
-0.17217499 -0.30746773 -0.544527 0.089173384 -0.2735667 0.06372158 -0.7539803 0.36187643
0.21097273 0.4686583 -0.14310335 0.18251239 0.051411543 0.0945203 -0.004538594 -0.1980211
0.22686552 0.6201365 0.05272532 -0.2044318 -0.46256772 0.07511825 0.39712793 0.5777439

network_body._body_endoder.seq_layers.0.bias f4 [128]
00000000: 27dc 093c f34c 98ba 7f7b b3ba 4e32 c43c
00000010: bf86 c53a 1470 f3ba a68c 0abb 6b0e 97ba
00000020: cbb2 93bc a742 133b 7e38 47bb 0037 8abb
00000030: 62c8 8fbc 3da1 823c 39f4 aa3c 28ec 23ba
00000040: 2fb4 6a3c 02d5 7c3c 7204 3fba 1f98 15bc
00000050: a532 20bc 365e 2bbc 52fc 6eba ca7e 0ebc
00000060: b15c 843c f106 1abb 1428 22bb 3bd0 c8bb
00000070: 25a8 783c a82d 67bb a7d6 e23a ea14 353c
00000080: bff1 eebc 354e ccbc 1e0e c33b caa8 7abc
00000090: 9591 a43c b762 92bb 67b0 79bb 5eef 0e3c
000000a0: d033 7fbc c6e8 02bc 1858 243d 1a96 07bc
000000b0: 3b02 023c e324 abbc db3a a83b 9366 cdbb
000000c0: 150d 603c b4c4 71bc 874d 7bbc df6b daba
000000d0: 426a ae3b 6fba 033c 00f1 673c e96a c73b
000000e0: b4f5 56bc e879 e0ba cf38 d13a 0419 f23b
000000f0: f2b7 763c 1a72 82bc cf80 043c ab15 433c
00000100: ccd8 a5bb 8545 0cbd cd6b 64bb 1376 943c
00000110: 3f4e 673c 2642 163c 65cd 833c 038a 113c
00000120: 9e9a 2b3c d778 963c 1eb3 3bba bab7 8ebc
00000130: 29d7 853c 2048 8fbb 0b23 543c e85f 87bc
00000140: 7889 9c3c 7338 2c3b 28b9 9fbc 2e38 613c
00000150: 6e3d 76bc 19b0 143b bd7d 0abc cf3f 803c
00000160: ca78 da3b 7ff5 c83c a795 3fbb 96f7 963a
00000170: d5f5 90ba 847e 58bc 95aa 733c d9b9 b43b
00000180: a0f4 bd3c bb83 28bb 04dc c93b 1a53 e3bc
00000190: 9783 6b3c 6127 bd3c bbc3 593c 4f89 6c3c
000001a0: caac 163b 9957 843b 8f99 413c 739f da3a
000001b0: f95a 033d cce9 743a 4413 df3a 56c9 2c3b
000001c0: 68e9 a53b 2539 4dbc 3183 ea3c f1e4 b4bb
000001d0: 3ce6 c4bb 3f4d 243c a635 313d 7a07 8abb
000001e0: 99a0 1b3c 0405 263b fcbd bd3c 6a66 83bc
000001f0: 1d60 653c 1ebd 7cbb ba2d dd3c b779 df3b
0.008414305 -0.0011619612 -0.0013693421 0.023949768 0.0015070065 -0.0018572831 -0.0021140962 -0.0011524683
-0.018029591 0.0022470148 -0.0030398662 -0.0042179823 -0.017551605 0.015946025 0.020868408 -0.00062531466
0.014325186 0.015431644 -0.0007286734 -0.009130507 -0.0097777 -0.010459473 -0.0009116578 -0.008697221
0.01615748 -0.0023502673 -0.0024743127 -0.0061283386 0.0151768075 -0.0035275016 0.0017306403 0.01105235
-0.029168008 -0.024939636 0.0059526106 -0.0152990315 0.02008895 -0.004467334 -0.0038099529 0.008724062
-0.015576318 -0.007990068 0.040123075 -0.008275533 0.007935102 -0.020891612 0.0051339692 -0.0062683313
0.013674994 -0.01475637 -0.015338308 -0.0016664228 0.0053227255 0.008040055 0.01415658 0.0060857427
-0.013120104 -0.0017126175 0.0015962365 0.007388236 0.015058504 -0.015923548 0.008087351 0.0119070215
-0.0050612446 -0.034245986 -0.0034854293 0.018122708 0.014117776 0.009171044 0.01608915 0.008883002
0.010473875 0.018368168 -0.00071601744 -0.017421592 0.016337948 -0.0043726116 0.012947808 -0.016525224
0.019108519 0.0026278764 -0.019497469 0.013746304 -0.015029294 0.002268797 -0.00845283 0.015655426
0.006667231 0.024531124 -0.0029233487 0.0011517878 -0.0011059592 -0.013213757 0.014872213 0.005515319
0.023187935 -0.0025713283 0.006160261 -0.027749587 0.014374635 0.023090066 0.013291295 0.014437034
0.0022991174 0.0040387628 0.011816396 0.00166796 0.03206918 0.00093427 0.0017019291 0.0026365123
0.0050632246 -0.012525831 0.02862701 -0.005520456 -0.0060088914 0.0100281825 0.043264054 -0.004212317
0.009498739 0.002533258 0.02316188 -0.016040046 0.013999966 -0.003856487 0.026999343 0.0068199295

network_body._body_endoder.seq_layers.2.weight f4 [128, 128]
00000000: 822e 06bd 2a81 cfbc 05ff efbc 60d8 dfbd
00000010: d61e bb3d a887 e13d ede9 39bd d2ac 963d
00000020: 1403 263e 44e9 30bd 25e6 ad3d 1f41 0c3c
00000030: e09b 4d3d c4b0 80bd 1b87 58bd 9109 023d
00000040: 43e0 803e 588c 52bd 965d 8dbd 8815 e53b
00000050: cc5d 86bc e5f9 b1bd c71a 3a3d 698c 0b3d
00000060: 3418 b53d fbfa c0bc c0ec b83d 112f 2e3d
00000070: 92bd 01be f1ef bc3c 7729 24bd 2d7c d33d
00000080: fd0c bbbd ffe6 05bd 2b35 3cbd 3f8c 8c3c
00000090: 00c3 2c3d 2784 c73d e0b6 553d 6542 773d
000000a0: bc36 70bd cdeb 2f3d cf8f 26bc 6ec0 e2bd
000000b0: 9779 4cbd 12fb abbd 29cb 3abe 45ec b0bd
000000c0: d45b b23d 4102 f03d 0a6b 88bd dc69 28be
000000d0: 0076 c33d a6e4 1a3c 589f ac3d 363e 6ebc
000000e0: 3fd3 dabd 9a27 40bb 7e60 63be 3c94 82bd
000000f0: 7857 313e f18d 3f3e ede1 b4bc 0caf 673d
00000100: b01f 8a3d d318 c63c 900f 9fbd 2f03 e3bc
00000110: 08d2 07bd 3e5c e43c b195 b13d 490c be3d
00000120: 5c22 d83c f0e1 8ebd c47a c03d f96b 2cbe
00000130: ed4a 19be 0f51 57be 277b cc3d 9a3a dc3d
00000140: a91c b63b 34ae 0e3e 1742 11bd e4c7 b1bd
00000150: 39ae 193e dc9a 52bd 68d4 603d 1c40 413d
00000160: 2dbd 4d3d dd16 a8bd 0f10 6f3c 968b 58be
00000170: 98b1 1c3e 3a02 3e3e 5867 4ebd 6e81 493c
00000180: 0dad 0d3e 8cd0 383d b07f d43c c8a7 363d
00000190: 9773 7b3d 2dc6 2a3d e5b0 44bd 3f55 2e3e
000001a0: 5dbd 053e bcbf 6f3b 48f7 2d3a c9b6 553e
000001b0: fcf3 f23b 4bbc e93d 07dd 6cbd f42f aebc
000001c0: 9d4f 363c 642f 67bd 7e2f f13c c12a 603b
000001d0: 5088 a53d c966 d2bd 1839 d939 1e70 ce3d
000001e0: 656e 96bd 5588 7abd 5721 703c 9a90 f53d
000001f0: eb5e 8e3c a0c3 bdbd 11b2 c33c 7d33 9d3b
00000200: 4786 f8bd 839b 283e a3b4 93bd 2ba7 403e
00000210: 9b2c c3bc d62c 36be 7a9e ae3c 86a4 f73b
00000220: 6b03 a5bd 4d05 283d cde4 9bbd a6b9 d03c
00000230: 5c4b 703c 40bc 7e3c bcfe 0fbc a0f1 d43c
00000240: 677c 7dbd 9822 3c3d 0b85 1ebe f682 19bd
00000250: 3eec 463d ed84 78bc a8c2 4f3d f8d8 ec3d
00000260: 3f4a 93bd 3e2d ec3c ad37 36bd 3370 e13d
00000270: 00d4 133d c3db 80bb 0531 09be 4b20 acbd
00000280: ee66 dabc 78ff 4d3c 9085 9dbc 7436 783d
00000290: 0a4e bbbb 7a93 99bd 31bd 333b 568a d73c
000002a0: 4515 153d b717 9abc 784c 25be bc9f 40bc
000002b0: fc15 193d dc90 07bd 6995 633d dac1 a0bd
000002c0: 5d89 663e 8d15 823d 8015 0d39 a2a4 35bd
000002d0: 7463 6ebd a51c 833c 3ba4 a23d f95f 083d
000002e0: 72dc 383c da06 0abe 24fb 79bd 05ee 243d
000002f0: 2532 9b3c f37f 263e 9695 073d cde6 51bd
00000300: 61d0 06be e87a 00be eb66 c1bd c32a 063e
00000310: fc59 cfbd d26c 883c 243d b83c c1da a73d
00000320: a2eb cabc 77f9 13bc 5c24 183d 8162 30bd
00000330: e39b 84bd e7b4 153e c523 3bbd 7b87 1d3e
00000340: 0d3d d5bd 8e5f 193e f5ff 613d baad 0c3e
00000350: 0ed8 1ebd 62dc a13c 510d a3bd acb8 4c3c
00000360: 461e cabd ad36 9a3d e4d9 903c a0cf 083c
00000370: b080 77bc d2d9 933c 7c67 69bd 1630 5bbd
00000380: 56d5 7ebd 81f3 0f3d 35bd 86bc ac69 96bc
00000390: 4e8d b7bd af59 9abd 1090 853d bf27 53be
000003a0: f1c2 763d d3e2 313c b841 91bd 01d4 9abc
000003b0: a86f 4a3d ab71 abbd 24d4 6c3d 4e5b 763d
000003c0: d89b 8d3b dc10 c7bc 0b7e d5bd d33e 113b
000003d0: 28af 1c3e bf94 1c3d e8f5 873d 00f4 6d3d
000003e0: e444 72bd 4334 933d 8c55 47be cd47 c3bd
000003f0: 9c34 ab3c 83be 0c3e c046 db3c 49a0 0a3d
-0.032759197 -0.025330145 -0.029296407 -0.10929942 0.09136741 0.110122025 -0.045389105 0.073571816
0.16212112 -0.04319121 0.08491162 0.008560448 0.050197482 -0.06283715 -0.05286322 0.031747404
0.25171098 -0.051403373 -0.06902616 0.006991092 -0.016402148 -0.08690242 0.045435693 0.034069452
0.08842507 -0.023557177 0.090295315 0.042525355 -0.12669972 0.023063632 -0.040078606 0.10326419
-0.09133337 -0.032691 -0.045949142 0.017156718 0.042178154 0.09742003 0.052176356 0.060366053
-0.05864595 0.042949487 -0.010166123 -0.11071859 -0.049920645 -0.08397497 -0.18241562 -0.08638815
0.08708921 0.1171918 -0.06661041 -0.16446632 0.09543991 0.009453928 0.0842883 -0.014541199
-0.10684823 -0.002932048 -0.22204778 -0.0637593 0.17318523 0.1870649 -0.022080386 0.056563422
0.06744325 0.024181759 -0.0776664 -0.027711479 -0.033159286 0.027876016 0.086711295 0.09279687
0.026383571 -0.06976688 0.09398416 -0.16838063 -0.14969988 -0.21027015 0.09984427 0.10753365
0.005557616 0.1393364 -0.03546342 -0.08680704 0.15007867 -0.051417217 0.054890066 0.04718028
0.05022924 -0.08207486 0.014591231 -0.21146998 0.15302122 0.18555537 -0.050391525 0.012298925
0.13835545 0.04512076 0.025939792 0.044593602 0.061389532 0.0416929 -0.048020262 0.17024706
0.13060518 0.0036582788 0.0006636274 0.20870508 0.007414339 0.11412867 -0.057827976 -0.0212631
0.01112738 -0.05644168 0.029441591 0.003420517 0.0808264 -0.10273511 0.00041432003 0.100799784
-0.07345275 -0.061165173 0.014656386 0.11990471 0.017379245 -0.09265828 0.02388862 0.0047973976
-0.12134986 0.16465573 -0.07212188 0.1881377 -0.02382498 -0.17790541 0.021315802 0.0075574545
-0.080572926 0.04102068 -0.07612 0.02547915 0.014666405 0.015547812 -0.008788761 0.025994122
-0.061886217 0.04593143 -0.1548044 -0.03747841 0.04856514 -0.015168411 0.050722748 0.11564821
-0.07191896 0.028830167 -0.04448669 0.110077284 0.03609085 -0.0039324476 -0.13397606 -0.08404597
-0.026660409 0.0125731155 -0.019228727 0.060598806 -0.00571609 -0.07498832 0.0027426 0.02631108
0.036397237 -0.018810136 -0.16142452 -0.011756834 0.03737448 -0.033097133 0.05556241 -0.07849474
0.22513337 0.06351767 0.00013454817 -0.04434646 -0.058200315 0.01600487 0.07941481 0.03329465
0.011283027 -0.13479176 -0.061030522 0.040266056 0.01894481 0.16259746 0.03310164 -0.0512455
-0.13165428 -0.12546885 -0.09443458 0.1310225 -0.10124585 0.016653452 0.022490092 0.08196021
-0.024770562 -0.009031645 0.03714405 -0.04306269 -0.064750455 0.1461979 -0.04568841 0.15383713
-0.10412035 0.14977857 0.05517574 0.13738146 -0.038780265 0.019758407 -0.07961524 0.012495201
-0.098690554 0.0752996 0.017682023 0.008350283 -0.015106365 0.0180482 -0.056983456 -0.053512655
-0.06221517 0.035144333 -0.016447643 -0.018360935 -0.089624986 -0.07536637 0.06521618 -0.2062063
0.060244504 0.010857302 -0.07092613 -0.01889992 0.04942289 -0.0837129 0.0578195 0.06014567
0.0043215565 -0.024300031 -0.104244314 0.002216269 0.15301192 0.038227793 0.066387 0.058094025
-0.05914773 0.071877025 -0.19466227 -0.09535179 0.02089911 0.1374455 0.026767135 0.033844266

network_body._body_endoder.seq_layers.2.bias f4 [128]
00000000: ae97 a1bc 7e87 4b3c f6f1 92bb 3057 7dbc
00000010: f1a1 3b3c 4efb 39bc ecd7 e0bb 2ec9 ee3a
00000020: 6d7c 0fbc 996f 783c b32d 1e3c cf6f a1bb
00000030: 7279 0dbc 0530 853b 0368 4039 ec2a 1039
00000040: 9a0e c93c c521 0c3b aaa7 27bc 0729 b0bb
00000050: 47bf ce3b b6b3 393a 1ac2 d1bb 86c6 a9ba
00000060: 0c00 7a3c d405 913b cb16 d73b df62 7cbc
00000070: ba2a f33b aa00 923c 8e10 efbb fe23 333c
00000080: 84c4 fbbb 7ca1 6e3b 29a7 4d3c ab04 2ebc
00000090: 960b 02bb 2e35 ebbb e4e7 cf3b 51e9 fe3b
000000a0: f762 b7bb 2ab2 e93b 0332 25bb 6f7e 863d
000000b0: 6a33 113c 3d2f 6a3c 3667 933a 6ec8 b73b
000000c0: 3b11 eebb 7f0a c4bb abb6 b93b 898f 42bc
000000d0: 121d a8bb 017f 1d3c bcc1 2d3c 043c 46ba
000000e0: 9566 88bb 36aa cd3b 53b5 1fbc eb63 99bb
000000f0: be8b 1e3c 8de0 4bbc 0566 bd3c 8e81 efbb
00000100: 053f 783b d8e9 653c a927 adbb d1d1 afbb
00000110: 2147 893c 0689 2f3c feea b7ba 77e0 86bc
00000120: 449e 2cba 8b27 883c 8d3a 173c 1396 873a
00000130: 09db 62bc 7a0f 9cba 039e 813b 67ce d1bb
00000140: 698d b03c c0ed 263c 1b32 dd3b dced 93bb
00000150: 61db c1bb 395a b9ba 8c6f 533c 0577 353b
00000160: 341b 3bbc 9fa7 a53c 4d99 613a 3a28 35bb
00000170: e4e8 6bbb 1514 6a3c b569 04bb 9868 e3bb
00000180: aa72 42bc b035 4f3c d19d 1a3c c997 573c
00000190: a24e da3b 5fad 1b3c 168a f3ba f362 85bb
000001a0: 5e43 11bc 5f35 713c 567f 6c3b 9f66 f63a
000001b0: fce2 f7bb d885 b33a 72b3 2fbb 27f8 83bb
000001c0: 3be1 1c3b 9325 223b 4770 b4bb 075b 9abb
000001d0: db7c a43c e8ab 2e3c 6a11 933a 418c 2abc
000001e0: 7bb0 c3bb 64f4 47bb 25d5 283c 1d59 eabb
000001f0: 8547 99bb ab29 783b 1045 97bb 475e 9739
-0.019725647 0.012422441 -0.0044844104 -0.015462682 0.011452184 -0.01135142 -0.0068616774 0.0018217915
-0.008757693 0.015163326 0.00965445 -0.0049266587 -0.008634912 0.0040645623 0.00018349294 0.000137489
0.024543095 0.0021382433 -0.010232845 -0.0053759846 0.006309423 0.0007083969 -0.0064013125 -0.0012952841
0.0152588 0.0044257436 0.0065639964 -0.015404432 0.007420865 0.017822582 -0.0072956746 0.010933874
-0.0076833386 0.003641217 0.012552061 -0.01062123 -0.0019843332 -0.0071779704 0.006344782 0.0077792783
-0.0055965143 0.0071318345 -0.0025206811 0.06567084 0.008862356 0.014293489 0.0011245969 0.00560861
-0.0072652376 -0.0059826965 0.0056675277 -0.011875042 -0.0051304186 0.0096128 0.010605272 -0.00075620436
-0.0041626194 0.0062763942 -0.009747821 -0.0046811006 0.009676872 -0.012443674 0.023119936 -0.0073091453
0.003787936 0.0140328035 -0.005284269 -0.0053655882 0.01675755 0.010713821 -0.0014031825 -0.016464455
-0.0006584863 0.016620418 0.009230268 0.0010344408 -0.013846167 -0.0011906468 0.003955604 -0.006402779
0.021551805 0.01018852 0.006750358 -0.004514439 -0.0059160446 -0.0014141268 0.012905013 0.002768935
-0.01142006 0.02022153 0.00086059124 -0.0027642385 -0.0035996968 0.0142870145 -0.0020204608 -0.006939959
-0.011868158 0.012647077 0.00943704 0.013158747 0.006662206 0.009501784 -0.0018580582 -0.0040706336
-0.008866159 0.014722197 0.003608664 0.0018798894 -0.0075649004 0.0013696505 -0.0026809839 -0.004027385
0.0023937959 0.0024741634 -0.0055065486 -0.0047105583 0.020079067 0.010661103 0.00112204 -0.010409416
-0.005971966 -0.0030510658 0.010304724 -0.0071517364 -0.0046777152 0.0037866633 -0.004616387 0.00028871206

action_model._discrete_distribution.branches.0.weight f4 [3, 128]
00000000: c50a 803c 41c7 93bb 5f68 f13a 1bf5 7aba
00000010: d049 193a f023 1ebc 321a dbbb d380 95bc
00000020: 274c 6dbc d6e9 8fba 3cbd d739 dbb9 cf3b
00000030: b326 b0bb 38ef 483c 88fc b5bb 0edb 3abc
00000040: 7a6d aa3c 6608 89bb 85b4 263c 1a5c 2abb
00000050: 8c3a 36bc d395 30ba 4fce af3b 91ab 043c
00000060: 09ce 7fbb f0a6 053c 1e58 0ebb c564 54bc
00000070: fe20 453b 1279 bfbb 9aa0 143b a072 febb
00000080: 902f 103b 78e2 c03b 72a5 ee3b d959 d0ba
00000090: 8061 fcbb 5174 9bbb e410 28bc 3978 893c
000000a0: a0ff 0fbc dc6f ab3c cc19 f0bb 2306 8ebb
000000b0: 8cdb c43b ca14 563c f259 813a de9e f63b
000000c0: 8794 65bc 8c3d 97bc 7601 163c 33ed 4cbc
000000d0: a1b2 5b3b e43d 48bc c89d 60bc 1537 4ebb
000000e0: 06be 773b b6f8 97bb 4b4c 83bc 7489 d6b9
000000f0: d65f fcb9 460b ebbb f298 e33a 8e96 e5bb
00000100: eabe 24bc 9bd0 e03a 2085 4bbc 094e e9ba
00000110: 3955 c0bb 6bf8 b33c df70 b83b 1e60 0bbc
00000120: de77 af3a 4ddf 12bc 938f a5bc fc89 f3bb
00000130: 5b16 473b 3b7e 24bc 22b1 473b 7847 8dbb
00000140: cf98 7cbb 324d 1cbc be1f 263b 38f1 21bc
00000150: 4ab4 e1bb 1c62 313c 11a7 09bc 3564 20bb
00000160: bbb6 ac39 3282 27bc f5eb acbc e2d7 28bc
00000170: 9b83 a2bb fd4c 03bc 4fe9 baba 53dc 1cba
00000180: 259c e83a 36dd 8abc a4af 92bc 28c5 1b3c
00000190: 1f5e 3c3c c2a8 4ebc aec7 86ba 0a84 5e3b
000001a0: cac6 a93c 980a 5a3c d709 053c 0cc5 023c
000001b0: dd7c 54ba 0283 19ba accf 31bc cde8 833c
000001c0: e7d2 703c e61f 42bc d823 8c3b 4117 a0bb
000001d0: 6c88 90bc 89cc a13b 3c75 873a a205 b9b9
000001e0: 03c5 873a e85e ee3b 72f9 30ba 3a90 68bc
000001f0: cfae 0fbc 709a 7b3c 4c8b 103c 403c 0a3c
00000200: 4a46 e33b 985d 29bb 5a7b 52bc 724f ca3b
00000210: 283a 9c3a 28ee 513c d08e 7e3b eb69 a9bb
00000220: 73bf dcbb 97b9 02bc 792c 17bc 177f eebb
00000230: 2a64 f5bb d90c 263c 6cb0 353c 41f8 1c3b
00000240: ab84 7bbc 53f7 513b 959d 73bc eeb6 2f3c
00000250: d3f1 1e3c 33ac b9bb 3a54 843b 4ffb 8fba
00000260: 5fd8 be3b c06b 6b3b 772a fdba 86ae b1bb
00000270: 5f72 3bbb 7bed 303c b2f4 d8bb 7e88 873c
00000280: 4db7 52bc 04b4 30bc 3095 28bb ec3f 20bc
00000290: 4b3b 46bb bc3a bb3b de2b 273c fd73 6bb9
000002a0: 0dba b83b 2c4f 8abc a28e 47bc 7191 bb3c
000002b0: 1748 ae3c d39e 783b 3ff2 69bb dd5b e4ba
000002c0: ae40 19bb 25ad a63b 325e 783c 156f 123c
000002d0: 4bb7 6abb e353 c6bb c88a 723c 2336 38bc
000002e0: 43a2 2bbc 1d48 9f3b d023 b93a 33b9 afba
000002f0: a07a 41bc 4495 c43c 9be4 c5bb 3b30 c8b9
00000300: 61eb 23bc afa2 88bb cc1e 213b 876e 453c
00000310: 7751 9bbb e6ae a23b 1909 1cbc 7f96 10bc
00000320: 9cc7 a1bc 4802 0bbc c77d 5cbc d564 3dbc
00000330: 898b c03b 7570 5bbb 4bff a8ba d32f 5f3b
00000340: 2e3a 1f3c 9e11 033c 7ca7 a8bb 2771 3abc
00000350: fca4 263b 7994 343c d36a d93b b10c 173c
00000360: a3c4 be3b a7af 04bc 6508 1d3c 1fb4 99bb
00000370: efc6 1639 132a a5bb 1827 77bb 77d1 b63b
00000380: fac7 b7bb 5c88 a2ba 33a2 a13b 21c7 1b3b
00000390: b31e 913a 1262 fc3b 2b25 00bc 2bb7 5a3c
000003a0: f19b 27bc a962 803c 2784 dcbb e6bf 13bc
000003b0: 385d 363c 3b5c 5b3c dbd4 463a 71bc 8e3a
000003c0: 8fa9 8fbb 8feb 813b f779 99b9 60aa 2b3b
000003d0: 1dcc 6c3c 3d64 673c 6a48 ff3b e3ec ca3a
000003e0: 6ad0 b33a a9b9 00bc a731 2ebc 5799 55bc
000003f0: 9f3d 6ab9 f161 8c3b ab03 a2bc 3a77 0b3c
0.015630135 -0.004509837 0.0018417946 -0.0009573267 0.0005847486 -0.009652123 -0.0066864723 -0.018249905
-0.014483488 -0.0010979723 0.00041148986 0.0063392944 -0.005375707 0.012264065 -0.0055537857 -0.011404766
0.020804156 -0.0041819094 0.010174875 -0.0025994838 -0.011122357 -0.0006736193 0.00536517 0.008097545
-0.0039032719 0.008157477 -0.0021720002 -0.012963478 0.003007948 -0.00584329 0.0022678734 -0.007765129
0.0022001006 0.005886372 0.007282906 -0.0015895917 -0.0077020526 -0.0047440906 -0.010257933 0.01678096
-0.008788973 0.020927362 -0.007327294 -0.0043342276 0.0060076173 0.01306648 0.0009868725 0.0075262627
-0.014012462 -0.018461965 0.009155622 -0.012507725 0.003352322 -0.012221787 -0.013709493 -0.0031465937
0.0037802472 -0.004637803 -0.01602759 -0.0004091967 -0.0004813659 -0.0071729748 0.0017364307 -0.007006473
-0.010055283 0.0017152013 -0.012421876 -0.0017799746 -0.0058695343 0.02196904 0.0056286897 -0.008506803
0.0013387164 -0.008964372 -0.020210063 -0.0074322205 0.0030378315 -0.010039861 0.003047057 -0.0043114983
-0.003854323 -0.009539889 0.002534851 -0.009884171 -0.006887947 0.010826614 -0.008401648 -0.002447379
0.0003294254 -0.010223912 -0.021108607 -0.010305377 -0.0049595363 -0.008013961 -0.0014260205 -0.00059837586
0.001774673 -0.016951185 -0.017906018 0.009507455 0.01149705 -0.012613477 -0.0010282898 0.0033953213
0.020724673 0.01330819 0.008120022 0.00798155 -0.0008105764 -0.00058560085 -0.0108527355 0.016102219
0.014698721 -0.0118484255 0.004276734 -0.0048855846 -0.017643176 0.0049377126 0.0010334621 -0.00035290146
0.0010358397 0.0072744973 -0.00067510374 -0.014194543 -0.008769705 0.015356645 0.008822273 0.008437216
0.0069358693 -0.002584314 -0.012846792 0.0061740214 0.0011919187 0.0128131285 0.0038842447 -0.005170097
-0.0067366897 -0.007978818 -0.009226912 -0.007278334 -0.007488747 0.010134899 0.0110894255 0.0023951682
-0.015351455 0.0032038286 -0.014869113 0.010724766 0.00970121 -0.0056662797 0.004038361 -0.001098493
0.0058241333 0.0035922378 -0.0019315024 -0.005422416 -0.0028602106 0.010798807 -0.006620967 0.016544577
-0.012861085 -0.010785107 -0.0025723688 -0.009780865 -0.0030247744 0.005713789 0.01020333 -0.00022454555
0.0056374134 -0.016883455 -0.012180002 0.0228965 0.02127461 0.0037936463 -0.0035697368 -0.0017422397
-0.00233845 0.0050865584 0.015159177 0.008937617 -0.0035814818 -0.0060524805 0.014803596 -0.011243376
-0.010475698 0.0048608915 0.0014125053 -0.0013406634 -0.011809021 0.023996957 -0.006039215 -0.00038182907
-0.010004849 -0.004169784 0.0024585007 0.012050278 -0.004739936 0.004964697 -0.009523653 -0.008824944
-0.019748501 -0.008484431 -0.013457722 -0.011559685 0.005876009 -0.0033483778 -0.0012893466 0.0034055605
0.009718461 0.007999806 -0.005146919 -0.011379517 0.0025427928 0.011021727 0.006635049 0.009219334
0.005821781 -0.008098519 0.009584521 -0.0046906616 0.00014379223 -0.005040416 -0.003771251 0.0055791694
-0.005608556 -0.0012400257 0.0049326657 0.0023769813 0.0011071771 0.0077021206 -0.0078213615 0.013349335
-0.01023005 0.015672045 -0.006729621 -0.00901792 0.0111306235 0.013388689 0.00075848185 0.00108899
-0.0043842266 0.0039648484 -0.00029273305 0.002619408 0.014452961 0.01412302 0.007790615 0.0015481975
0.0013718728 -0.007856765 -0.010631955 -0.013037047 -0.00022338935 0.0042841365 -0.01977714 0.008512313

action_model._discrete_distribution.branches.0.bias f4 [3]
00000000: 478c 34b8 0000 0000 6e8c 3438
-4.3045988e-05 0.0 4.304613e-05

action_model._discrete_distribution.branches.1.weight f4 [2, 128]
00000000: ac81 49bb 15ba 20bc ffb8 a23b f545 bb3b
00000010: f204 5cbc 454e bcbb 8ec3 773c 4c66 373c
00000020: 91cd 0a39 ac8a 863c d552 2c3c 2f46 e93a
00000030: 7ef7 cfbb f067 a43b bcb4 a3bc 7fcc ec3b
00000040: 5317 623d 67ff 3a3c dd46 023c ba5e a3ba
00000050: 3d93 db3c 94e5 46bb a6a6 5d3c 7887 5ebb
00000060: ad66 42bd aba5 2e3c f4e6 6dbc 4845 dc3a
00000070: d85c 42bc 5995 2fbd 5717 28bb dd17 f6bb
00000080: 07b5 043c ff41 e93a 12b5 10bc d6c5 bbbb
00000090: 0038 d8bb 921b 173c 6afe 6a3c 5e69 f03c
000000a0: 6fc0 c7bb 03ab 103b c615 543b 6489 d53d
000000b0: e41c 05bc 48ae 913c 0004 593c c825 413b
000000c0: eaac 9cb9 dfbf 233c 524e 5dbc a159 3cbb
000000d0: a084 a4bb 3b05 b13c 23b4 adbc bf60 a63b
000000e0: f120 70bc 838d 2ebc 918f 3bba 3e7b fbbb
000000f0: 9dcc 31bc 85ae bc3b baf6 25bd 8369 52bc
00000100: 46d9 b73c 8680 0ebc 1337 1f3c 6f1b 16bc
00000110: 47fb 8c3c 61c5 5b3c f233 c2bb 6707 0e3a
00000120: 3199 263b 0b4f 363c 0284 73bc 7fd7 853c
00000130: df41 1a3c 20d9 95bc 47cd d9bc 4b61 2e3c
00000140: 44f9 533d ebb0 4b3d dfee 3c3b bd86 fabb
00000150: fbde 4fbc e221 de3c ead9 85bc 935d 073c
00000160: 5ceb 03bb afdf 35ba c228 81bc 92ce 623c
00000170: 4a60 4fba fe2c 8a3c 6b60 c7ba 4ee9 1e3c
00000180: 3804 3e39 d471 28bc df57 2e3c 4fff ce3c
00000190: dfc6 8bbc d30f e1b9 bcaf 81bc 0436 973b
000001a0: 5bbb 89bb ea7a 0ebc c9b8 1ebc 33b3 81bc
000001b0: 2ab0 84bb 862e cdbb 51c0 3ebc 35ac 0d3b
000001c0: 66e7 49bb fcc9 843c 7502 a43c e2db fbbb
000001d0: 6940 bebc 8c4a abbc 3ed2 12bc 3532 1c3b
000001e0: 09a6 ddbb 043b 1cbc 801e 8cbc 00c4 a039
000001f0: 8d4d 5a3c 6aee e5bc c32b b1bb 348d c23c
00000200: 1276 5ebb 1e29 d33b a38c 27bc 663e b939
00000210: a6d6 eb3a 0952 75bb 8c14 8dbc 98a5 213b
00000220: 9def fdba ab4d 36bc aedb 6f3c aebe 133c
00000230: bbf6 413c fd9d 903b 8d54 56bb f847 003c
00000240: 3bad 5dbd 392f 87bc 6a73 f4bb 2c32 183c
00000250: e4a4 ebbc 7652 8e3b 91d7 1dbc 5fc5 803b
00000260: 80a4 513d c84c 44bc 34ca 6a3c bda8 80ba
00000270: fac3 8a3c f9fd 163d 3793 673c ca3f 073c
00000280: bca0 5f3c 7e84 6c3c a1f5 473d 0c79 5ebb
00000290: f310 be3c 4663 3f3a 5ab9 4abc 9a1e 2bbc
000002a0: c419 f03b afa7 4b3b 3215 893c 6c1f bebd
000002b0: 897a babb 4643 47bc 631c 64bc f701 d13b
000002c0: 02fd 603c f169 31ba db05 0b3a 6bfd a5bb
000002d0: 164f 353c a78c 4dbc 86d8 b63c 950f f83b
000002e0: 3b06 933c 0421 86bb 7c60 5b3b dcc1 5abb
000002f0: f8c0 693c c2eb 98bb 87fd 303d 8c39 8fbc
00000300: 1cea ccbc c851 0b3d 6001 f73b 83c4 2cbc
00000310: a0fb 18bc 0bd8 c3bb 868d 0fbc 065c 79bb
00000320: bc31 56ba 76f5 193b 5223 533c 222e 123c
00000330: a09d a63b a89e dbbb ad1c 073c 5445 b73a
00000340: a3fc 06bd ee72 2bbd 654f 043c ff11 203b
00000350: da8c 743b 8eea 873b 3a9e 883c b341 0abc
00000360: adfa 7cbb ee0e 3c3c d5cf 923c 1603 17bc
00000370: 4ba9 a2bc 21e5 96bb 884f 9bbb a28a 8bbb
00000380: ab54 243a 05d8 793c f5ee a4bc 6763 dbbc
00000390: bcf0 333c 3ce2 f43b 75f6 9e3b 15e9 41bc
000003a0: 6125 b9bb d616 af3c 8299 503a edd1 0ebb
000003b0: ae7b a5ba 5e22 02bb 63c9 e93b 2717 e43b
000003c0: 6dc6 d53b 88e4 9cbc 762a a0bc f238 feba
000003d0: 0df6 c63c 94da a8bb d438 8abc 681c 12ba
000003e0: 9007 883b e91c c83b efe4 873c 3d41 90bb
000003f0: 5bd8 22bb 669f 2e3c c06c b83a 1c82 17bc
-0.0030747456 -0.00980999 0.004965901 0.0057151266 -0.013428913 -0.005746635 0.015122307 0.011193823
0.00013237285 0.016423546 0.010517796 0.0017797406 -0.006346642 0.005017273 -0.019983642 0.0072265263
0.055198025 0.011413432 0.007951465 -0.0012464144 0.026803607 -0.0030349242 0.013528502 -0.0033955257
-0.0474612 0.0106596155 -0.014520396 0.0016805315 -0.011862956 -0.04286704 -0.0025648677 -0.007510169
0.008099801 0.0017796158 -0.008832233 -0.005730371 -0.0065984726 0.009222882 0.014342884 0.029347118
-0.006095938 0.0022074587 0.003236161 0.10426596 -0.008124564 0.0177833 0.013245583 0.0029471982
-0.0002988347 0.009994476 -0.013507443 -0.0028739946 -0.005020693 0.02160894 -0.02120406 0.005077451
-0.014656291 -0.010653856 -0.0007154877 -0.0076746037 -0.010852006 0.005758109 -0.0405185 -0.012842539
0.022442471 -0.008697635 0.009717721 -0.009161814 0.017209662 0.013413758 -0.0059266025 0.0005417973
0.00254209 0.011127244 -0.014863016 0.016338108 0.009415119 -0.01829201 -0.026587142 0.010643314
0.05175139 0.04972927 0.0028828902 -0.0076454566 -0.01268744 0.027115766 -0.016339261 0.008262056
-0.0020129299 -0.00069379335 -0.015766505 0.0138431955 -0.00079107715 0.016867157 -0.001521123 0.009699179
0.00018121384 -0.010281045 0.010641067 0.025268225 -0.017062603 -0.00042927134 -0.015830867 0.0046145935
-0.0042032427 -0.008696297 -0.009687611 -0.01583252 -0.0040493207 -0.0062616495 -0.0116425315 0.0021617536
-0.003080809 0.016209595 0.020020703 -0.007686124 -0.023224073 -0.02090957 -0.008961258 0.0023833637
-0.0067641777 -0.009535555 -0.017104387 0.0003066361 0.013324154 -0.028067786 -0.005406828 0.023748972
-0.0033944887 0.0064441105 -0.0102264015 0.0003533244 0.0017993047 -0.003743293 -0.017221712 0.0024665352
-0.0019373778 -0.011126916 0.014639778 0.00901763 0.01183861 0.004413365 -0.0032704205 0.007829659
-0.054120284 -0.01650201 -0.0074600475 0.009289306 -0.02876515 0.004343326 -0.009633915 0.0039297785
0.05118227 -0.011981197 0.014330436 -0.0009815913 0.016939152 0.0368633 0.01413422 0.008254955
0.013649162 0.0144358855 0.048818234 -0.0033946661 0.023201441 0.00073008647 -0.012373293 -0.010444308
0.0073272903 0.003107529 0.01673374 -0.09283337 -0.005690877 -0.012162035 -0.013922784 0.006378408
0.013732197 -0.00067678007 0.0005303302 -0.00506561 0.011066219 -0.012545741 0.022320043 0.007570217
0.017947307 -0.0040932912 0.0033474257 -0.003337971 0.014267199 -0.0046667764 0.043210533 -0.017483495
-0.025013976 0.03401354 0.0075380057 -0.010544899 -0.009337336 -0.005976682 -0.008761769 -0.0038049235
-0.0008170863 0.0023492253 0.012886839 0.008922132 0.0050847083 -0.006702263 0.008246583 0.0013982453
-0.032955777 -0.041857652 0.00807557 0.002442479 0.00373154 0.004147834 0.01667701 -0.0084385155
-0.0038601563 0.011478169 0.017921368 -0.009217044 -0.019856116 -0.004604951 -0.0047397055 -0.0042584697
0.000626872 0.015249257 -0.020133475 -0.026780797 0.0109826885 0.0074732583 0.0048511573 -0.011835356
-0.005650208 0.021373194 0.0007957445 -0.0021792606 -0.001262536 -0.001985691 0.007134603 0.006960768
0.0065238983 -0.019151941 -0.019551497 -0.0019395633 0.024287248 -0.0051530097 -0.0168728 -0.0005573691
0.004151292 0.006106962 0.016588656 -0.0044023083 -0.0024848196 0.010658121 0.0014070496 -0.009247329

action_model._discrete_distribution.branches.1.bias f4 [2]
00000000: 7c12 84bb 7712 843b
-0.004030524 0.0040305215
