results/FinalAi/BossAi/BossAi-195233.onnx (onnx, 79397 bytes, 9 tensors)

discrete_act_size_vector f4 [1, 2]
000000 00 00 40 40 00 00 00 40
       3.0 2.0

network_body._body_endoder.seq_layers.0.weight f4 [128, 6]
000000 86 77 85 bf 2f 6d 67 bd 80 14 77 bd 97 9f 8e 3d
       -1.0427101 -0.05650061 -0.060322285 0.06964033
000010 70 9d 38 3f 3d 6f d3 be 48 03 30 be 93 a4 c2 be
       0.7211523 -0.41295806 -0.17188752 -0.38016185
000020 29 aa 75 be 40 5c 5c 3f f9 58 4f 3e 49 b6 cd be
       -0.23990692 0.8607826 0.20248784 -0.40178135
000030 a7 0e 04 3f f0 a1 8c 3e 68 2a 9f 3d 3f 86 30 3e
       0.5158486 0.27467299 0.0777176 0.17238711
000040 a7 1e de 3e 86 e8 2a bf 99 49 0b 3e 4f 87 b4 3e
       0.4338276 -0.6676105 0.13602294 0.35259482
000050 e9 e9 f7 3d 0d 34 1f 3d 88 60 8d be 41 a8 1e be
       0.12105162 0.038868 -0.2761271 -0.15493871
000060 ff af b3 3e f2 1a 08 be f6 db 85 3e 07 05 3d bf
       0.35095212 -0.13291529 0.2614438 -0.73835796
000070 aa 82 0b 3e bc e3 3e 3f a7 fb 54 be 5b 42 8c 3e
       0.13624063 0.74566245 -0.20799123 0.27394375
000080 8b 3c 09 3f d6 a5 18 3f 41 49 23 be 34 a0 07 3f
       0.53608006 0.59628046 -0.15945913 0.52978826
000090 8a 19 9d be 0b 05 c0 3e 95 cb f5 bc ba c1 ba 3e
       -0.30683547 0.37503847 -0.030004302 0.36475927
0000a0 27 d2 22 3f cb b5 5b bf 74 06 2c bf 5d 78 bc 3a
       0.6360192 -0.8582427 -0.67197347 0.0014379133
0000b0 a2 53 3f 3e d3 1c 52 3e ac ef c0 3e 0b 22 0c be
       0.18684247 0.20518808 0.37682855 -0.13684861
0000c0 98 3d 10 3e cc 5c a6 be 13 93 4a 3e a3 8f dc 3c
       0.14085996 -0.32492673 0.19782667 0.02692396
0000d0 b4 98 a0 be 2b 3f 3f 3f b7 d7 9c be 6c 91 c5 be
       -0.31366503 0.7470576 -0.30633327 -0.3858751
0000e0 1d 59 8e 3d 2a 3e 83 bd 35 b6 cc 3e de e0 d3 be
       0.06950591 -0.06408341 0.39982763 -0.41382498
0000f0 bb 32 65 bd 60 8d 96 be 52 a2 d3 be 44 ba 19 bd
       -0.055956583 -0.29404736 -0.41334778 -0.037531152
000100 dc 78 53 be 1b dc 1b bf bb fd d3 be c8 92 1f 3c
       -0.20651573 -0.6088273 -0.41404518 0.009739585
000110 db 17 3f bf 45 52 55 bd 9a 87 d9 bd ea b7 b8 3e
       -0.74645776 -0.05208041 -0.10621567 0.36077815
000120 57 b2 07 3f 62 78 4c 3f b6 7a b6 3e 70 9e 93 3e
       0.530065 0.7987119 0.35640496 0.28831816
000130 ad 00 6c 3e 92 09 c8 3e 2f 58 f7 3e 03 a0 76 3e
       0.23047133 0.39069802 0.48309466 0.24084477
000140 53 1c 12 3f c6 57 36 3e f1 40 bd 3e 6d 97 8a bf
       0.5707447 0.1780692 0.3696361 -1.0827461
000150 b6 38 19 3f 23 58 51 be 62 13 f3 be 0a b6 08 3e
       0.5985216 -0.20443778 -0.47475725 0.13350692
000160 d2 47 f4 3e 44 ed 44 be 15 85 67 3e f8 d9 08 3f
       0.47711045 -0.19231135 0.2260936 0.53457594
000170 9b bb 07 bf 62 f8 bd 3e 61 9b 2b bc ed fe 16 3d
       -0.5302064 0.37103564 -0.010474057 0.03686421
000180 e2 cd 31 be a7 9d 82 be 81 bf 66 bc fe a8 78 3c
       -0.17363694 -0.25510904 -0.014083744 0.01517701
000190 7e 10 49 bf 64 8f f9 be 71 58 81 3e 7d bb e5 be
       -0.7854079 -0.4874221 0.25262788 -0.44869605
0001a0 8d 61 21 3f 8f d9 a1 3e 8a 7e ac 3e be 17 58 bc
       0.63039476 0.31611297 0.33690292 -0.013189254
0001b0 07 41 18 3f 58 d8 d8 be 88 42 9b 3c 6b da 2f 3e
       0.59474224 -0.42352557 0.018952623 0.17173164
0001c0 1f c9 95 bd a3 36 a8 3e 4f ec 6b be 22 5b 2d 3e
       -0.073137514 0.32854185 -0.23039363 0.16929296
0001d0 81 c9 22 3e ae 90 c8 3e 7a 9e 0b 3f 68 0a 19 bf
       0.1589718 0.39172882 0.5453869 -0.59781504
0001e0 52 e5 20 bc ba 8c 1b 3f 93 30 cc 3e 67 1d d4 be
       -0.009820299 0.60761607 0.3988081 -0.41428682
0001f0 1d b5 8c 3e e4 cf a4 be e8 7e 6e 3e 8f 50 68 3e
       0.27481928 -0.32189858 0.23290598 0.2268698
000200 17 a7 f1 3c aa 07 0c 3f c2 c1 ed 3d e5 b8 76 bf
       0.02949862 0.54699194 0.11609222 -0.96375877
000210 92 d5 23 3e e1 93 c1 bd c6 79 3c 3f e8 ed 61 3f
       0.1599944 -0.09452034 0.7362331 0.8825364
000220 d2 35 0c bf 81 d2 03 3e ac 3f 87 be 55 9b 75 3f
       -0.54769623 0.1287327 -0.26415765 0.9594014
000230 ca 70 e4 3e 71 a3 bc be de ca 47 3f d1 db 2e be
       0.446173 -0.36843446 0.78043926 -0.17076041
000240 cf bf d7 bd f9 df 81 3e d9 99 d8 be 91 ac 0b be
       -0.105346315 0.2536619 -0.42304876 -0.13640048
000250 a0 85 c8 3e 3f 82 04 3f f2 02 79 be 0d b2 19 bf
       0.39164448 0.5176124 -0.2431753 -0.6003731
000260 02 a7 a4 be 12 19 ac 3e f9 6f 80 be b5 29 ce 3e
       -0.32158667 0.33612877 -0.25085428 0.40266195
000270 a5 fd d8 3e 62 6f 9f 3e 77 4a 09 3f e3 de d4 be
       0.42381015 0.31139666 0.5362925 -0.415763
000280 16 19 ab be 99 2d 8b 3d 79 24 5a 3f 0a 2c 21 3f
       -0.33417577 0.067958064 0.852119 0.62957823
000290 0a ba 28 be ea fa 44 bd 12 6c 97 be 7a 7d 9f 3e
       -0.16477218 -0.048090853 -0.2957464 0.3115042
0002a0 1b ff 9f be 28 6b 75 be 3f b8 e5 3e 34 9e a7 be
       -0.31249318 -0.23966658 0.4486713 -0.32737887
0002b0 92 8d 1f 3e c0 44 c2 bd 71 92 70 be 11 b0 6c be
       0.15581349 -0.09485769 -0.23493363 -0.23114039
0002c0 dc 36 fa bd 19 97 49 bf 90 72 ea be 02 76 f3 3e
       -0.12217495 -0.7874618 -0.4579053 0.4755097
0002d0 b8 21 5b 3d ab c6 52 be c0 c7 43 3d cf ba b4 3e
       0.053498954 -0.20583598 0.04779792 0.35298774
0002e0 97 bf 64 3f 19 20 4c 3e 7f b5 52 3e ea f0 94 be
       0.8935484 0.1993412 0.20577048 -0.29090053
0002f0 b9 06 3b 3f 4f 9c da bd 00 ea 89 3d cf e9 33 be
       0.7305713 -0.10674345 0.06734085 -0.1756966
000300 43 0e 63 3e 39 6f 1c be bc 8b 4c 3e 9a 32 f4 be
       0.22173409 -0.15276803 0.1997518 -0.47694856
000310 87 fa a4 be 4e 70 02 3f 9b 48 b7 3e e9 72 6f be
       -0.32222387 0.50952613 0.3579758 -0.23383678
000320 19 79 66 3e 2d c9 74 3e c3 6e d4 3e af 27 a8 3e
       0.22507133 0.23904867 0.41490754 0.32842776
000330 d9 af 83 3e d2 af e7 bd 0a 06 13 bf 2e cb d1 3d
       0.257201 -0.11312832 -0.5743109 0.102438316
000340 80 77 1c bc 1d 9e c4 be b6 7e cc 3d d7 f4 4f 3e
       -0.009549975 -0.3840188 0.09985106 0.20308243
000350 86 3e 1f bf 54 d1 92 bd 6a b6 18 be 30 51 34 be
       -0.6220478 -0.071688324 -0.14913335 -0.17609096
000360 2d 5e 12 bf 3c a7 97 be 48 c4 e6 3d 84 f1 80 3e
       -0.5717495 -0.29619777 0.112679064 0.25184262
000370 dc 2b e2 be 73 24 5a 3e f5 8a 80 3e 0c 29 19 3f
       -0.44174087 0.21302967 0.25106016 0.5982826
000380 7c 73 15 bf bc 3c ba bd bf 79 19 3f ed 80 ad 3e
       -0.5837934 -0.090936154 0.59951395 0.33887425
000390 59 b1 90 3e 4a 3e 29 3f 1f e3 24 be 14 59 06 be
       0.28260306 0.6611067 -0.16102265 -0.13119918
0003a0 2d bd f4 be 9b e7 8f bb 88 e3 eb 3e 38 00 b9 3c
       -0.4780058 -0.004391623 0.4607203 0.022583112
0003b0 48 b5 e8 3e 49 5e b2 3e a7 6d 0a 3f b2 9e 28 3f
       0.45450807 0.3483756 0.54073566 0.6586715
0003c0 e7 6b e9 bd 42 ea f4 be 1c 88 53 3d 8d f8 41 be
       -0.11397534 -0.47834975 0.051643476 -0.18942471
0003d0 5a 7e 48 bf e6 0d 75 be b9 03 3a 3e a1 9f 0f 3e
       -0.783178 -0.23931083 0.18165483 0.14025737
0003e0 3e c0 38 3f d1 b8 1b 3f 27 19 04 3f 08 10 6c be
       0.7216834 0.6082888 0.5160088 -0.2305299
0003f0 d7 a1 27 be 74 a2 82 3c 41 1a ec be d5 a6 f0 bc
       -0.16370331 0.015946604 -0.4611378 -0.029376427

network_body._body_endoder.seq_layers.0.bias f4 [128]
000000 08 6d 9e 3c 45 77 a2 3c e9 fe 3f 3b 87 19 d9 3b
       0.0193391 0.019832263 0.0029296225 0.0066253575
000010 99 5f e7 bb 34 a1 94 3c f7 3f 9e bb c3 70 10 bc
       -0.0070609567 0.018143274 -0.0048294025 -0.008815947
000020 a1 a5 ac 3c a3 32 b5 3c 55 82 5a 3c 0b d3 5b 3c
       0.021075072 0.022118872 0.013336738 0.013417016
000030 6c 90 55 bb ff ad 04 3b b6 f5 8b 3d 50 d8 12 3d
       -0.0032587303 0.0020245311 0.06833975 0.035850823
000040 bb ed eb 3c 9d ad 49 3b 08 c2 80 ba 4b 64 e3 3c
       0.028799882 0.0030773648 -0.0009823451 0.027757784
000050 9c 98 9d 3b 69 0b 5c 3c 52 bf 6a 3c 82 56 a5 3c
       0.004809452 0.013430455 0.014327841 0.020182852
000060 00 b4 66 3c a9 d2 89 3b a6 6b 21 bc 91 a5 9d bc
       0.014081001 0.004206021 -0.009852326 -0.019243987
000070 99 c8 23 3d 4f dd 4b 3b db 62 af 3c aa 7f 8c 3c
       0.039986227 0.0031107252 0.021409443 0.017150719
000080 01 2b 31 3c 24 58 04 3c 86 74 d0 3b b2 d3 9c 3b
       0.010813476 0.008077655 0.006361547 0.0047859782
000090 68 20 b5 3c 76 f1 ea 3c 3f 3e 63 3b b7 8f 71 bb
       0.022110179 0.02867959 0.0034674553 -0.0036859342
0000a0 08 60 09 3d db de 9f ba 13 36 16 3c 13 f6 b8 bb
       0.03353885 -0.0012197153 0.009168166 -0.0056445687
0000b0 57 04 62 3d f1 45 22 3d fb 00 23 3a b2 34 cd bc
       0.05517992 0.039617483 0.00062181026 -0.025049541
0000c0 97 df 13 3c 99 fc 69 3d 17 df 13 bc 4c b6 04 ba
       0.009025476 0.05712566 -0.009025357 -0.0005062565
0000d0 75 48 c3 ba 6d 5a 82 3c b2 83 21 bc 50 cb 91 3c
       -0.0014898913 0.015912259 -0.009858059 0.017797142
0000e0 4f da 74 bc b9 0a 54 bc 55 73 00 bd 29 55 dc ba
       -0.014944627 -0.01294201 -0.03135999 -0.0016810048
0000f0 1a 1b fc 3b 88 9f b9 3c 44 f7 6a 3c 1d 8c b2 3b
       0.0076936604 0.022659078 0.014341179 0.0054488317
000100 91 64 bd 3c 37 69 b7 bb 1a 28 09 3c 4d af a7 3c
       0.023119243 -0.0055972594 0.008371377 0.020469332
000110 11 d0 ef bb f8 58 87 3c 7c 7c 04 3c 64 fb c5 3b
       -0.0073185046 0.016521916 0.00808632 0.006041931
000120 1e a7 0d bc 6d b7 ac 3c cf f8 10 bc aa b8 ea bb
       -0.008645801 0.021083558 -0.008848383 -0.007163127
000130 ab 4b cb 3b b1 69 fb 3b cf 73 c7 3c 13 6a ce 3b
       0.0062040887 0.0076725115 0.024347214 0.006299266
000140 92 51 c7 3b 6a 52 cd 3c 1f ea 13 bb 17 87 b1 bb
       0.006082722 0.025063712 -0.0022569967 -0.0054177153
000150 eb 9b c4 3c 2f e3 24 3c 9a 8e bd bb 32 77 01 3d
       0.024000129 0.01006393 -0.0057848217 0.031607814
000160 3d d9 1d 3b ee 54 e1 3b 72 91 6f 3c 8a 37 ec 3c
       0.0024085783 0.0068765795 0.014622079 0.028835077
000170 8e e5 1e 3c c3 17 1a 3d 56 5d 04 3d 14 1a 86 3b
       0.009698285 0.037620317 0.032315575 0.004092464
000180 3c c7 88 3b ad 8f 52 3c 52 16 29 3c 5e a8 85 3b
       0.004174141 0.012851638 0.010320263 0.004078909
000190 70 b2 29 3a 0c dc 31 3c 2f 70 a5 bb 10 4d d6 bb
       0.00064734276 0.010855686 -0.0050487737 -0.0065399483
0001a0 d6 be 95 bb 1e 65 6b 3c 7f 41 cf bb 27 bb 61 3c
       -0.0045698686 0.01436737 -0.0063249464 0.013777531
0001b0 01 83 b7 3c 0e 50 4f 3c 9d 8b f5 b9 4f 84 74 bb
       0.022401335 0.012653364 -0.00046834062 -0.0037310307
0001c0 34 7c 54 3c 07 40 2e bb 05 d1 43 3c 8a 21 b3 3c
       0.012969065 -0.0026588456 0.01195169 0.021866579
0001d0 7b a3 9a 3b 2f 30 87 3c de 40 97 3c 5b ac 44 3b
       0.0047191954 0.016502468 0.018463548 0.0030009958
0001e0 e7 5f d5 bc 8f 21 1c 3c 2b 7f 87 3c c5 7e 2a bc
       -0.026046706 0.009529485 0.01654013 -0.010406201
0001f0 25 86 08 bc d9 58 8d b7 82 d8 1a 3d c0 49 54 bc
       -0.008332764 -1.6849883e-05 0.037804134 -0.0129570365

network_body._body_endoder.seq_layers.2.weight f4 [128, 128]
000000 69 ea 76 bd ce 5e c7 3d 01 7f 94 3c 07 1d 1d be
       -0.060282145 0.097348794 0.018126966 -0.15343104
000010 a6 7a 25 3d 26 69 07 bd 2d 9a 20 3d 99 e6 56 bc
       0.04040017 -0.03305926 0.039209533 -0.013116502
000020 db 83 70 bd 88 89 f8 3c 47 e6 e6 3d 90 c9 57 3d
       -0.058719497 0.030339018 0.11274391 0.05268246
000030 cf 0f 0b 3d 87 85 3f 3d c6 9a c9 3d c5 33 d2 3d
       0.033950623 0.0467582 0.09843974 0.102637805
000040 d8 eb 2a bd 52 57 e6 3d d7 c8 a6 3d 70 33 17 be
       -0.041728824 0.11247124 0.08143776 -0.14765716
000050 d2 52 56 3e 05 b9 28 3d fa 6f 7c bd 92 e2 13 3d
       0.20930031 0.041192073 -0.061630227 0.036104746
000060 0c b8 85 3b de 4c af bc 15 91 20 3e c4 64 0b bd
       0.004080778 -0.021398958 0.15680344 -0.034031644
000070 2a bc 23 be 4f e9 0e bd e5 2f 8b 3d e3 9d a1 3d
       -0.15989748 -0.03489047 0.067962445 0.078914426
000080 73 9f 18 3e a4 91 bf 3b 7c c4 f2 3c b3 85 08 bd
       0.14904575 0.005846219 0.029634707 -0.03333063
000090 bb 7d 95 3d d2 66 98 3d 5a 00 38 bb 40 23 07 3d
       0.07299372 0.074414864 -0.0028076381 0.0329926
0000a0 4e 1a 83 bd db 13 be bd 2b 8b 27 3c 5a 01 2f bd
       -0.064015016 -0.09281131 0.010226051 -0.0427259
0000b0 04 c5 38 be 25 19 bc 3c 68 e8 a0 3d 03 30 9a bd
       -0.18043905 0.022961209 0.07856828 -0.07528689
0000c0 bb a3 77 3c 55 fb 0f 3c 9c f6 0f 3e 2e 61 bc bd
       0.01511472 0.00878795 0.14058918 -0.09198223
0000d0 31 06 94 3d 11 b8 51 3d d1 c6 84 3d 99 02 55 3d
       0.072277434 0.05120093 0.06483234 0.05200443
0000e0 a7 bc df 3d 86 98 db 3d 00 e6 c7 bc 93 91 a5 bd
       0.109246545 0.10722451 -0.024401665 -0.08084407
0000f0 1a 11 2f bd 33 d9 8f 3c b9 9b 1e bd 29 74 2c 3c
       -0.04274092 0.017559623 -0.038722727 0.010525742
000100 6b 84 47 be bd 3e 9e 3c 64 db a2 3c f2 06 21 3d
       -0.19484107 0.019317025 0.019880004 0.039313264
000110 f2 8d d0 bd bc 95 29 bd c5 9d 4a be cf 35 ef 3c
       -0.10183324 -0.041402563 -0.19786747 0.029200463
000120 54 7b 18 3c c5 2f 57 be 03 78 d5 bc f0 94 ab bd
       0.0093067475 -0.21014316 -0.026058203 -0.08378017
000130 40 60 b2 3d 8e 09 62 bd e0 3b d5 bc fa bb 21 be
       0.087097645 -0.055184893 -0.026029527 -0.15794364
000140 24 21 a6 bd a1 ba 82 bd a4 b6 25 be b4 b6 c8 bd
       -0.0811179 -0.06383253 -0.16182953 -0.09800473
000150 d8 c5 1e 3d 6a 4b ef 3d 9a ff 8c 3d 7d 75 c2 3d
       0.038762897 0.11684306 0.0688469 0.09495065
000160 ed 10 05 3d f0 6f 40 3b 49 8d 84 3d c4 6e 4c bd
       0.032486845 0.0029363595 0.064722605 -0.04991032
000170 e1 d8 a2 bd 1e 77 9d bc 04 68 4e be 36 91 5d bd
       -0.079515226 -0.019221839 -0.20156866 -0.054093562
000180 00 8a dd 3d e9 05 4e bd 2e 58 de bd b2 90 48 3c
       0.10817337 -0.050298605 -0.10856663 0.012241529
000190 30 5c 88 3c 41 5c 23 bd 48 31 d8 3c 8f 06 32 bd
       0.01664552 -0.039882902 0.026390687 -0.043463286
0001a0 b6 18 26 3e 60 f2 c9 3d 63 81 e4 3d c1 73 b2 bc
       0.16220364 0.098606825 0.11157491 -0.021783711
0001b0 17 18 0d bd 6f 07 ba 3d 07 b2 0a 3e a2 50 1c 3c
       -0.034446802 0.09083449 0.13544475 0.009540709
0001c0 19 dd a5 bb 47 3a 81 3d 3b ee dc bd 08 d1 b6 bd
       -0.0050617573 0.06309944 -0.10787626 -0.08926588
0001d0 d3 e9 d4 bd 55 51 c8 3c 21 41 17 bd 7b 99 66 3c
       -0.10396161 0.024452845 -0.036927346 0.0140746785
0001e0 3b f4 0b be 9e 9b 27 3e 93 91 37 3e 69 98 e7 3b
       -0.13667385 0.16367957 0.17926626 0.0070677293
0001f0 a7 db de 3c 3f e8 90 bd 58 b4 9d 3c c5 15 9a 3d
       0.027204348 -0.070755474 0.019251034 0.075236835
000200 b1 ec 9c bb 09 14 d1 3d 3f 31 32 3d cf 40 fa bb
       -0.004788958 0.102088995 0.043503996 -0.0076371203
000210 11 a4 0e be b9 4b 4f 3d e3 37 89 3a dc 83 ee 3d
       -0.13929774 0.050609324 0.0010468926 0.11646244
000220 b1 2f b6 bd 97 bf 21 3d bf 76 ac 3d 24 7d ee bc
       -0.08895815 0.039489355 0.084210865 -0.029112406
000230 fc a6 22 3d 6e 44 38 bd 85 a4 ed bd e3 08 a4 bd
       0.03971003 -0.044987135 -0.11603645 -0.080095075
000240 59 fa ee bb 48 21 35 3d d2 8d f2 bb 70 88 82 bd
       -0.0072930274 0.044221193 -0.00740216 -0.0637368
000250 73 8d e9 bc 4c f2 8a 3d 14 7d 80 3e 46 61 00 bd
       -0.028509831 0.06784496 0.25095427 -0.031342767
000260 b1 cd 1c 3e 1b 46 fc 3c 7d 9c 0a 3b 80 49 ff bb
       0.1531284 0.030795148 0.0021150403 -0.0077907443
000270 55 f3 9e bd 83 a1 25 bd 35 e8 ad bd bf e8 09 3e
       -0.07761256 -0.040437233 -0.084915556 0.13467692
000280 38 54 83 bd 50 bc 26 be 45 19 f4 bd 7e c8 8f bd
       -0.06412548 -0.16282773 -0.11918882 -0.07020663
000290 18 50 85 bd 6e af 52 3d 93 71 2c be 86 b3 f4 3d
       -0.06509417 0.051436834 -0.168402 0.11948304
0002a0 b1 99 1a be 7a 10 ac bd 18 61 3a 3d 5b f9 96 bd
       -0.15097691 -0.0840158 0.045502752 -0.073717795
0002b0 3d 93 3e 3d bc 34 82 3e 20 a2 01 3e 80 00 7e bd
       0.046527136 0.25430858 0.12659502 -0.062012196
0002c0 77 f5 1e 3d 03 f8 c3 3d 4f e3 d5 3c aa 85 36 bd
       0.038808312 0.09568789 0.026109366 -0.044561066
0002d0 5a 26 94 3d ad 60 a0 3d c9 62 c2 3b de 8c ba 3d
       0.072338775 0.078309394 0.0059321863 0.091088995
0002e0 fe 45 ea bd 7f 85 f8 bc c6 08 ee 3c 13 15 06 bb
       -0.11439131 -0.030337093 0.029056918 -0.0020459339
0002f0 13 a5 bf 3d 52 33 cb 3d df ba 50 bd 1d 5a 71 bd
       0.09357657 0.09921898 -0.050959464 -0.05892383
000300 22 0a 08 3e bd 7b 27 3d 55 62 87 be 3a d2 07 3e
       0.13285115 0.04088949 -0.2644221 0.13263789
000310 2e 48 01 3d a5 e8 55 bd 81 a7 16 be 17 45 11 3e
       0.031562977 -0.05222382 -0.14712335 0.14186512
000320 28 31 89 3c 62 3e 60 3d 80 d0 8e 3d a8 ae e1 bc
       0.016747072 0.054746993 0.06973362 -0.027549103
000330 14 f1 14 3d 59 b7 b2 bc 92 84 e8 3c 84 2e 2c bc
       0.036362723 -0.021815943 0.028383527 -0.010509137
000340 52 82 e7 3c d1 51 e7 bd 43 57 20 3d b6 93 91 3a
       0.028260384 -0.11294902 0.03914572 0.0011106643
000350 57 fc 3b 3d 15 f8 58 3c 5a 04 11 3e 5c e2 d7 3d
       0.045894947 0.013242741 0.14161816 0.105412215
000360 6c a6 c7 bd 65 1e bd bd ff e4 d7 3d c9 5f d2 3c
       -0.09748539 -0.09234313 0.105417244 0.02568044
000370 7d c2 1f be 44 07 3b 3d e3 e1 40 3e 84 93 31 bc
       -0.15601535 0.045661226 0.18836169 -0.010838393
000380 74 5c ab bc 86 2e e1 bb 4f d8 39 3c 95 e6 d7 3d
       -0.020918109 -0.006872001 0.011343076 0.10542027
000390 39 9f ab bd c6 fb 93 bd 44 38 61 bd 07 c3 94 bd
       -0.08379979 -0.07225756 -0.0549853 -0.07263761
0003a0 b3 de 83 3d 09 42 11 3e 1c 9b 92 3d 82 c6 09 3e
       0.06438961 0.14185347 0.07158491 0.13454631
0003b0 2f f7 d2 bd 32 23 94 bd 02 b4 9c bd 9b 4f 2e bc
       -0.10301053 -0.072332755 -0.07651521 -0.010639097
0003c0 a3 2d b4 bd fd c4 f9 3d 96 ec dc bc 73 a4 de 3c
       -0.08797767 0.12195776 -0.026968282 0.027178025
0003d0 fc 77 5c bd ed bf bc 3d 27 cc 17 3e 18 53 22 3d
       -0.053825364 0.092162944 0.14823972 0.039630026
0003e0 f1 f2 53 bd 3c d1 fc bd c8 55 13 be 1e ee 07 3e
       -0.05174536 -0.12344596 -0.14388192 0.13274428
0003f0 8b c3 9c 3c db 0c 2a 3d e1 4b db 3d 89 b6 52 3d
       0.01913621 0.041516166 0.10707832 0.05144361

network_body._body_endoder.seq_layers.2.bias f4 [128]
000000 39 ae c8 3b 58 a6 25 3c 64 bf 85 bb a9 ab fc ba
       0.0061242846 0.01011046 -0.0040816534 -0.0019277233
000010 ae 8e 14 bc 1f 62 bd b9 fe 3a d3 3b cb f2 0a bc
       -0.009067221 -0.00036121995 0.0064462414 -0.008480738
000020 33 4e 86 3c e4 28 84 3b 49 f1 b1 bb 6c 58 44 3c
       0.01639471 0.004033195 -0.0054303748 0.011983972
000030 91 11 88 3a 1f 5a 98 3a 7a 9f 21 3c d5 7f 2b 3b
       0.0010381212 0.0011623538 0.009864682 0.0026168723
000040 ec 4d ae 3c 58 0f 3e 3c 60 c9 fd bb 89 a0 13 bc
       0.02127739 0.011600338 -0.007744953 -0.0090104425
000050 61 25 1a bc ec 2e db ba 2e 27 12 bb 1d 46 7f 3c
       -0.009408326 -0.0016722358 -0.0022301185 0.015580681
000060 ca c4 74 3c ec 72 32 bc 0d 8c 59 3c 05 6f e0 bb
       0.014939496 -0.010891657 0.01327802 -0.006849172
000070 56 2a 1f 3c f3 ab 3c bc 54 5d 88 3c c5 d8 0e 3c
       0.0097146835 -0.011515605 0.016646065 0.008718674
000080 b0 b6 d6 3a 9f 41 b2 3b 09 ad ec 3b f6 18 e6 3b
       0.0016381349 0.0054399516 0.007222776 0.0070220185
000090 37 68 e8 3a 1b 77 82 ba dd 76 ad 3c 8e 80 4e 3c
       0.0017731254 -0.0009953709 0.021174842 0.012603892
0000a0 56 f7 af 3b 31 ed 29 3c cc 0c 41 bb f4 d9 f2 bb
       0.005370061 0.010371492 -0.002945709 -0.007411236
0000b0 aa c7 14 bc 6c 32 33 bb 13 1a 17 3c 78 ae fb 39
       -0.009080807 -0.0027343286 0.009222525 0.0004800444
0000c0 c2 e5 a1 3b 34 14 ec bb 7a 4b 5f bb 18 43 ce 3b
       0.0049407193 -0.007204557 -0.0034072087 0.0062946193
0000d0 c9 71 00 bc 3a 52 f7 bb a5 42 94 3c a9 33 22 3c
       -0.0078396285 -0.007547644 0.018098185 0.009900012
0000e0 3e bc bb 3b fe 7d bf bb 47 86 54 3c fa 43 70 bb
       0.0057292273 -0.005843877 0.012971467 -0.003666161
0000f0 0c 75 ee bb 51 a5 1d bb 28 cc 17 bc ff 1d 96 bc
       -0.0072771367 -0.0024054835 -0.009264983 -0.01832485
000100 c5 5c bd 3a 46 5b 15 bb 87 fb 0a bb a8 0f b0 3c
       0.0014447203 -0.002279 -0.002120705 0.02149184
000110 16 c6 9b 3b 17 67 95 bb 21 10 29 3c 05 8b f0 3c
       0.0047538383 -0.0045594084 0.010318787 0.029363165
000120 3c 98 1d ba 63 ed c9 3c e6 d6 aa 3b bd 9f 5f bc
       -0.00060117594 0.024649328 0.005213606 -0.013648924
000130 00 b6 48 3c a3 71 84 3c 25 0c 1f 3c 77 ef 7c 3b
       0.012250423 0.016167467 0.009707485 0.003859488
000140 1e 87 a3 3b 53 5a 8e 3c f0 1b 02 bb 70 c2 bc 39
       0.0049904725 0.017377054 -0.0019853078 0.00036003022
000150 4b 04 aa 3c a8 e7 a8 bb 5a 67 d8 3a 7a c1 a9 39
       0.020754 -0.0051545687 0.0016510293 0.00032378343
000160 da 27 75 bb 4b 45 15 ba 77 f5 11 3b a9 6e d6 3a
       -0.0037407787 -0.00056942244 0.0022271553 0.0016359884
000170 28 53 48 3c d4 71 ab 3b c6 2b e2 3b 0c 1e f4 bb
       0.012226857 0.005232075 0.006902191 -0.007449871
000180 52 d4 91 bb a2 7a 91 bb 17 29 0b 3c 9a 8d cc 3b
       -0.0044503594 -0.004439668 0.008493683 0.006242466
000190 5b f9 09 3b 64 92 e7 ba c2 db 9b 3c fd 9e 97 3c
       0.0021053168 -0.0017667529 0.019025687 0.018508429
0001a0 bc 28 50 3c 33 1e e9 3a c0 93 82 3c 9d 10 49 3c
       0.012705024 0.0017785489 0.015939593 0.012272027
0001b0 7d 58 74 3a cb 99 7b 3b 64 a2 99 ba e1 16 03 3c
       0.0009321047 0.0038391228 -0.001172137 0.00800106
0001c0 46 4a 37 3b d7 e9 6c bc 89 fe 05 3c 30 5e c8 bb
       0.0027967854 -0.014460049 0.008178362 -0.0061147436
0001d0 f9 70 84 ba c9 72 64 bc 98 eb 35 3c 97 92 55 bb
       -0.0010104469 -0.013943383 0.011103533 -0.0032588595
0001e0 e2 df cf 3b 44 8d 21 bc c8 c4 d3 bb 56 94 82 3b
       0.0063438276 -0.0098603405 -0.006462667 0.003984968
0001f0 17 89 f2 bb 97 25 4f bc 03 e5 85 ba 6a 7f c9 bb
       -0.0074015963 -0.012643239 -0.0010215346 -0.006149222

action_model._discrete_distribution.branches.0.weight f4 [3, 128]
000000 25 c1 0b 3c 91 ef 3a bc e8 e9 de bb 52 26 41 bc
       0.008529936 -0.011409656 -0.006802786 -0.011788921
000010 bf df 9b 3b 5f 78 92 3c 13 64 40 bc 0e 2b 1f 3c
       0.004756897 0.017879663 -0.01174261 0.009714855
000020 5f f3 aa bc 43 71 07 3c db 35 7c 3c a7 49 0f bc
       -0.020868002 0.00826675 0.0153936995 -0.008745587
000030 96 99 d9 bb db e3 52 bb 4b 29 a1 bc 3a fe c2 3c
       -0.0066406233 -0.003217927 -0.01967301 0.023802865
000040 d4 f6 00 bc 4d 31 03 bc 06 ff 46 3b 8d bf 88 3b
       -0.007871348 -0.00800736 0.0030364408 0.0041732253
000050 e1 fb 50 3c 08 cf ec 3c 97 a9 82 bb 31 0a 4a bc
       0.012755365 0.028907314 -0.003987502 -0.012331531
000060 1d 3a af 3c e4 c1 40 bb 1e 1b 7c 3c 8a 0b eb 3b
       0.021390015 -0.0029412443 0.015387325 0.0071730064
000070 9a 8b 5e 3b 86 07 8c 3c 11 58 46 bc aa 32 c9 3b
       0.003395772 0.017093431 -0.012105958 0.006140073
000080 39 ec 55 bc 8b 10 5c bc c9 13 79 bb 9c d4 8d bc
       -0.013056808 -0.0134316785 -0.0038006178 -0.017313294
000090 b0 6e 26 bc 54 d5 3e 3c 0d f3 8a 3b ea c0 a8 bc
       -0.010158226 0.011647541 0.0042403997 -0.020599801
0000a0 7c 84 b3 3b 8b 02 b2 3c c1 66 12 ba 49 93 73 3b
       0.00547844 0.021729728 -0.00055847695 0.0037166646
0000b0 95 29 b8 b9 cb a1 f5 bb 10 b9 01 3d b6 94 81 bc
       -0.00035126196 -0.007496094 0.03167063 -0.015817981
0000c0 72 6d ac 3c 30 6b a3 39 1b b5 ab ba 70 f5 8b 3c
       0.021048281 0.00031169644 -0.0013100238 0.017084807
0000d0 af 30 b6 39 9a 3f 92 39 f6 13 d5 3c fe b3 84 bb
       0.00034750017 0.00027894677 0.026010495 -0.004049777
0000e0 2a 03 bb 3b 75 2a 78 3b c0 57 c2 bc 3a e9 10 bb
       0.0057071643 0.0037867103 -0.023723483 -0.002211167
0000f0 c9 49 62 3b 67 ee 64 3c 5e 8d ac bb 7f de ad 3c
       0.0034528843 0.013972855 -0.0052658757 0.021224258
000100 64 91 52 3b 0f c3 1d bb 81 74 2a bb 08 ef 71 bc
       0.0032130117 -0.0024072563 -0.0026009383 -0.014766462
000110 5a 26 61 3c 43 c1 f7 bb b2 0c a9 bc 0b fd 80 bc
       0.013742054 -0.0075608804 -0.020635936 -0.01574566
000120 8d 0c a0 3a 55 61 0c 3d 04 c9 b4 3c e7 36 ae 3b
       0.0012210772 0.03427251 0.022068508 0.0053166035
000130 21 e8 a3 bc 6c 3d 0f 3d ed 76 bc bc 42 9f 14 3d
       -0.020008149 0.034970686 -0.023005927 0.036284693
000140 a7 a1 9a bc b2 19 29 3d 13 e7 4d 3c 0f 9f ea 3c
       -0.01887591 0.04128427 0.012567299 0.028640298
000150 2e 9b 84 bc 89 a8 d9 3b e5 cd bf 3b fc c2 5d bb
       -0.016187277 0.0066424054 0.005853402 -0.0033838144
000160 b4 9a 88 3c a6 25 bb bb f8 c2 d3 bb 1c 4b 29 bc
       0.01667533 -0.005711275 -0.006462451 -0.010332849
000170 66 42 ec 3c 84 7c 30 bc d1 f4 29 3b 7f 69 9c bb
       0.028840255 -0.010771874 0.0025933275 -0.0047733183
000180 54 4d 92 b9 3f c4 24 ba 8c 9b 87 ba 08 bd f6 3a
       -0.00027904904 -0.00062853465 -0.0010346039 0.0018824646
000190 b3 49 8b 3b 83 c1 35 3c 32 61 03 3d 95 b3 5c 3b
       0.004250729 0.0110935 0.032075115 0.0033676375
0001a0 9e 48 2e bc 4a 6a ad bb 25 a9 8d bc fe 34 11 3d
       -0.0106374305 -0.0052922117 -0.017292568 0.035450928
0001b0 60 e0 3d bb 11 7b 1c bc d0 3c 22 bc 69 38 00 bc
       -0.002897285 -0.009550826 -0.009902194 -0.007825949
0001c0 fd 24 a2 bb f7 d7 45 3c 7b 5d a1 3c 29 42 87 3a
       -0.004948257 0.012075416 0.019697895 0.00103194
0001d0 4e 69 38 3b c7 88 80 3c 71 48 06 bc f1 46 bb bb
       0.0028138938 0.01569022 -0.008195982 -0.005715244
0001e0 91 c5 17 3b 13 f2 0f 3c 38 18 e5 bb 1f ad c3 3a
       0.002315853 0.008785742 -0.0069914125 0.0014928913
0001f0 7b e6 90 3b c0 f8 25 bc 21 5b 0d 3b a4 c8 e1 bb
       0.0044220067 -0.010130107 0.002156921 -0.0068903733
000200 aa 9a 6c bc 27 d9 9d 3c 83 b8 e0 3b 5f 57 56 3c
       -0.014441172 0.019268585 0.006857933 0.013082354
000210 9f 0e 91 3a c6 95 9f bc d0 e5 fb 3b 1e 7d 17 bc
       0.001106698 -0.019480597 0.007687308 -0.009246139
000220 86 95 2d 3c 99 76 4a 3c 50 4e ae bc 60 95 85 3c
       0.010594731 0.012357377 -0.021277577 0.01630658
000230 03 3a 10 3b b8 23 b8 bb 3f 53 d4 ba 0c 26 97 bc
       0.0022007234 -0.0056194924 -0.0016199126 -0.01845076
000240 10 d5 f4 3b 37 ca b5 3c 64 06 82 bb db 14 76 3b
       0.007471688 0.02219115 -0.003968047 0.0037549052
000250 92 02 3f b9 88 9f 20 bc 77 e1 5d 3c c7 74 da 3a
       -0.00018216137 -0.00980366 0.013542525 0.0016666882
000260 41 6c 1a bd 23 2e 57 bc 72 78 86 bc 03 e1 0c 3c
       -0.037700895 -0.013133558 -0.016414855 0.008598569
000270 6f 31 58 3c cb 6b 25 bb 10 66 b6 3c 3d eb 3e 3b
       0.01319538 -0.0025241252 0.022265464 0.0029131912
000280 c7 67 80 bb a2 2a 8a ba c9 b7 cb bb 68 7c 37 bb
       -0.003918621 -0.001054127 -0.0062169773 -0.0027997736
000290 a7 e7 bb 3c 14 42 cd bb 5e c4 87 bc 83 a0 78 3c
       0.022937609 -0.0062639806 -0.016573127 0.015174988
0002a0 3e 7e e0 bc 71 1f 9d bc 78 a4 51 bc 55 90 25 3a
       -0.027403947 -0.019180031 -0.01279556 0.00063157576
0002b0 cb 34 9a b9 75 3c 1c bc 0c 6e 13 bd b9 6e 48 3b
       -0.00029412503 -0.009535898 -0.03599362 0.0030583574
0002c0 77 45 ab bc 8e 19 57 bc c3 4f 66 3b 21 7a cb bc
       -0.020907147 -0.013128651 0.0035142757 -0.024838509
0002d0 d7 b6 c1 3b be 00 94 bc 5f 49 09 bd d7 61 63 3c
       0.005911689 -0.01806676 -0.033517238 0.013878307
0002e0 76 20 08 bc bb 7a 4c 3a b4 18 f7 ba be c1 a4 bb
       -0.008308521 0.00078002707 -0.0018851967 -0.0050279787
0002f0 11 51 d3 3a 10 fd fe bb 64 df 2d bc 6a 45 c1 bc
       0.0016122182 -0.0077816322 -0.0106123425 -0.02359267
000300 e6 04 05 bc 2d 8b 88 3a 80 0b 24 bc 6e 0b 07 ba
       -0.008118844 0.0010417454 -0.010012507 -0.00051515445
000310 80 3c 62 3c 4d 90 a0 bc 71 50 17 3b 35 8a 6f 3c
       0.01380837 -0.019600058 0.0023088718 0.0146203535
000320 f1 80 2e 3b 4d a4 56 bc 9b 43 1b 3c b0 bb 8e bc
       0.0026627148 -0.013100696 0.009476568 -0.01742348
000330 af 41 23 3c 21 cc 1a bd f5 2a 8f 3a 57 79 a0 bc
       0.009964391 -0.03779233 0.0010922836 -0.01958911
000340 fd b4 a2 ba 99 99 c3 bc 26 3c 80 bb aa 09 3e bc
       -0.0012413558 -0.023876952 -0.0039134203 -0.011598984
000350 f2 73 89 bc 35 d4 53 bc 9f 2a 7f 3c db 00 8d ba
       -0.01677892 -0.012929012 0.0155741265 -0.0010757701
000360 08 11 74 bc ab f4 02 bc f3 1e 56 bb fa c4 a8 ba
       -0.014896639 -0.007992904 -0.0032672256 -0.0012876086
000370 c7 59 4e bc 34 28 45 bb 67 88 e9 3b d6 2b d3 3b
       -0.012594647 -0.0030083777 0.007126856 0.0064444346
000380 06 ce 02 3c d0 ed d6 bc a9 cc 18 3c d6 c0 99 3b
       0.00798369 -0.026236445 0.0093261385 0.0046921773
000390 88 b4 b0 bb 61 ff b4 ba 19 35 b2 bc d4 ef bb 3b
       -0.0053926148 -0.0013809019 -0.021753835 0.005735377
0003a0 05 6a 59 3c 1c 14 c8 ba 07 ce 8f bb e0 cb 07 bd
       0.013269906 -0.0015264782 -0.004388574 -0.033153415
0003b0 ed 40 39 3c 9c 67 77 bb 21 b0 2f 3c e4 3b d2 3b
       0.011306983 -0.0037750965 0.010723145 0.006415831
0003c0 bf 36 e8 3b a1 da a6 bc ea 18 c9 bc 41 12 95 39
       0.0070866044 -0.020367922 -0.024548013 0.00028433095
0003d0 e0 eb bc 3c 2d ff 93 bc fc a0 a8 3b 50 08 ad 38
       0.023061693 -0.018066013 0.005146144 8.250831e-05
0003e0 eb 6c 7c ba ef 0a b1 b9 84 59 c2 bb 96 9d b0 3c
       -0.0009629267 -0.00033768217 -0.0059310813 0.021559518
0003f0 30 59 97 39 bc ca 97 bb b3 1f 90 bb 67 8b f1 3b
       0.00028867414 -0.004632322 -0.00439831 0.0073713544

action_model._discrete_distribution.branches.0.bias f4 [3]
000000 38 94 5f bc 40 c4 01 3c a8 c1 37 3c
       -0.013646178 0.007920325 0.011215605

action_model._discrete_distribution.branches.1.weight f4 [2, 128]
000000 ca 45 c4 3c 14 2d 87 3c c7 e2 dd 3b b6 8a 54 3c
       0.02395906 0.016500987 0.0067714187 0.012972524
000010 68 12 75 bc 56 24 70 3c e5 f2 93 3c 5e 75 83 bb
       -0.014958002 0.014657101 0.018060157 -0.004011794
000020 69 34 d3 3c 94 8a 39 bc 9f 0d 3d bc c3 5c 19 3c
       0.025781827 -0.0113245435 -0.011538892 0.009360495
000030 c5 08 b2 bc 59 7f 83 bb 80 2b 9a ba c3 a0 f7 3c
       -0.021732697 -0.0040129838 -0.0011762232 0.030228024
000040 99 81 d7 bc 98 b7 3d 3d f5 83 da b9 38 ff 1c 3c
       -0.026306914 0.046317667 -0.00041678516 0.009582333
000050 e9 77 d5 3a 45 6d 3d 3d ce 2c e8 ba 3e 1a 06 bd
       0.0016286346 0.046246786 -0.0017713548 -0.03273987
000060 ab 9a 88 3c 7e 53 35 3c 3a 5f 5b bd ec 48 a9 3c
       0.016675314 0.011067269 -0.053557612 0.020664655
000070 77 25 21 bd 03 ef 94 bb 2a aa e7 bc 1c a5 1f bd
       -0.03934237 -0.004545094 -0.028279383 -0.03897582
000080 a1 a6 0a bc 91 cc 92 bc 43 7d 67 3c 8f 31 66 3c
       -0.008462579 -0.01791981 0.014128986 0.014049902
000090 37 d1 5d 3c 43 f5 6e bb ff ca 34 bd 84 00 29 bc
       0.01353865 -0.0036462105 -0.044138905 -0.010315064
0000a0 71 82 03 bd 9c 3d d0 bb 39 3b 6a 3c b6 e9 93 bb
       -0.03210682 -0.0063550007 0.014296346 -0.0045139445
0000b0 9d ac ee 3b 99 78 e8 3b 3f b1 22 3d 00 b5 27 3c
       0.0072837607 0.0070944545 0.039719816 0.010236025
0000c0 8e c3 bd 3c 0d 5f a1 3c 63 b6 2c bb d4 84 13 3c
       0.023164537 0.019698644 -0.0026353828 0.009003837
0000d0 20 08 33 bb d8 a2 15 3c 46 3b 07 3b 8e ef b1 bb
       -0.0027318075 0.009133063 0.0020634695 -0.0054301685
0000e0 2a 1b 80 bc 76 bc ad 37 01 8e 19 3c 6b 1f ea 3a
       -0.015637953 2.0710966e-05 0.009372235 0.0017862146
0000f0 d4 83 0a bc ab 17 86 3c cd ca ef ba aa df f6 bc
       -0.008454282 0.016368708 -0.0018294692 -0.030135948
000100 d9 d5 9f bb ad c8 69 3c de bf 8f 3c 83 fc 96 bd
       -0.0048777875 0.014269036 0.017547544 -0.073723815
000110 f8 ba de bb ae 28 6d 3b 71 e7 d7 bb 7d 2a 83 3d
       -0.0067971908 0.0036187577 -0.0065888693 0.06404588
000120 ca d1 95 3b 29 e8 1e bd f1 64 f6 3c bc 83 76 3d
       0.004572128 -0.038795624 0.03007743 0.060184225
000130 12 22 94 ba 2f 18 58 3a 5a e6 43 bc 9a 7b 5f bc
       -0.0011301658 0.000824335 -0.011956776 -0.013640309
000140 4c ef 7f 3b 34 73 86 3a d7 50 1a 3c 3e 55 1a bc
       0.0039052544 0.0010257722 0.009418688 -0.009419737
000150 d6 7e 95 bd 2b 5d 60 3c 6d cc 17 3c 5f 3b 8c 3b
       -0.07299583 0.013694088 0.0092650475 0.0042795385
000160 9f 25 0b bc 35 e7 cc 3b d0 f9 5a 3c 66 16 9c ba
       -0.008492856 0.006253148 0.013365224 -0.0011908531
000170 44 4b 61 bd 8f ae 63 3b 8d 7a b4 bc 73 a0 9c bb
       -0.05500342 0.0034741496 -0.022031093 -0.004779869
000180 e9 a9 a0 bc 88 30 c5 bc 3f 61 8f bb 7c 7c de 3b
       -0.01961227 -0.024070993 -0.0043756063 0.006789742
000190 bd cc 2d 3c f9 6e 3f 3c b7 27 8e bd 2c b5 d6 bc
       0.010607895 0.011684173 -0.06941169 -0.026209436
0001a0 4a bd 55 3d 77 49 f4 bb 2f 2c 67 bc d5 d5 4b 3c
       0.052182473 -0.0074550468 -0.014109655 0.012441118
0001b0 95 e5 3d bb 18 43 53 3c 71 43 cf bc f2 2d d5 ba
       -0.0028975953 0.012894414 -0.025300713 -0.0016264303
0001c0 54 f6 52 bc 0c b1 3f bc a5 61 ac 3c 07 59 93 3b
       -0.012876112 -0.011699926 0.021042654 0.004496697
0001d0 63 9f b0 3b c7 07 06 3c cf 94 08 3c 65 89 7a bc
       0.005390094 0.008180565 0.00833626 -0.0152915465
0001e0 60 77 dd ba 3f cc f9 3b fb dd eb 3b ca 26 6f 3b
       -0.0016896538 0.007623225 0.007198093 0.0036491626
0001f0 13 ec 25 ba e3 6b 44 3c 2d 88 69 3c f5 90 5a bc
       -0.0006329428 0.011988613 0.014253658 -0.0133402245
000200 55 d6 d5 bc 36 12 1f bd 4f 87 2a 3c 6d e9 da 3a
       -0.026103178 -0.038835727 0.010408237 0.0016701646
000210 bd c5 97 3b 53 a8 45 bc 57 9d aa bc d9 16 17 bb
       0.0046317265 -0.012064057 -0.020826979 -0.002305439
000220 bf d4 70 bc 07 e8 86 3c b7 9c a4 3a 2b 77 02 bd
       -0.01469916 0.016468061 0.0012558912 -0.03185193
000230 0e 0a cb 3c 35 dd ce 3c c7 ff 43 3b 1e f5 da bc
       0.024785068 0.025251964 0.0029907094 -0.02672821
000240 08 36 0e 3d c9 71 20 bd 3e ae 1c 3c 2b 88 48 bc
       0.034719497 -0.039171014 0.009563027 -0.012239496
000250 87 4e 2c 3c b4 61 2d bd 7a 4d 05 bb da d1 a9 3c
       0.010516769 -0.042329505 -0.002034037 0.020729948
000260 96 a6 c0 3b a2 f3 c5 bb 84 75 42 3d a5 0a 91 3a
       0.0058792336 -0.006041006 0.047475353 0.0011065794
000270 8c 7c ae 3c a8 1c 65 bc ff 01 65 3c d8 91 f0 3c
       0.021299623 -0.013983883 0.013977527 0.029366419
000280 c0 99 27 bc 90 d0 80 3c 04 9c 06 bd ba f2 43 bc
       -0.010229528 0.01572445 -0.03286363 -0.011959726
000290 47 9b 2c bc cc be 0e 3c 9e 73 42 3d 91 4b 96 3c
       -0.010535068 0.008712482 0.047473542 0.01834658
0002a0 d0 47 7a 3c 23 8e ac 3b 1b d4 a2 bc 85 b2 f2 3a
       0.0152759105 0.0052659675 -0.01987653 0.0018516338
0002b0 0c 6b de 3b 0a ba 5f 3b 81 ab 06 bd 4d 87 67 bc
       0.0067876633 0.0034137988 -0.032878403 -0.014131379
0002c0 00 88 0c bc 26 e1 d7 3b 9f 4e 78 bc 6c ed ec bb
       -0.008577347 0.006588119 -0.0151554635 -0.0072304513
0002d0 dd 39 39 bc 2c 1f 26 3b b3 26 9f 3c cf f4 84 bb
       -0.0113053 0.002534817 0.019427633 -0.004057504
0002e0 13 e3 95 3c 19 5b 91 3b 92 a3 61 3c b6 43 05 3c
       0.018296754 0.0044359085 0.013771908 0.008133819
0002f0 44 d6 19 bc 96 98 63 bc e5 69 82 39 7c e0 fa 3c
       -0.009389464 -0.01389136 0.0002487443 0.03062462
000300 45 e5 c1 3a 7b c3 ce bb 1c 36 cc bc 40 ad 2b 3d
       0.0014793059 -0.006309924 -0.024928145 0.04191327
000310 29 cc 71 3c 4f f5 56 bc 6c 47 b9 ba 27 65 44 bd
       0.014758148 -0.01312001 -0.0014135665 -0.04794803
000320 f6 1b 42 39 3f 13 aa 3c 9d 64 1e bd 3f 2d 32 bd
       0.00018511698 0.02076113 -0.03867017 -0.04350018
000330 7e 39 b0 bb 67 38 04 bb ec 9e 9e 3b f9 54 23 3c
       -0.0053779474 -0.002017522 0.0048407223 0.0099689895
000340 51 34 4b bc 6a dc e6 3b d5 0a 7b bc c6 4b 14 bb
       -0.01240261 0.0070453184 -0.015322407 -0.0022628172
000350 1e 57 43 3d 9d ef ee 3b 43 1a 5f bc 90 28 c7 3b
       0.047690503 0.0072917477 -0.013617101 0.0060778335
000360 a1 6f 15 3c 6a bc b9 bb fe c9 98 bc 2b 0d 67 3b
       0.009120853 -0.0056682127 -0.018651005 0.0035255651
000370 1f a2 66 3d d0 63 01 bb 9e 47 25 bc fc 14 de bb
       0.056306954 -0.001974333 -0.010087876 -0.006777404
000380 b4 35 1f 3b 5d 65 88 3b 9c 4e 8a b6 fa 90 b2 3c
       0.0024293484 0.004162474 -4.121872e-06 0.021797646
000390 e2 ab 08 bd e1 e9 ab 3b d4 30 0b 3d 95 ef 09 3d
       -0.033367045 0.0052463864 0.033982113 0.03367575
0003a0 eb d4 3d bd 1d 08 1a 3c b6 bf c2 3c c4 05 2c bb
       -0.046345633 0.009401348 0.023773056 -0.0026248554
0003b0 06 3d 01 bc 20 da 96 3b e2 a7 d6 3a e4 a7 2f bc
       -0.007888084 0.0046036392 0.0016376937 -0.010721181
0003c0 c6 a7 54 3c 4a 52 cd 3b f0 a0 db bb f4 f4 ee 3b
       0.012979453 0.006265913 -0.006702535 0.0072923843
0003d0 fa 99 3c bc 3a 87 ce bc 6a 1d 35 bb 96 40 0f 3c
       -0.01151132 -0.025210965 -0.002763594 0.008743426
0003e0 f2 de fe bc 12 f3 21 3c 1a d8 8a bb 67 f4 ec bb
       -0.031112168 0.009884613 -0.004237187 -0.0072312835
0003f0 60 02 da 3b e0 cc d8 3a 17 b3 ab bb 98 cd 0e bc
       0.006653115 0.001654055 -0.005239855 -0.00871601

action_model._discrete_distribution.branches.1.bias f4 [2]
000000 06 6a be 39 cd 69 be b9
       0.00036318618 -0.00036318452
