results/Test1/BossAi/checkpoint.pt (torch, 764267 bytes, 27 tensors)

discrete_act_size_vector f4 [1, 2]
000000 00 00 40 40 00 00 00 40
       3.0 2.0

network_body._body_endoder.seq_layers.0.weight f4 [128, 6]
000000 01 b8 b1 3e 0f 4c d5 be 5a 61 5a be ce c6 50 bf
       0.34710696 -0.4165959 -0.21326199 -0.8155335
000010 4b e4 38 be 9e 17 26 bf d0 03 bf 3e 4b 54 da be
       -0.18055837 -0.64879787 0.37307596 -0.42642435
000020 24 6f 58 3e 30 c5 9f 3e b6 e2 b5 be 40 ce ad be
       0.21136147 0.3120513 -0.3552453 -0.3394642
000030 f9 d5 de 3e 33 8a 9b 3e e7 62 bb 3e 95 d4 09 bf
       0.43522623 0.30378875 0.36598894 -0.5384
000040 bc a3 f1 be aa 9a 6d bd d9 9b 74 3c cb e9 cf 3e
       -0.47195232 -0.058008827 0.014929735 0.40608057
000050 1d ba ec be 46 66 5b 3f e3 58 b8 bd 31 17 8f 3e
       -0.46235743 0.8570293 -0.09001329 0.2794738
000060 b3 8e f3 be 3f 9c 58 3e aa 81 15 3e a2 6b 99 bb
       -0.47569808 0.21153353 0.14600244 -0.0046820203
000070 10 98 44 3e d5 82 8c be f5 64 31 3c 2c 13 0e bf
       0.19198632 -0.27443567 0.010827293 -0.55498004
000080 69 e0 72 3d a9 13 bf 3d db 2c cc be cb b8 17 bf
       0.059296045 0.09329922 -0.39877972 -0.59266347
000090 3f 2d 78 bf 80 6c ef bd 02 15 96 be 7f 8d 8f 3e
       -0.9694404 -0.116906166 -0.29312903 0.2803764
0000a0 ab 03 06 bf f2 cd 4a 3e 17 e8 b9 bd e7 b1 56 3e
       -0.52349347 0.19805124 -0.09077471 0.20966302
0000b0 8b 4f a4 be bc 87 d5 bd 06 3c bb be de 26 b4 be
       -0.32091936 -0.1042628 -0.36569232 -0.35185903
0000c0 a9 fc a9 3e e5 47 02 3f 23 71 41 be d0 6e a0 3d
       0.33200577 0.5089095 -0.18890814 0.07833636
0000d0 c6 15 89 3e a8 07 f3 3d ec 7f 56 be ad 35 be be
       0.26774424 0.11866695 -0.20947236 -0.37150326
0000e0 d7 9d 9c be c5 56 89 3f 8e d0 43 3f 4e ea ab bd
       -0.30589172 1.0729605 0.76490104 -0.083942994
0000f0 49 27 f0 bd 7e 28 ca bd 35 4c b2 be 3a 55 de 3e
       -0.11726243 -0.098710045 -0.34823766 0.43424398
000100 b3 f0 4f be 38 52 16 bf f2 bb bb 3e cd f5 e1 be
       -0.20306663 -0.58719206 0.36666828 -0.44132844
000110 44 78 1e be 2e b5 1d 3e 0a cc b2 bf 65 f6 61 be
       -0.15475565 0.15401146 -1.3968518 -0.22066648
000120 cc b0 ad be eb 12 ec 3e 0e 31 83 be 49 74 11 3f
       -0.33923948 0.46108183 -0.25623363 0.5681806
000130 41 c0 99 3e 9f 0b 6c bd 93 15 1d 3f 41 22 54 3e
       0.3002949 -0.05762827 0.61361045 0.20716192
000140 60 08 11 3d 4b a0 30 3e 44 51 41 bf 83 b8 3b bd
       0.035408378 0.17248647 -0.75514627 -0.04583026
000150 a5 8f 9e bc 62 a2 f8 3d e0 1d 5a 3e 70 65 79 3e
       -0.019355604 0.12140347 0.21300459 0.24355102
000160 4a 3f 11 3f 38 a6 41 3e b5 c5 e2 3d 0a e6 a0 be
       0.56737196 0.18911064 0.11072866 -0.31425506
000170 94 c7 02 3e b5 b6 0e 3e 2b 1f ae 3e af 63 e1 ba
       0.12771446 0.13936885 0.34008154 -0.0017195846
000180 1b e2 d9 be 09 7a e8 bc 44 9a 13 bd 93 79 1d 3f
       -0.42555317 -0.028378503 -0.03603579 0.6151363
000190 90 18 20 3d 19 12 ac 3e 8e 68 4b be ea 33 f5 be
       0.039085925 0.33607557 -0.19864103 -0.4789117
0001a0 dd e6 82 3e ed 19 bc 3d 3d ea be 3e 2c 16 99 3e
       0.2556676 0.091846325 0.37288085 0.29899728
0001b0 04 9b 9d 3d 9f b4 26 bd 9b cc 36 bd 9b 36 43 be
       0.076955825 -0.040699597 -0.04462872 -0.19063799
0001c0 9e 99 0e bf 0d 2e c3 3e d3 3f 16 bf df 2f 96 be
       -0.5570315 0.3812107 -0.5869114 -0.29333398
0001d0 83 e9 d8 3e b8 6c a2 3e 06 ba 0c bf 3f 28 32 3c
       0.42365655 0.3172357 -0.5497135 0.010873853
0001e0 47 20 30 be 81 3c 02 be 90 c4 6e bf 97 96 f5 be
       -0.17199813 -0.12718393 -0.9326868 -0.47966453
0001f0 f3 4f 36 bf 5c a5 2e be 06 c4 02 bf c6 41 b8 3d
       -0.7121574 -0.17055267 -0.5108036 0.0899692
000200 38 af 08 bf ba 24 bf bd 79 59 be bc eb 02 d3 3e
       -0.5339236 -0.09333177 -0.023236023 0.41213164
000210 1a 21 92 3e a5 fd 5d bf 7f 49 52 bf 04 65 2e 3e
       0.2854088 -0.86715156 -0.82143396 0.17030722
000220 41 10 81 be 83 ac 09 3f 97 c4 3d 3e ce 4f f2 3c
       -0.25207713 0.53778857 0.18532024 0.02957907
000230 db e2 c7 bd d0 62 d1 be 96 d8 e7 bd 23 23 83 3e
       -0.09760066 -0.408957 -0.11320607 0.25612745
000240 b4 51 b2 be 8d 65 80 be 42 8a c7 be 7c c8 c0 be
       -0.3482796 -0.25077477 -0.3897267 -0.37652957
000250 19 2f 38 bf 47 03 1d 3e f9 c2 13 3e 25 3e 23 3e
       -0.71946865 0.15333281 0.14429845 0.15941675
000260 11 f3 0c be 70 c9 94 3c ce b6 b3 bd b0 cf 00 be
       -0.13764597 0.01816246 -0.087751016 -0.12579226
000270 3f f7 3c 3e f4 60 08 3f 26 74 ef 3c 53 6a 30 bf
       0.18453692 0.5327294 0.029230189 -0.6891224
000280 e8 cf a2 be 4f 7c e5 3e 5f 8e 1f be aa 02 31 bf
       -0.31799245 0.44821402 -0.15581654 -0.6914469
000290 e3 4c 29 3f 22 9b f9 be 56 32 9b bf dd e7 8f 3e
       0.66132945 -0.4875117 -1.2124736 0.28106585
0002a0 03 0e da 3e 9c 21 84 be 7a aa 2c 3f 23 17 62 bf
       0.42588815 -0.25806892 0.67447627 -0.88316554
0002b0 38 2f c6 bd e7 ff 0e bf 19 b0 71 3e 44 38 1b 3e
       -0.09676975 -0.55859226 0.23602332 0.15158182
0002c0 60 57 50 3d b4 a3 5f 3c 7d 5b 1c bf 4d d7 ba be
       0.050864577 0.01364987 -0.610771 -0.36492386
0002d0 1a 19 5a 3e c5 e2 93 bd d9 e4 1b bd 33 8a d9 bd
       0.21298638 -0.07220987 -0.038060043 -0.106220625
0002e0 8b 04 9a be 5f 30 87 be 04 0d d5 3b da 6e 50 3e
       -0.3008159 -0.26404092 0.0065017957 0.20354787
0002f0 37 c7 0a be 45 1c 95 be f0 87 10 be fa d1 88 3d
       -0.13552557 -0.2912313 -0.14114356 0.06680675
000300 43 d3 96 bf 07 d5 34 3f 54 5e 2d 3e 8a 67 38 3e
       -1.1783222 0.70637554 0.16930515 0.18008247
000310 03 8f e3 3d fb 4e cd 3d b9 b8 57 bb e1 59 17 3f
       0.11111262 0.1002483 -0.00329165 0.5912152
000320 bc 4a 5d 3e cd 3b 93 3f 85 76 21 3f b6 83 ce be
       0.2161054 1.1502625 0.6307147 -0.40334862
000330 9c fc 4c 3e df 3c 18 3f 30 e6 eb 3e 21 ae bb be
       0.20018238 0.5946788 0.46074057 -0.36656287
000340 c3 40 b0 3e 0d 15 d0 be 06 fa 37 be 8e 63 b5 bd
       0.3442441 -0.4064106 -0.1796647 -0.08856879
000350 6b d8 d3 3e 4a 26 65 3e 1a 84 13 3e 23 09 bc bd
       0.4137605 0.22377887 0.14405861 -0.0918143
000360 99 bb 4e 3e da b1 b8 3d 4b 87 38 3e 13 17 0f bf
       0.2018875 0.090182975 0.1802036 -0.55894583
000370 fe 02 ad be af 87 d5 be 6f 03 c3 be 71 68 c6 bd
       -0.33791345 -0.4170508 -0.38088557 -0.09687889
000380 8f d5 86 bc 64 fd 06 be b5 bb 9b be 05 cf 47 be
       -0.016459255 -0.13182598 -0.30416647 -0.19512565
000390 1d 68 b2 bd 42 38 1b bf 71 3b e8 3e ae 25 dd bd
       -0.08711264 -0.6063272 0.4535785 -0.107982025
0003a0 18 e8 2b 3f 57 9f 33 3c d1 34 fd 3e 9e 40 0c bf
       0.6715102 0.010963283 0.49454358 -0.547861
0003b0 e8 6a 0a 3f 99 65 62 be 64 db 0a be 07 fd 1e be
       0.54069376 -0.22109069 -0.13560253 -0.1552621
0003c0 b0 a2 a3 3e be 79 1e be 81 af a2 3d 0c ac 0b 3e
       0.31960058 -0.15476128 0.07943631 0.1363985
0003d0 cb 27 7a bc 73 32 bd be 6a da 5f bf 3f 51 48 3f
       -0.015268276 -0.36952552 -0.8744265 0.7824897
0003e0 1c ec 81 be 4d 90 69 3c 6f ed ee be ca 96 03 bf
       -0.2537545 0.014255595 -0.46665522 -0.5140196
0003f0 d3 17 48 3e 37 09 08 3f 07 57 52 3f 3a dc ab be
       0.19540338 0.5313906 0.82164043 -0.33566457

network_body._body_endoder.seq_layers.0.bias f4 [128]
000000 00 00 00 00 00 00 00 00 00 00 00 00 00 00 00 00
       0.0 0.0 0.0 0.0
000010 00 00 00 00 00 00 00 00 00 00 00 00 00 00 00 00
       0.0 0.0 0.0 0.0
000020 00 00 00 00 00 00 00 00 00 00 00 00 00 00 00 00
       0.0 0.0 0.0 0.0
000030 00 00 00 00 00 00 00 00 00 00 00 00 00 00 00 00
       0.0 0.0 0.0 0.0
000040 00 00 00 00 00 00 00 00 00 00 00 00 00 00 00 00
       0.0 0.0 0.0 0.0
000050 00 00 00 00 00 00 00 00 00 00 00 00 00 00 00 00
       0.0 0.0 0.0 0.0
000060 00 00 00 00 00 00 00 00 00 00 00 00 00 00 00 00
       0.0 0.0 0.0 0.0
000070 00 00 00 00 00 00 00 00 00 00 00 00 00 00 00 00
       0.0 0.0 0.0 0.0
000080 00 00 00 00 00 00 00 00 00 00 00 00 00 00 00 00
       0.0 0.0 0.0 0.0
000090 00 00 00 00 00 00 00 00 00 00 00 00 00 00 00 00
       0.0 0.0 0.0 0.0
0000a0 00 00 00 00 00 00 00 00 00 00 00 00 00 00 00 00
       0.0 0.0 0.0 0.0
0000b0 00 00 00 00 00 00 00 00 00 00 00 00 00 00 00 00
       0.0 0.0 0.0 0.0
0000c0 00 00 00 00 00 00 00 00 00 00 00 00 00 00 00 00
       0.0 0.0 0.0 0.0
0000d0 00 00 00 00 00 00 00 00 00 00 00 00 00 00 00 00
       0.0 0.0 0.0 0.0
0000e0 00 00 00 00 00 00 00 00 00 00 00 00 00 00 00 00
       0.0 0.0 0.0 0.0
0000f0 00 00 00 00 00 00 00 00 00 00 00 00 00 00 00 00
       0.0 0.0 0.0 0.0
000100 00 00 00 00 00 00 00 00 00 00 00 00 00 00 00 00
       0.0 0.0 0.0 0.0
000110 00 00 00 00 00 00 00 00 00 00 00 00 00 00 00 00
       0.0 0.0 0.0 0.0
000120 00 00 00 00 00 00 00 00 00 00 00 00 00 00 00 00
       0.0 0.0 0.0 0.0
000130 00 00 00 00 00 00 00 00 00 00 00 00 00 00 00 00
       0.0 0.0 0.0 0.0
000140 00 00 00 00 00 00 00 00 00 00 00 00 00 00 00 00
       0.0 0.0 0.0 0.0
000150 00 00 00 00 00 00 00 00 00 00 00 00 00 00 00 00
       0.0 0.0 0.0 0.0
000160 00 00 00 00 00 00 00 00 00 00 00 00 00 00 00 00
       0.0 0.0 0.0 0.0
000170 00 00 00 00 00 00 00 00 00 00 00 00 00 00 00 00
       0.0 0.0 0.0 0.0
000180 00 00 00 00 00 00 00 00 00 00 00 00 00 00 00 00
       0.0 0.0 0.0 0.0
000190 00 00 00 00 00 00 00 00 00 00 00 00 00 00 00 00
       0.0 0.0 0.0 0.0
0001a0 00 00 00 00 00 00 00 00 00 00 00 00 00 00 00 00
       0.0 0.0 0.0 0.0
0001b0 00 00 00 00 00 00 00 00 00 00 00 00 00 00 00 00
       0.0 0.0 0.0 0.0
0001c0 00 00 00 00 00 00 00 00 00 00 00 00 00 00 00 00
       0.0 0.0 0.0 0.0
0001d0 00 00 00 00 00 00 00 00 00 00 00 00 00 00 00 00
       0.0 0.0 0.0 0.0
0001e0 00 00 00 00 00 00 00 00 00 00 00 00 00 00 00 00
       0.0 0.0 0.0 0.0
0001f0 00 00 00 00 00 00 00 00 00 00 00 00 00 00 00 00
       0.0 0.0 0.0 0.0

network_body._body_endoder.seq_layers.2.weight f4 [128, 128]
000000 ab 3b d0 3c a0 ec db bd 1e 24 00 bd d7 ec ea 3c
       0.025419077 -0.10738492 -0.031284444 0.028677387
000010 52 ae 7c 3d 6f 2a e8 3c ff a0 39 bd 61 37 15 3e
       0.061689682 0.028340546 -0.045319553 0.14571907
000020 b3 72 dc 3d 83 7b 98 3d 9a 24 6b 3e ed 78 ae 3c
       0.10764065 0.07445433 0.22963181 0.021297896
000030 f7 33 a1 3c c4 ba ab 3c 5b d4 87 3d 19 f7 f8 3d
       0.0196781 0.02096308 0.066323005 0.12156505
000040 23 4b 84 bc 11 1f 15 bd c9 21 71 bd ee e9 0d bd
       -0.01614911 -0.03640658 -0.05887011 -0.03464692
000050 6b f7 14 3d 4f f4 8c 3d 5f 48 3d bc 36 ef 99 bb
       0.03636877 0.06882536 -0.011552899 -0.0046977056
000060 a7 d2 01 be e5 4a 60 bd 83 06 16 bd dd e9 1a 3e
       -0.12678014 -0.054758925 -0.036627304 0.15128274
000070 70 bd a4 bc f5 34 1a 3e 62 85 cf bd 6e b9 02 3e
       -0.020109862 0.15059264 -0.10132863 0.12766048
000080 f3 db 2f bd a8 6a 6c 3d 3d 7e ee bd 79 44 96 bd
       -0.04293437 0.057718903 -0.11645172 -0.07337279
000090 90 4b a7 3d 8a 11 dd bd 6c 00 76 3d 8c 01 5a be
       0.08168709 -0.10794361 0.060058996 -0.21289653
0000a0 28 6e fd bd 3c 54 39 3d 5f 86 74 bc 2f 69 2e 3c
       -0.12374526 0.045246348 -0.014924615 0.010645195
0000b0 89 e1 a9 bc 07 e3 d9 bc 5b d6 0b be b7 de 9d bd
       -0.020737426 -0.026597513 -0.13655989 -0.07708495
0000c0 e8 89 6d 3e 31 7f 29 bd d4 c5 75 3c dc c6 06 be
       0.23197138 -0.041381065 0.015000779 -0.13161796
0000d0 2b c6 d6 3c 17 18 92 bd ba e7 e0 3c 6a 28 de bd
       0.02621754 -0.07133501 0.027454246 -0.10847552
0000e0 80 5e ad bd d3 a2 e0 bd b4 a6 79 3c 19 b1 16 bd
       -0.0846529 -0.10968556 0.015237499 -0.036789987
0000f0 0d 9f 9c 3d 5d 1f d5 bd 1b f4 22 be 96 5e 1d 3d
       0.07647524 -0.10406373 -0.15913431 0.038420282
000100 9f 4e e5 3d 32 2e 0d bc 35 a0 82 3d 2b 66 23 bd
       0.111966364 -0.008616971 0.06378213 -0.039892357
000110 38 db af bc c3 48 9a bc ac a7 f7 bc b6 09 4d 3c
       -0.021466836 -0.018833524 -0.03023132 0.012514522
000120 6a f4 44 3d 74 03 0e 3e 08 2d 00 bd 54 62 f3 3d
       0.048084654 0.13868505 -0.031292945 0.11883989
000130 63 18 d6 bd c8 68 3f bd 2a 31 af bd 0c 1a 0b 3e
       -0.1045387 -0.046730787 -0.08554299 0.13584155
000140 54 6e d2 3d 10 44 be 3d 5c 7c 77 3d f0 70 2a bd
       0.1027495 0.09290326 0.060421333 -0.04161161
000150 4a c2 77 bd 6f 9b 09 3e ca 9e af 3d a4 80 a8 bb
       -0.060488023 0.134382 0.085752085 -0.0051422883
000160 70 19 f4 ba f9 ca cf 3d f8 2d 88 bd f4 e6 a1 3d
       -0.0018623304 0.10146136 -0.06649393 0.07905379
000170 cc a4 1f 3d e4 23 de 3c ab 8f 6b 3d 17 be d1 bd
       0.038975522 0.027116723 0.05751006 -0.10241335
000180 46 ed 91 bd ce 12 5a 3d e1 cd 2d bd 1a 30 b8 3c
       -0.071253344 0.05324059 -0.04243267 0.022483874
000190 c4 be a5 bc 3d 2e 0b 3d 6d c7 77 bc e9 29 09 3c
       -0.020232566 0.033979643 -0.01512323 0.008371809
0001a0 17 30 96 bd 66 11 82 bd 18 3e 93 3d e2 e3 a3 bb
       -0.07333391 -0.06350975 0.07189578 -0.005001531
0001b0 ca 5c bd bd bd e7 cc 3d 52 82 96 3d 39 02 ad bd
       -0.09246214 0.10005138 0.073490754 -0.084476896
0001c0 18 4c 06 be 32 ed 1b bd 30 ab ac 3c 75 b9 2f bb
       -0.13114965 -0.038068004 0.021077722 -0.0026813422
0001d0 38 d8 b6 bd af 6c 1c bd 23 79 80 bd 86 01 37 ba
       -0.08927959 -0.038189586 -0.06273105 -0.0006981123
0001e0 c1 45 30 3c 17 07 8a 3a b6 bd e3 3b 27 61 54 bc
       0.010758818 0.0010530677 0.0069501055 -0.012962616
0001f0 2a d1 12 bd f5 79 29 be 61 5f 3f 3c 5a e8 14 3d
       -0.035844006 -0.16550429 0.011680455 0.0363544
000200 de 25 6d 3d 0e 46 97 3d 02 56 b5 bc e3 7a 9a 3c
       0.05789744 0.07386409 -0.022135738 0.018857425
000210 5c 9f ce 3c 22 56 b8 bd 4f 5c d8 bd 2f d4 79 bd
       0.025222473 -0.090008035 -0.105644815 -0.06099337
000220 f2 b2 27 3e 43 8a 89 3d 38 c0 60 3d 21 59 70 bd
       0.16376856 0.067158245 0.054870814 -0.05867875
000230 10 d8 c7 bd 34 ca ac 3d 15 fc 16 3e cd 63 f8 bc
       -0.097580075 0.08437005 0.14744599 -0.030321026
000240 9d 09 52 3d a7 09 c2 3b 00 09 c1 3c a9 54 b7 3d
       0.0512787 0.005921561 0.023563862 0.089516945
000250 1f 56 71 bc b7 49 f0 bc 1f 16 0e 3e be 84 0c bc
       -0.0147300055 -0.029332025 0.13875626 -0.00857657
000260 61 f7 a3 bd 31 cc a9 bc 4e 9e 82 3d d8 b0 99 3b
       -0.08006168 -0.020727249 0.063778505 0.004690271
000270 8e e9 02 be 23 19 0e be f8 53 00 bc f1 1c fa bb
       -0.12784407 -0.13876776 -0.00783252 -0.0076328446
000280 af 38 de bd a8 2c f3 bc cd cd 0f bd 32 81 c8 bd
       -0.10850655 -0.02968438 -0.035108376 -0.09790267
000290 de 5d 24 3e bf ce d3 3c 1e 43 a6 3d 60 f3 a1 3d
       0.16051432 0.02585542 0.0811827 0.07907748
0002a0 4d da 73 be 0d 30 f5 bc 61 9b 5a 3d 90 f5 33 3d
       -0.23813744 -0.029930139 0.053370837 0.04393536
0002b0 0b c2 ad 3d ab 21 68 bd 9d a3 14 be fc 7d 5a bd
       0.084842764 -0.056672733 -0.14515539 -0.053342804
0002c0 9d 69 71 bd 88 c0 a7 3d b7 fa 1b 3d c7 3a ef 3c
       -0.05893861 0.08191019 0.038080897 0.029202832
0002d0 e1 79 09 bc 0e 56 bf bc 20 7b 9c 3c d4 a3 5a 3d
       -0.008390875 -0.023356464 0.01910168 0.053378895
0002e0 0e f7 de bb be e5 91 bd 85 6d 9d 3d 56 57 97 bd
       -0.0068043536 -0.07123898 0.07686905 -0.07389705
0002f0 a6 99 69 bd 38 2a eb 3d eb ab d5 bd 94 fc 5b 3d
       -0.057031296 0.11482662 -0.104331814 0.053707674
000300 02 34 44 be c7 3f b1 bd 23 7c cd 3c 2e 6c 2d 3d
       -0.19160464 -0.08654743 0.025083607 0.042339496
000310 21 64 22 be 4a 89 45 3d 6a 3a 19 bb 40 5f aa 3d
       -0.15858509 0.048226632 -0.0023380765 0.08318949
000320 27 5b 18 39 64 48 f4 3d b5 54 03 bd d3 83 6d 3d
       0.00014529807 0.1192787 -0.032063205 0.057987045
000330 bc 6c 03 bd 52 0d 7e be 4b 8e 6c bc 12 c1 1b be
       -0.03208612 -0.24809769 -0.014438222 -0.15210369
000340 a1 45 e7 bd 81 2d 9f bd 19 b3 f7 bc 93 61 ef bd
       -0.112925775 -0.07772351 -0.030236768 -0.11688533
000350 4a cb bf bd 76 91 11 3d 9e 89 26 3d 79 b7 83 bd
       -0.09364946 0.035539113 0.040658586 -0.06431479
000360 d9 ee 18 3d ac ff 89 bd 7b 1e ac 3d ae 1a db 3d
       0.037337158 -0.06738219 0.08404251 0.10698448
000370 2d b3 0d bd 48 c6 16 bd 03 72 11 be a9 88 29 bc
       -0.034594703 -0.03681019 -0.14203648 -0.010347524
000380 d4 53 58 bc a5 b2 18 3c 68 05 af 3c 6f da eb 3d
       -0.01320358 0.009319936 0.021364883 0.11516272
000390 39 4d ac bd 19 3b ae bd 3e e8 19 bc 28 28 8f bd
       -0.084131666 -0.08507366 -0.00939375 -0.06990081
0003a0 9b 64 17 be 47 7e 9a 3d 45 c0 e8 bb 30 84 28 3e
       -0.14784472 0.07543617 -0.0071029984 0.16456676
0003b0 4c 53 fd 3d 10 48 40 3e 63 88 45 3e a2 d6 0f be
       0.12369403 0.1877749 0.19290309 -0.1404672
0003c0 ba 44 1a 3d 5d 9f c4 bc 75 a0 0e be ea 5e 05 bd
       0.0376632 -0.024001772 -0.13928397 -0.03256122
0003d0 a3 38 d1 bd a9 3a 0d 3e 0b f0 03 bd 52 b7 32 3d
       -0.10215881 0.13791908 -0.032211345 0.04363186
0003e0 91 36 7a 3d 77 0f 9b 3c 60 17 f7 3d 84 d7 67 bb
       0.061087195 0.018928273 0.12065005 -0.003537626
0003f0 b3 e6 e3 3d 86 06 df bc 96 e2 22 3d 03 05 1f be
       0.11127987 -0.02722479 0.03976687 -0.15529256

network_body._body_endoder.seq_layers.2.bias f4 [128]
000000 00 00 00 00 00 00 00 00 00 00 00 00 00 00 00 00
       0.0 0.0 0.0 0.0
000010 00 00 00 00 00 00 00 00 00 00 00 00 00 00 00 00
       0.0 0.0 0.0 0.0
000020 00 00 00 00 00 00 00 00 00 00 00 00 00 00 00 00
       0.0 0.0 0.0 0.0
000030 00 00 00 00 00 00 00 00 00 00 00 00 00 00 00 00
       0.0 0.0 0.0 0.0
000040 00 00 00 00 00 00 00 00 00 00 00 00 00 00 00 00
       0.0 0.0 0.0 0.0
000050 00 00 00 00 00 00 00 00 00 00 00 00 00 00 00 00
       0.0 0.0 0.0 0.0
000060 00 00 00 00 00 00 00 00 00 00 00 00 00 00 00 00
       0.0 0.0 0.0 0.0
000070 00 00 00 00 00 00 00 00 00 00 00 00 00 00 00 00
       0.0 0.0 0.0 0.0
000080 00 00 00 00 00 00 00 00 00 00 00 00 00 00 00 00
       0.0 0.0 0.0 0.0
000090 00 00 00 00 00 00 00 00 00 00 00 00 00 00 00 00
       0.0 0.0 0.0 0.0
0000a0 00 00 00 00 00 00 00 00 00 00 00 00 00 00 00 00
       0.0 0.0 0.0 0.0
0000b0 00 00 00 00 00 00 00 00 00 00 00 00 00 00 00 00
       0.0 0.0 0.0 0.0
0000c0 00 00 00 00 00 00 00 00 00 00 00 00 00 00 00 00
       0.0 0.0 0.0 0.0
0000d0 00 00 00 00 00 00 00 00 00 00 00 00 00 00 00 00
       0.0 0.0 0.0 0.0
0000e0 00 00 00 00 00 00 00 00 00 00 00 00 00 00 00 00
       0.0 0.0 0.0 0.0
0000f0 00 00 00 00 00 00 00 00 00 00 00 00 00 00 00 00
       0.0 0.0 0.0 0.0
000100 00 00 00 00 00 00 00 00 00 00 00 00 00 00 00 00
       0.0 0.0 0.0 0.0
000110 00 00 00 00 00 00 00 00 00 00 00 00 00 00 00 00
       0.0 0.0 0.0 0.0
000120 00 00 00 00 00 00 00 00 00 00 00 00 00 00 00 00
       0.0 0.0 0.0 0.0
000130 00 00 00 00 00 00 00 00 00 00 00 00 00 00 00 00
       0.0 0.0 0.0 0.0
000140 00 00 00 00 00 00 00 00 00 00 00 00 00 00 00 00
       0.0 0.0 0.0 0.0
000150 00 00 00 00 00 00 00 00 00 00 00 00 00 00 00 00
       0.0 0.0 0.0 0.0
000160 00 00 00 00 00 00 00 00 00 00 00 00 00 00 00 00
       0.0 0.0 0.0 0.0
000170 00 00 00 00 00 00 00 00 00 00 00 00 00 00 00 00
       0.0 0.0 0.0 0.0
000180 00 00 00 00 00 00 00 00 00 00 00 00 00 00 00 00
       0.0 0.0 0.0 0.0
000190 00 00 00 00 00 00 00 00 00 00 00 00 00 00 00 00
       0.0 0.0 0.0 0.0
0001a0 00 00 00 00 00 00 00 00 00 00 00 00 00 00 00 00
       0.0 0.0 0.0 0.0
0001b0 00 00 00 00 00 00 00 00 00 00 00 00 00 00 00 00
       0.0 0.0 0.0 0.0
0001c0 00 00 00 00 00 00 00 00 00 00 00 00 00 00 00 00
       0.0 0.0 0.0 0.0
0001d0 00 00 00 00 00 00 00 00 00 00 00 00 00 00 00 00
       0.0 0.0 0.0 0.0
0001e0 00 00 00 00 00 00 00 00 00 00 00 00 00 00 00 00
       0.0 0.0 0.0 0.0
0001f0 00 00 00 00 00 00 00 00 00 00 00 00 00 00 00 00
       0.0 0.0 0.0 0.0

action_model._discrete_distribution.branches.0.weight f4 [3, 128]
000000 d7 ac 47 ba fe 6a 1e bc 28 66 ce bc 32 dc 61 b9
       -0.00076170027 -0.009669064 -0.025195196 -0.00021539701
000010 b7 0d 3c 3c 3d 7e 4f 38 92 14 0d 3c ef 94 2f bc
       0.011477879 4.9470214e-05 0.008610861 -0.010716661
000020 6f 83 68 3c 97 17 41 3a 21 e6 bf 39 6f 85 32 3b
       0.014191492 0.0007365881 0.00036601818 0.0027240177
000030 3b a7 c9 39 7a af 7c bb 63 83 32 3c 43 f1 1c bc
       0.00038462304 -0.003855674 0.010895583 -0.009579006
000040 98 96 a3 36 07 92 4a 3c 30 f9 10 bc 00 f2 d8 3b
       4.87531e-06 0.012363917 -0.008848473 0.0066206455
000050 db 09 ae 3c 37 d6 97 bb d5 2b 5c bc ae 7d 2d 3c
       0.021244934 -0.0046336907 -0.013438185 0.010589046
000060 d6 93 94 3b a5 71 64 3a 73 c9 36 3b cb 38 af 3b
       0.004534225 0.0008714444 0.002789107 0.0053473464
000070 5d ee 4f 3b 67 ec 87 3b 0c 6e 12 3c d3 f3 12 bc
       0.003172777 0.0041480544 0.00893737 -0.008969265
000080 96 54 43 3c 66 fb 9b bb cd 98 82 bb ea f1 cc ba
       0.011922022 -0.0047601936 -0.0039855004 -0.0015636061
000090 ef be 11 3b 8f 57 95 bc 3f ec 7b bc 7b d2 aa bb
       0.002223905 -0.018230228 -0.01537615 -0.0052130795
0000a0 2e b1 2c 3c be 0a 19 3c ae 86 c8 b9 e8 66 4a 3c
       0.01054029 0.00934094 -0.00038247317 0.012353636
0000b0 8c df 94 3c a2 e8 c2 3a 7f 9a 78 3b df bf 3e 38
       0.018173002 0.0014870355 0.0037933884 4.5478224e-05
0000c0 bd 8a 85 bc 35 79 87 ba 25 3d f4 3b 18 f6 cd bb
       -0.016301507 -0.0010335805 0.007453578 -0.00628544
0000d0 84 e7 a5 bb fb b2 4a 3c 50 39 a1 ba 1b ad 58 3c
       -0.005062999 0.012371774 -0.0012300406 0.013224865
0000e0 3b b9 94 3c d3 cc 54 bc d8 7b 4f 3c 4e 02 9e bb
       0.018154731 -0.012988287 0.012663804 -0.004822052
0000f0 ff d1 12 bc 4d bf e7 bb e1 df 3e bc c2 88 4b 3c
       -0.0089612 -0.0070723654 -0.011650057 0.012422742
000100 42 cb 5d bc 96 a0 09 bc 42 bd e7 3a e7 1f 10 bc
       -0.01353723 -0.008400103 0.0017680305 -0.008796669
000110 5b 9f 3e bb fa a0 0b bc 17 6d 19 bc 7f 9d 3f bc
       -0.0029086682 -0.0085222665 -0.009364388 -0.011695265
000120 29 9e 12 3c ce c2 0b 3c 3f 9d db 3a 63 1e 95 bb
       0.008948841 0.008530332 0.0016755237 -0.0045507415
000130 4c 26 22 3b 15 d8 21 bc 4b 77 04 3b 45 b6 ab bb
       0.0024742065 -0.009878178 0.0020212706 -0.005240234
000140 e3 a4 a7 3b db 3f b0 ba b8 83 d2 3b a8 4a 9c 3a
       0.0051160916 -0.0013446765 0.0064243935 0.0011924105
000150 f7 e0 f9 b9 76 11 b6 3b 79 80 87 bc 30 77 88 3c
       -0.00047660593 0.0055562807 -0.016540753 0.016658396
000160 19 7a 9e 3b ff 8e 5e bc 17 90 60 bc cb a2 9e 3b
       0.0048363325 -0.013583898 -0.013706229 0.004841184
000170 e3 c8 8e bc db 9b 9d bc 2f 18 b8 bb c9 af 93 bb
       -0.017429775 -0.019239357 -0.0056181173 -0.004507039
000180 af f0 7b ba b7 5b 85 3c 50 2b 8e 3b e8 4d 6d bb
       -0.0009610755 0.016279085 0.0043386593 -0.0036209766
000190 cc d3 b0 bb 8c 3e 12 3c 35 1d ac ba 85 b0 9d 3b
       -0.005396342 0.008926045 -0.0013131263 0.0048123025
0001a0 a7 1a 71 3c a7 4d 08 3c 87 44 da 3b ed 60 ac 3a
       0.014715827 0.008319295 0.006661001 0.0013151445
0001b0 05 0c 73 3a cd 6a dc 3a 63 c8 7a 3b 2a 8e e9 bc
       0.00092715054 0.0016816497 0.0038266412 -0.028510172
0001c0 43 54 91 3c a1 79 0f bc c1 9f bb 3b bf 85 95 bb
       0.017740374 -0.008757026 0.0057258313 -0.004563063
0001d0 33 fc 38 3c 3b e2 ea ba 30 f8 60 3b 8f b7 72 3b
       0.011290598 -0.0017920205 0.0034327619 0.003703568
0001e0 06 ba 96 3b 7e 21 a3 bb 3a 52 f5 bb 0f 6b e2 b9
       0.0045998124 -0.004978358 -0.007486609 -0.00043185844
0001f0 2b d2 a2 ba e9 a1 3e bc a2 a3 2c bc 4f 7e 5c 3b
       -0.0012422254 -0.011635282 -0.01053706 0.0033644622
000200 37 ef 0d bb 9a f9 99 bb cd b2 c4 ba 63 25 cf ba
       -0.0021657476 -0.0046989443 -0.00150069 -0.0015803989
000210 7d 1f 04 3c 71 13 95 3c 32 38 58 bb 5a 18 d9 39
       0.008064148 0.018197747 -0.003299248 0.0004140761
000220 d7 ca f7 bb 23 22 8a 3a 6c af 41 3c 95 34 b6 3b
       -0.007562022 0.0010538738 0.011821609 0.0055604675
000230 8a 0b ea 3b 9d 3e df bb 0a 66 5e 3c fa d1 61 3c
       0.007142489 -0.006812884 0.013574133 0.0137829725
000240 d9 96 96 3b d2 3a 28 3b 0d d6 4a bc 04 15 83 3b
       0.004595619 0.0025669825 -0.012380135 0.004000308
000250 f7 81 57 3b a9 89 42 bc f7 96 07 3c f8 5c ef 3b
       0.0032883862 -0.011873641 0.008275739 0.007304784
000260 ed 79 e2 bb 3d 03 5e bb ac 52 b1 ba b0 06 d7 bb
       -0.0069115073 -0.0033876442 -0.0013528666 -0.0065620765
000270 aa fd 24 3c 78 25 85 bb f3 f6 d9 bb 47 0e 9a 3b
       0.010070244 -0.0040633045 -0.006651753 0.004701409
000280 32 b9 76 bc af 5a 55 bb f8 6b e3 ba b3 36 f5 3b
       -0.015058802 -0.0032555272 -0.0017350903 0.0074833273
000290 7a 72 b6 3a cf 88 4a bb a3 66 8d 3b 96 c7 94 bb
       0.0013919615 -0.0030904298 0.0043152138 -0.004540394
0002a0 95 f2 3a bc e4 2a 13 3c fd 4e 9c 3b a7 23 19 3c
       -0.011410375 0.008982394 0.0047701583 0.009346879
0002b0 b4 b8 3d bc e8 83 10 3c 4d 86 a3 bb 66 e3 19 bb
       -0.011579681 0.008820511 -0.004990375 -0.0023481487
0002c0 f0 16 62 3c 5a 3f 2e bc 7b 80 dd ba 8d e6 81 3b
       0.013799414 -0.010635221 -0.0016899252 0.0039642514
0002d0 30 ab c8 bb 16 bd 9b 3b 7f 15 3e 3c 32 7f 6d bc
       -0.0061239228 0.0047527654 0.011601805 -0.014495658
0002e0 27 8c 0a bc 38 e0 58 3b 33 8a c1 3b e0 81 88 bb
       -0.0084562665 0.003309263 0.005906367 -0.004165873
0002f0 32 34 4a bc bf 41 2a bc 23 64 04 bc 68 ef 71 bc
       -0.012341546 -0.010391652 -0.008080515 -0.014766552
000300 27 49 eb 3b ae c2 0c 3c 9f 43 84 bb f7 d6 13 bc
       0.0071803513 0.008591337 -0.0040363814 -0.00902342
000310 bb e5 86 3c 09 12 96 bb a8 80 1d ba 9b ac d2 ba
       0.016466966 -0.0045797867 -0.0006008246 -0.0016073169
000320 3d 9c 96 3c 13 da a4 3c 1b 31 b7 3b ff eb 0d 3b
       0.018385047 0.020123517 0.0055905706 0.0021655557
000330 db c3 68 39 1b ad 60 3b 90 f7 56 3c 95 c0 85 3b
       0.00022198206 0.0034282866 0.013120547 0.0040817955
000340 d7 56 6c 3b af 18 72 3b d0 fb ba bb de 4a b8 bb
       0.0036062503 0.0036940982 -0.005706288 -0.0056241592
000350 d5 14 71 bb e0 37 db 39 2f 56 b9 ba 17 d6 7f 3a
       -0.0036786098 0.00041812565 -0.0014140065 0.000975938
000360 6a 26 f2 bb 2e c9 3e 3a 52 3f df 3b 7c 9e 14 bb
       -0.007389833 0.0007277903 0.0068129683 -0.0022677472
000370 39 c7 36 3c e7 24 73 3b f3 89 93 3c 0a 14 4d 3c
       0.011155897 0.0037100853 0.018010115 0.012516985
000380 f7 04 a7 3a 8f 83 36 3c ad f8 75 3a 02 d3 c8 3a
       0.0012742569 0.011139764 0.0009383064 0.0015321674
000390 4b c2 32 bc 75 fe 56 ba cf e6 ac ba 25 16 77 3b
       -0.010910581 -0.0008201369 -0.0013191345 0.0037702408
0003a0 0e 15 4b 3c ea 81 d2 bb d7 8a f7 3b 30 10 d7 bb
       0.012395157 -0.0064241784 0.007554393 -0.006563209
0003b0 b5 f6 af 3c 3e f6 83 bc 7e fa 13 3c c4 1d 23 3c
       0.021479944 -0.016108628 0.00903189 0.009955827
0003c0 ea 1e d8 bb ed f7 1e 3c 77 90 21 3b 9e 14 84 bb
       -0.006595482 0.009702665 0.0024652758 -0.004030778
0003d0 7b 20 0b bb 22 68 4c 3b 7d 6d 1a bc 17 36 51 bc
       -0.0021229077 0.0031189998 -0.009425518 -0.012769244
0003e0 72 50 0b bc 7e ad 27 bc 22 fb 92 bb fc 74 8b bc
       -0.008503066 -0.010234235 -0.004485504 -0.017023556
0003f0 b6 3e 86 bb eb 4c 14 3c 3f b8 6b 3b ac e2 23 bc
       -0.004096831 0.009051542 0.0035967974 -0.010002773

action_model._discrete_distribution.branches.0.bias f4 [3]
000000 00 00 00 00 00 00 00 00 00 00 00 00
       0.0 0.0 0.0

action_model._discrete_distribution.branches.1.weight f4 [2, 128]
000000 79 6e 0b bc cb f5 84 bb 18 ff f6 bb 2d de 79 bc
       -0.008510225 -0.004057621 -0.0075377338 -0.015250725
000010 f8 75 2c ba 20 71 5f 3b 1f 77 b2 b8 ef 08 dd bb
       -0.0006578858 0.0034094527 -8.5098894e-05 -0.0067454497
000020 a2 9e 20 bb d1 cf 07 bc 1d 05 ed 3b 5c 33 82 bc
       -0.0024508615 -0.008289293 0.0072332756 -0.01589363
000030 ad a0 fd 3b 25 8d b9 ba ef 13 d8 3b 2f 01 47 bc
       0.0077401013 -0.0014156444 0.006594173 -0.012146278
000040 86 aa 90 3c 1e 09 96 3c 87 05 ad 3b 9b 24 0e 3b
       0.017659437 0.018314894 0.0052802 0.00216893
000050 71 41 0e bc 45 44 7f bc 28 26 35 ba 9c e8 b0 bb
       -0.008682595 -0.015580242 -0.0006910288 -0.005398823
000060 f7 e2 e3 bb b1 94 94 3b 3b 80 a6 bb 3b 73 95 bb
       -0.0069545466 0.004534327 -0.005081204 -0.0045608557
000070 31 ae 2f 3c 12 56 f3 bb df 32 e6 3b 17 31 95 3b
       0.010722683 -0.007426032 0.0070251073 0.004552971
000080 8c 81 9b 3b 01 0d 02 3c 53 11 5b bb c0 3b e2 3a
       0.004745668 0.007937671 -0.0033427074 0.0017260239
000090 d8 37 f4 3a 03 1d 3b 3c 64 87 89 bb 07 64 ce 3a
       0.0018632365 0.011420491 -0.004197048 0.0015746363
0000a0 b3 67 35 bb 46 16 06 bc d8 a4 2b bc b0 f3 6a bc
       -0.0027680218 -0.008184021 -0.0104763135 -0.014340326
0000b0 dd d7 d1 bc cf 6d 98 3b 37 1f ca bb 2f bb 56 bc
       -0.025615627 0.004651762 -0.006168272 -0.0131061515
0000c0 0d 38 f9 bb 97 63 24 3c cd dd 4c 3c 23 e0 8e bc
       -0.0076055587 0.01003351 0.012504053 -0.017440861
0000d0 4d 70 86 ba dd ff 28 bc cb 9a 8d 3b 3a 18 81 bc
       -0.0010256857 -0.010314909 0.0043214313 -0.015758622
0000e0 f6 40 1d 3b 95 39 0a 3b 51 e7 1a 39 16 03 cb 3b
       0.0023995019 0.002109145 0.00014772757 0.006195436
0000f0 43 d2 81 3b a5 c4 9d ba 3d 63 d8 b8 4d e8 9e bb
       0.0039618327 -0.0012036754 -0.00010318167 -0.0048494698
000100 9d c5 53 3c ac 73 4c bb 47 76 81 3c 1d 45 47 3c
       0.012925533 -0.0031196875 0.01580347 0.012162474
000110 a8 70 83 3b 3d 2d 6c 3b 2f fa a3 ba 27 c2 19 3b
       0.0040112324 0.0036037706 -0.0012510474 0.002346167
000120 88 c9 27 b7 1d d8 90 bb 2c f9 85 3c 62 0f 13 bc
       -1.0000898e-05 -0.004420294 0.016354166 -0.0089758355
000130 30 92 d9 3a 35 bf eb 3b 3d 31 84 bc 2b e6 a1 bc
       0.0016599353 0.0071944245 -0.01613676 -0.019763073
000140 10 1f 90 3a 1b fb 04 3c 2c 31 49 3c 3d 8e 9a bb
       0.0010995585 0.008116509 0.01227979 -0.004716663
000150 08 9b 96 ba da c1 42 3b c3 cf 8c 3a 93 91 0d bc
       -0.0011490295 0.0029717595 0.001074307 -0.008640665
000160 f2 7f 94 3b 67 4e 08 3b a6 b8 20 3c 43 88 b1 bb
       0.004531854 0.0020798685 0.009809649 -0.005417855
000170 98 99 57 ba c3 8f 08 bc 68 8c ce 3b 95 dc 8e bb
       -0.00082244864 -0.008335057 0.006303359 -0.0043597915
000180 25 5a 93 bc e7 1a 30 3c 9a 54 d6 39 87 21 16 bb
       -0.01798732 0.0107486015 0.00040880294 -0.0022908167
000190 5b 27 18 3b e1 64 20 3c 7e fc 06 bc a2 02 9c 3b
       0.0023216817 0.009789676 -0.00823891 0.004761056
0001a0 32 76 68 3c d4 c0 23 bc 55 34 c4 bb 58 e8 83 bc
       0.014188336 -0.009994704 -0.005987684 -0.016102001
0001b0 87 d8 e8 bb 58 77 e7 3b 5f 7d 26 bc 4a c6 ec 39
       -0.00710589 0.0070637874 -0.010161727 0.00045161165
0001c0 0d 2a 08 bb 4d cd 3d bc 1f 77 0c bc b6 b8 81 bb
       -0.0020777017 -0.011584592 -0.008573323 -0.003958787
0001d0 69 fc 83 ba 0c 9c c8 3a dd 0d 74 bb cf ae 9c 3c
       -0.0010069731 0.0015305295 -0.0037239708 0.019126324
0001e0 a8 7d e1 3b cf 1a 44 b9 83 d9 35 3b 63 08 87 bb
       0.0068814345 -0.00018702004 0.0027748055 -0.004120873
0001f0 ce 7e 0e bc 7f d1 25 bb 93 5e cd 3b 63 99 15 3c
       -0.008697225 -0.0025301871 0.0062673776 0.0091308085
000200 47 21 28 bc 25 53 29 3c 73 b3 5d 3c f6 ff bf 3b
       -0.01026184 0.010334765 0.013531554 0.0058593703
000210 42 e0 58 3c aa 4f e4 bb 1b 8e 7e 3a 53 d7 32 3c
       0.013237061 -0.0069675045 0.00097105064 0.010915595
000220 1a db 4a 3b 86 1f c2 bb 9f 7f 9d 39 d8 06 db 3b
       0.0030953349 -0.005924168 0.0003004046 0.0066841654
000230 43 de 48 bb 58 d0 0c bc c5 3a 0c bb 05 98 72 3a
       -0.0030650056 -0.008594595 -0.0021397334 0.000925422
000240 63 6b 8e 3b cc 87 21 bc 24 97 38 bc 5c c7 24 bc
       0.0043462976 -0.009859037 -0.0112665035 -0.010057297
000250 4f cd cf b9 0f 37 d8 3b d9 8e 31 3c 2d b3 2f 3c
       -0.00039635084 0.0065983604 0.01083728 0.010723871
000260 2f 4e e8 bb b7 e4 4d ba 1f f1 28 3b df 1e a1 35
       -0.0070893983 -0.00078542106 0.0025778485 1.200442e-06
000270 bd 7a ec 3a 3f 43 78 3b 77 55 32 3c 14 00 91 3b
       0.001804195 0.0037881879 0.010884634 0.004425058
000280 93 77 c6 39 da 8d 60 3c 35 39 dd 3b 0a b5 4e 3c
       0.00037854593 0.013705695 0.0067512044 0.012616405
000290 ad 8c ce bb 9a f8 fc bb 0d 54 4d bc ed cf db 3b
       -0.006303391 -0.0077200653 -0.012532246 0.0067081363
0002a0 ec 61 b7 3b 23 8a 32 3c 77 f0 c9 3b f2 6d b3 3b
       0.00559639 0.010897192 0.006162699 0.005475753
0002b0 a2 5f 2b bb a1 ea ba 3c 68 23 a2 3b bf b8 c0 bb
       -0.002614953 0.022816958 0.0049480684 -0.0058813985
0002c0 f5 11 1b bb 50 72 15 ba e2 60 e8 3b 98 4c 74 bc
       -0.0023661826 -0.0005700933 0.0070916275 -0.0149108395
0002d0 ae 49 b2 3b f9 02 06 bb 33 38 08 3a c0 73 00 bc
       0.005440912 -0.002044855 0.00051963626 -0.007840097
0002e0 96 3b cc bb 62 60 82 3a e3 6f 8b b8 83 f4 ed bb
       -0.006232689 0.0009946937 -6.648877e-05 -0.007261814
0002f0 6f 0f a7 bc 3b 46 40 3b da 9e 54 bc 7c 97 09 3a
       -0.020393101 0.0029338736 -0.012977326 0.0005248708
000300 9f b2 36 bc e5 b0 d8 3a fd 97 51 bb b0 30 3f bc
       -0.011150985 0.0016532211 -0.0031981461 -0.011669323
000310 e1 49 ba 3c 53 15 02 bc e2 68 ed bb 85 d0 98 bb
       0.022740306 -0.007939654 -0.007245169 -0.0046635293
000320 91 90 03 bc 78 d6 77 bb db 03 01 3c 4b 05 aa 3c
       -0.008030073 -0.0037817042 0.007874454 0.020754477
000330 22 72 24 bb d3 98 d6 3b 98 41 a8 ba 5f bb b6 3b
       -0.0025092443 0.00654898 -0.0012836931 0.0055765356
000340 e4 85 40 bb 9a 88 83 bb 45 95 69 bb b3 e7 1f 3b
       -0.002937668 -0.004014087 -0.003564195 0.0024399578
000350 05 a0 d9 ba 58 a6 75 3c 88 d4 94 ba 05 0a 70 bc
       -0.0016603476 0.014993273 -0.0011354843 -0.014650826
000360 03 03 60 bb 33 e8 2c 3c 4a 37 9b bb ca de fb 3a
       -0.0034181483 0.0105534075 -0.0047368156 0.0019216177
000370 e0 da e2 3a db b3 c6 3a 88 bc 72 bb 31 f6 9b bb
       0.0017307661 0.0015159802 -0.0037038643 -0.004759573
000380 00 09 42 bb fb 1d a6 3b 4f 27 76 bc 41 c3 1d bc
       -0.0029607415 0.005069492 -0.01502402 -0.009629072
000390 7e f3 81 bb 02 e7 d0 bb df 91 d0 3a a5 55 83 3c
       -0.003965794 -0.0063751945 0.0015912614 0.01603205
0003a0 67 4e cc bb 03 92 0f 3c bf 73 c6 bb c2 31 fe ba
       -0.006234932 0.008762839 -0.0060562785 -0.0019393491
0003b0 4f 3d 6c 3b c4 a4 15 bc 0b be 27 3b d3 a4 16 3b
       0.0036047285 -0.0091335215 0.0025595452 0.0022986426
0003c0 80 81 e8 bb 42 e1 82 bc 3a 74 d5 3a b6 93 bf 3a
       -0.0070955157 -0.015976552 0.0016285249 0.0014616165
0003d0 5a 6e a2 bc 37 da b9 3c 30 ee 09 bc 30 32 2e 3c
       -0.01982801 0.02268706 -0.008418605 0.010632083
0003e0 72 b2 5a 3b 71 d3 35 3c 51 8c a6 bb 47 9d 86 bc
       0.0033370522 0.011097775 -0.005082645 -0.016432418
0003f0 36 72 03 bc ab d6 0a 3b db 80 30 ba 25 90 46 bb
       -0.0080228355 0.002118508 -0.0006733068 -0.003029832

action_model._discrete_distribution.branches.1.bias f4 [2]
000000 00 00 00 00 00 00 00 00
       0.0 0.0

network_body._body_endoder.seq_layers.0.weight f4 [128, 6]
000000 dd aa 03 3e 7c 79 fc 3e 07 ef 3b be 1b 05 25 be
       0.12858148 0.49311435 -0.183529 -0.16115229
000010 fe 5c 0c be bd d0 0e bf a1 dc e7 bd 81 2e 2b 3f
       -0.13707349 -0.5578726 -0.113213785 0.66867834
000020 3b 52 e1 be 81 8f 9d 3c c4 37 8a bc dd 58 f6 3e
       -0.4400805 0.019233467 -0.016872294 0.48114672
000030 d4 df 4e bf 48 00 03 bf 6a 06 16 3e 8e 89 c0 bd
       -0.80810285 -0.51172304 0.14650884 -0.094012365
000040 bc 9e bc be 48 09 a1 3e 6c 43 07 3d 0a 12 79 3e
       -0.36839855 0.31452394 0.033023283 0.24323288
000050 03 f4 8f be 06 02 a6 3d a3 bd 9c 3e 55 b9 eb bb
       -0.28115854 0.08105855 0.3061343 -0.007193724
000060 00 8e f9 bb ce 45 10 be b8 08 77 3e 38 b4 99 be
       -0.0076158047 -0.14089128 0.2412442 -0.30020308
000070 5e 9e 28 bf f3 59 40 3c 4e 3c 94 3f 74 bd 1f 3f
       -0.6586665 0.011740196 1.1580904 0.6239846
000080 b6 13 a9 be 2e 73 53 bf 59 b9 3e be 72 37 a1 3d
       -0.3302285 -0.82597625 -0.18625392 0.078719035
000090 29 ac 0f 3e a5 c5 01 be 40 0b 42 3f 90 59 1b 3d
       0.14030518 -0.12673052 0.75798416 0.03792721
0000a0 0d 65 88 3e 3b 55 ea 39 6a 1a 1a bf ba 9f 87 bd
       0.26639596 0.0004469546 -0.60196555 -0.06622262
0000b0 98 39 13 bf f0 26 66 3e 8d 81 2b be 61 64 89 bf
       -0.57509756 0.22475791 -0.16748638 -1.0733758
0000c0 71 f2 05 3f b9 ed 38 3e e6 b8 4a 3e fc 03 99 bd
       0.5232306 0.18059434 0.19797096 -0.07471463
0000d0 23 3f c5 3e be 4e aa 3e cb 92 f6 be 76 4a 07 bf
       0.38524732 0.332632 -0.4815887 -0.52847993
0000e0 af f9 ef 3c fc 9e cc 3e 72 6d 2e 3e 6c 9d 80 3e
       0.029293863 0.39965045 0.17033938 0.25120103
0000f0 0e f3 c1 3e 4e 50 72 3e d8 78 ad 3e 0f 9f b7 3e
       0.3788075 0.23663446 0.3388126 0.3586354
000100 3e 5f aa bd 91 8c 4d bd 2d 64 be 3e 86 83 ab bd
       -0.08318947 -0.050182883 0.37185803 -0.083746955
000110 16 1a 96 3d 75 a5 97 bd b1 43 b6 be 65 5c ce bd
       0.07329194 -0.07404605 -0.3559852 -0.100762166
000120 96 d9 a6 3f cb 5c 24 bf b3 f5 e2 3d 72 bc ed 3d
       1.3035152 -0.6420409 0.1108202 0.11608209
000130 13 e7 9d 3e 70 56 0f 3f db 60 af bd 4b e5 57 be
       0.30840358 0.5599127 -0.085633956 -0.21083562
000140 2c b2 d1 be 08 24 ea be f2 37 66 bd e2 58 09 3d
       -0.40956247 -0.45730615 -0.056205697 0.03353203
000150 87 d5 1f be fb 7c 93 be 3e 97 f0 be 69 46 f9 be
       -0.15608798 -0.2880629 -0.4699039 -0.4868653
000160 37 fa 58 be 54 a2 0e 3f 42 74 06 be c4 64 39 3c
       -0.211892 0.55716443 -0.13130286 0.011315528
000170 02 b2 94 3f c8 a5 51 bd bc 4d 8c 3e 26 9b 8b be
       1.1616824 -0.051183492 0.27403057 -0.27266806
000180 59 bd 27 3f ba 18 7f 3e 1d 43 f4 bd 3d 00 8c 3c
       0.65523297 0.24911776 -0.11926863 0.017089957
000190 64 63 c7 3e 66 c0 05 bf 7a 7b 91 be 3c 79 63 3e
       0.38943017 -0.522467 -0.28414518 0.22214216
0001a0 1c ec b9 be 03 ad 2d 3f c2 fd 59 bd fc 08 5e be
       -0.3631295 0.6784212 -0.053220518 -0.21683115
0001b0 05 64 93 3e 6d 93 16 3f 7a fc 0a 3d 18 da 12 bf
       0.28787246 0.58818704 0.033932187 -0.57364035
0001c0 47 54 b3 3e 99 0d 37 3f bb 35 76 3e 6d cf 4b be
       0.35025236 0.71505123 0.24043934 -0.19903345
0001d0 2c 6d 12 bf c1 77 d5 be 03 30 1a 3f c3 e9 07 be
       -0.57197833 -0.41692927 0.6022951 -0.13272767
0001e0 a6 41 e3 3d c4 1c 32 3f e0 50 19 3e 6b f5 6a 3e
       0.11096506 0.6957514 0.14972258 0.22945182
0001f0 1e 3f 55 be b6 68 22 3f 3b fd ec bd aa d3 27 be
       -0.20824859 0.63441026 -0.115717374 -0.16389337
000200 01 eb f4 3e 6f b3 94 bd f2 ed a0 3e 4d 86 ae be
       0.47835544 -0.07260787 0.31431538 -0.34086838
000210 ca bc d9 be db f1 bc 3c ef 20 b8 be 7b d9 8c 3d
       -0.42526847 0.023064544 -0.35962626 0.068774186
000220 82 6a 5f 3f d8 85 c6 be ee 1b 16 bf 22 c5 9e 3e
       0.87271893 -0.3877399 -0.5863637 0.31009775
000230 3c b5 97 3e 64 5c 9b 3d fe 35 85 be a7 80 6e be
       0.29630458 0.075859815 -0.26017755 -0.23291264
000240 cf f6 d7 3e c4 6d c9 be 20 40 32 3e 65 b7 54 be
       0.42180488 -0.39341557 0.17407274 -0.20773084
000250 21 38 db bd 41 72 95 3d 9a e2 31 3f 94 e2 16 bf
       -0.10704065 0.07297183 0.6948639 -0.5893948
000260 6d a7 31 bc fb 6e 9c be 9f ec 96 be 9a 68 39 be
       -0.01084314 -0.3055342 -0.29477403 -0.18106309
000270 a6 c5 a4 be d3 ec 66 3f b1 aa de 3e c7 45 db 3e
       -0.32182044 0.90205115 0.43489602 0.42826673
000280 e3 e4 d0 3e 6e 27 a9 be 5a 9a 47 3e 8d ae e9 3d
       0.40799627 -0.33037895 0.19492474 0.11410246
000290 0b 39 4e be c7 25 a0 3c 5e 04 29 3f 02 d3 0b bf
       -0.20138948 0.019549264 0.6602229 -0.5461885
0002a0 34 6d fc be 89 14 a1 bd 3d 26 ec bc b1 74 e1 bc
       -0.49302065 -0.07865245 -0.028826827 -0.027521463
0002b0 22 af 41 be dd e6 9c 3e 43 89 46 3f 39 82 2d 3f
       -0.18914464 0.30644885 0.77553195 0.6777683
0002c0 d0 fd 02 bf 86 a8 21 bf 35 e3 69 be 5b 75 1e 3e
       -0.5116854 -0.6314777 -0.22840579 0.15474455
0002d0 b1 95 8e 3d 12 f9 1b 3f c1 dc c8 3d a2 e6 e9 3e
       0.06962145 0.60926926 0.098077305 0.4568377
0002e0 ed 90 fa 3d 08 de 92 be f5 0c c3 be 06 9a c1 3d
       0.12234674 -0.2868502 -0.38095823 0.09453206
0002f0 1c 2f e8 be b9 33 c0 be 5b 86 0a bf 03 eb 2b be
       -0.45348442 -0.3753946 -0.5411126 -0.16788869
000300 b9 e9 95 3c e3 23 ee 3d 68 f4 1e 3e 36 15 cc 3b
       0.018299924 0.116279386 0.15522921 0.0062281145
000310 ac c5 89 be c0 82 ba 3d f1 59 a2 3e 84 9b bc 3e
       -0.26908624 0.0910697 0.31709245 0.368374
000320 45 6d db bc 31 95 6a be 3b d4 2d bf 2b e3 f8 3e
       -0.026785502 -0.22908475 -0.67901963 0.48610815
000330 af 50 9f 3d 28 7c d3 be fd 78 03 3e 88 b2 60 3e
       0.07779061 -0.4130566 0.12839122 0.21943104
000340 30 e6 eb 3e 74 6f a4 3e c3 10 9a be 6d 79 bd be
       0.46074057 0.32116282 -0.30090913 -0.37006703
000350 0a 79 df 3e e3 2d 4b bd 8f 38 77 be cf 12 d9 bd
       0.43647033 -0.049604308 -0.24142669 -0.105992906
000360 10 08 b2 be d6 6d 17 bf 8c 87 65 be ec d7 38 bf
       -0.34771776 -0.5915197 -0.22414988 -0.7220447
000370 1a 70 84 bd ea 4b c3 3e 57 b6 9d 3e 76 2a 5f be
       -0.06466694 0.38143855 0.30803177 -0.21793541
000380 a3 d9 e3 bc 6f 8a f0 3e 79 5a aa 3b 86 dd de be
       -0.027813738 0.46980616 0.0051987735 -0.43528384
000390 ea fa a1 be 8a d9 f9 bd e2 d0 1f 3e 30 50 0c 3f
       -0.31636745 -0.121996954 0.15607026 0.54809856
0003a0 88 6c f6 3c 03 85 94 be 3d 7a a1 be 3b 71 59 be
       0.030081049 -0.2900773 -0.31538573 -0.212346
0003b0 c1 f2 3b bd e3 a4 83 be 23 68 bf be 3e 53 a5 3c
       -0.045885805 -0.25711736 -0.37384138 0.020181295
0003c0 97 cc 1f 3e 24 18 0c bf 89 d8 41 3f b8 60 27 bf
       0.15605389 -0.54724336 0.7572103 -0.65381956
0003d0 ea 1a 31 be 74 34 ed bd c0 93 a5 3e bf 50 95 be
       -0.17295423 -0.1158227 0.32339287 -0.29163167
0003e0 1c be 2d 3f df ee 80 be 1e 66 85 3e be 3a 03 3f
       0.6786821 -0.25182244 0.26054472 0.5126151
0003f0 ee 44 69 3e de 06 7a 3e 20 de 67 be f3 cb fc 3d
       0.22780201 0.24416682 -0.22643328 0.12343588

network_body._body_endoder.seq_layers.0.bias f4 [128]
000000 00 00 00 00 00 00 00 00 00 00 00 00 00 00 00 00
       0.0 0.0 0.0 0.0
000010 00 00 00 00 00 00 00 00 00 00 00 00 00 00 00 00
       0.0 0.0 0.0 0.0
000020 00 00 00 00 00 00 00 00 00 00 00 00 00 00 00 00
       0.0 0.0 0.0 0.0
000030 00 00 00 00 00 00 00 00 00 00 00 00 00 00 00 00
       0.0 0.0 0.0 0.0
000040 00 00 00 00 00 00 00 00 00 00 00 00 00 00 00 00
       0.0 0.0 0.0 0.0
000050 00 00 00 00 00 00 00 00 00 00 00 00 00 00 00 00
       0.0 0.0 0.0 0.0
000060 00 00 00 00 00 00 00 00 00 00 00 00 00 00 00 00
       0.0 0.0 0.0 0.0
000070 00 00 00 00 00 00 00 00 00 00 00 00 00 00 00 00
       0.0 0.0 0.0 0.0
000080 00 00 00 00 00 00 00 00 00 00 00 00 00 00 00 00
       0.0 0.0 0.0 0.0
000090 00 00 00 00 00 00 00 00 00 00 00 00 00 00 00 00
       0.0 0.0 0.0 0.0
0000a0 00 00 00 00 00 00 00 00 00 00 00 00 00 00 00 00
       0.0 0.0 0.0 0.0
0000b0 00 00 00 00 00 00 00 00 00 00 00 00 00 00 00 00
       0.0 0.0 0.0 0.0
0000c0 00 00 00 00 00 00 00 00 00 00 00 00 00 00 00 00
       0.0 0.0 0.0 0.0
0000d0 00 00 00 00 00 00 00 00 00 00 00 00 00 00 00 00
       0.0 0.0 0.0 0.0
0000e0 00 00 00 00 00 00 00 00 00 00 00 00 00 00 00 00
       0.0 0.0 0.0 0.0
0000f0 00 00 00 00 00 00 00 00 00 00 00 00 00 00 00 00
       0.0 0.0 0.0 0.0
000100 00 00 00 00 00 00 00 00 00 00 00 00 00 00 00 00
       0.0 0.0 0.0 0.0
000110 00 00 00 00 00 00 00 00 00 00 00 00 00 00 00 00
       0.0 0.0 0.0 0.0
000120 00 00 00 00 00 00 00 00 00 00 00 00 00 00 00 00
       0.0 0.0 0.0 0.0
000130 00 00 00 00 00 00 00 00 00 00 00 00 00 00 00 00
       0.0 0.0 0.0 0.0
000140 00 00 00 00 00 00 00 00 00 00 00 00 00 00 00 00
       0.0 0.0 0.0 0.0
000150 00 00 00 00 00 00 00 00 00 00 00 00 00 00 00 00
       0.0 0.0 0.0 0.0
000160 00 00 00 00 00 00 00 00 00 00 00 00 00 00 00 00
       0.0 0.0 0.0 0.0
000170 00 00 00 00 00 00 00 00 00 00 00 00 00 00 00 00
       0.0 0.0 0.0 0.0
000180 00 00 00 00 00 00 00 00 00 00 00 00 00 00 00 00
       0.0 0.0 0.0 0.0
000190 00 00 00 00 00 00 00 00 00 00 00 00 00 00 00 00
       0.0 0.0 0.0 0.0
0001a0 00 00 00 00 00 00 00 00 00 00 00 00 00 00 00 00
       0.0 0.0 0.0 0.0
0001b0 00 00 00 00 00 00 00 00 00 00 00 00 00 00 00 00
       0.0 0.0 0.0 0.0
0001c0 00 00 00 00 00 00 00 00 00 00 00 00 00 00 00 00
       0.0 0.0 0.0 0.0
0001d0 00 00 00 00 00 00 00 00 00 00 00 00 00 00 00 00
       0.0 0.0 0.0 0.0
0001e0 00 00 00 00 00 00 00 00 00 00 00 00 00 00 00 00
       0.0 0.0 0.0 0.0
0001f0 00 00 00 00 00 00 00 00 00 00 00 00 00 00 00 00
       0.0 0.0 0.0 0.0
