results/Main/BossAi/BossAi-61352.onnx (onnx, 78881 bytes, 9 tensors)

discrete_act_size_vector f4 [1, 2]
000000 00 00 00 40 00 00 00 40
       2.0 2.0

network_body._body_endoder.seq_layers.0.weight f4 [128, 6]
000000 ea 11 9e 3e f0 e0 d9 be 56 b8 13 be be ed 16 bd
       0.30873042 -0.42554426 -0.14425787 -0.036847822
000010 20 33 54 3e 97 ac e9 3e 77 c1 48 3e 79 d7 5d 3d
       0.20722628 0.45639488 0.19605051 0.05416057
000020 85 a4 d9 be 01 41 1c bf 53 b7 5f be 23 bf 57 bf
       -0.4250833 -0.6103669 -0.21847276 -0.84276026
000030 13 43 ef bd 43 2e 41 3f ea 6d 9b be d0 1d 7e be
       -0.11682715 0.75461215 -0.30357295 -0.2481606
000040 8b d9 9a be aa da 6c 3e fb dd 08 3e 16 0d 31 bf
       -0.30244097 0.23130289 0.13365929 -0.6916059
000050 4e 4e 25 be e3 d1 6c be c0 0e 7f 3e 9e 50 64 be
       -0.16143152 -0.2312694 0.2490797 -0.22296378
000060 13 72 be be f0 96 72 bc 7e 8b c2 3e 37 dd 01 bf
       -0.37196407 -0.014806494 0.3799705 -0.5072817
000070 77 f1 1f 3f 83 5b ae 3e 47 2e 22 3e 95 7f 33 bd
       0.6247782 0.34054193 0.15837966 -0.043822844
000080 9d 3b d5 be 8a 66 84 be 83 94 81 3e 7e 11 b0 3e
       -0.41647044 -0.2585948 0.25308618 0.34388345
000090 2e dc ca be b4 5b 0f bf fd e5 ff be da 21 bb be
       -0.3962111 -0.559993 -0.49980155 -0.36549264
0000a0 ff 3b d4 3e 3c 5e 03 3d cb f5 0b 3e 22 3b 08 3f
       0.41452023 0.03207229 0.13667981 0.5321523
0000b0 e9 1c 3e 3e fd 50 c5 be e2 7b 0b bd 26 2d 6e 3e
       0.18565716 -0.38538352 -0.03405369 0.2325941
0000c0 78 9e fa 3e 41 ff 4b be ce af e7 bd 42 bf 79 3f
       0.48949027 -0.1992159 -0.11312829 0.9755746
0000d0 dd f7 a6 bc 28 cd 94 3e 16 fb 2d be 13 40 91 3d
       -0.020381862 0.29062772 -0.16990313 0.07092299
0000e0 d3 92 26 3f 5e 8b 64 3e 5f 96 1e 3f 26 a4 79 bf
       0.65067786 0.2231879 0.619482 -0.97516096
0000f0 94 94 63 3e ca fd 29 3f 3a 68 a1 3e 40 09 d3 3e
       0.22224647 0.66402876 0.3152483 0.41217995
000100 aa 52 16 bf 3c c4 a9 be 5e 31 11 3b 1e d2 f7 3e
       -0.58719885 -0.33157527 0.002215467 0.48402494
000110 da f9 98 be a1 09 35 bf 40 29 dd bd c2 93 10 3f
       -0.29878122 -0.7071782 -0.107988834 0.5647546
000120 05 5c 84 bb f4 22 dd 3d db 24 46 be 1c af 3f 3f
       -0.00403929 0.107976824 -0.19349997 0.7487657
000130 1f cd ec bd 96 f5 6f 3d 83 d5 f1 3e c2 ca 6b 3e
       -0.11562561 0.05858382 0.4723321 0.23026565
000140 6a 90 52 3f 65 5c 32 bd af 4f 08 3f d1 6a 93 bd
       0.8225161 -0.043545146 0.5324659 -0.07198108
000150 b4 9b 02 bf 84 b7 d1 3e b0 1b 03 bf cf a2 4d 3f
       -0.51018834 0.40960324 -0.5121412 0.8032655
000160 51 cd ee be 74 90 14 3f 2e 85 4c 3e 18 f1 d4 bd
       -0.4664102 0.5803292 0.19972679 -0.103975475
000170 97 6a c7 be 44 9d 0c 3f 99 70 08 3f 92 41 7a be
       -0.3894851 0.5492747 0.5329681 -0.24439076
000180 60 4f d4 3e b5 9f a0 be a3 48 c1 3e 44 66 d3 3d
       0.41466808 -0.31371847 0.3775073 0.1032224
000190 37 08 bd 3e da dd 04 bf ff 31 8c be 6f b3 44 be
       0.3692033 -0.5190102 -0.27381894 -0.19209073
0001a0 44 58 09 3f 14 10 3f 3c e0 a2 c1 3d 57 d1 6b be
       0.5365031 0.011661548 0.09454894 -0.23029076
0001b0 8e 85 26 be 68 e7 00 bf aa ad ea be 32 ca 43 3e
       -0.16261885 -0.503531 -0.4583562 0.191201
0001c0 f6 af 86 bd 6d da c4 3e e5 f7 10 3f aa 03 1a bf
       -0.06576531 0.38447896 0.5662826 -0.6016184
0001d0 50 08 2e be 10 b7 01 3e 0a 51 8c bc d4 ec 70 be
       -0.16995358 0.12667489 -0.017128486 -0.23527843
0001e0 e8 71 d4 bd 75 53 09 bf 56 9c a9 3e 5d 99 00 bd
       -0.103732884 -0.5364297 0.33127087 -0.03139626
0001f0 6c 9e e1 be 5f 87 b6 3d 82 1e 4e 3d 77 9e 38 be
       -0.4406618 0.08912539 0.050322063 -0.180292
000200 ad d6 00 3f 27 97 37 3e 3b a4 f8 3c 4d 60 9a 3b
       0.5032757 0.17928754 0.030351749 0.004711187
000210 5b 69 88 be da a6 6a be 3e e0 67 3d 3c 31 99 3e
       -0.2664288 -0.22915211 0.05661034 0.29920375
000220 c5 54 96 3e 03 5d a0 3e bf 34 a3 3d a5 80 94 3e
       0.2936155 0.31320962 0.07969045 0.29004398
000230 e5 2a b4 be 46 90 5e bf 40 f2 9c be 9f 1b 0a 3e
       -0.35188976 -0.86938894 -0.30653572 0.13487099
000240 06 98 96 be 91 5c 46 be 6c e9 7e 3c 1a 11 14 3d
       -0.2941286 -0.19371249 0.015558582 0.03614912
000250 cb 67 af be 98 fe 96 be d8 15 57 be dd 5f 27 be
       -0.34258875 -0.29491115 -0.21004426 -0.16345163
000260 77 e8 23 3f 32 e7 ee 3e 80 db 2e 3e 16 c4 08 bd
       0.6402659 0.46660763 0.1707592 -0.033390127
000270 d7 8f f8 3d 38 49 15 3f 56 93 15 3f 05 3f 36 3c
       0.1213681 0.5831485 0.5842794 0.011123423
000280 5b 60 d2 be 33 fa 96 bd 84 5f 02 bf e5 85 1c be
       -0.41089138 -0.073719405 -0.50926995 -0.15285452
000290 0b 4a 54 be 61 bf 7b bd 14 8e 90 be a9 1a 5b be
       -0.2073137 -0.06146181 -0.28233397 -0.21396889
0002a0 91 32 1d be 0f 0d 72 3e 81 6b 23 3d cc bd bb be
       -0.15351321 0.23637794 0.039897446 -0.3666824
0002b0 2f b6 fe 3e de a8 45 3f 74 ba 1d be cd fe 45 3e
       0.4974837 0.77210796 -0.15403157 0.1933548
0002c0 07 6e 21 bf e8 f4 a1 be 1d 36 c0 be 42 40 3e bc
       -0.63058513 -0.3163216 -0.37541285 -0.011612
0002d0 16 75 c1 bd 2f 39 62 be d6 65 b3 be fc 8a ca 3e
       -0.094461605 -0.22092126 -0.35038632 0.39559162
0002e0 42 77 c3 be b8 7b 15 bf a9 a5 c4 be c9 fd 51 3e
       -0.38176924 -0.58391905 -0.3840764 0.20506968
0002f0 f3 55 97 3d 43 54 a7 be ae 61 45 bd 93 b8 be be
       0.073894404 -0.32681474 -0.048188858 -0.37250194
000300 66 2d d3 3e b5 df 2d 3f 37 33 50 be 21 92 30 3f
       0.41245574 0.67919475 -0.20332037 0.68972975
000310 1a 19 a7 3f 3e ae a6 bd 16 bb 05 be 19 fb ab bc
       1.3054535 -0.08138703 -0.13059649 -0.020993756
000320 aa 76 40 3e 40 01 14 bf b4 96 05 3f d1 a0 6a bd
       0.18795267 -0.5781441 0.5218308 -0.057282273
000330 3c c8 94 3d d1 49 e1 be d8 88 31 3d e2 f7 ae 3d
       0.07264754 -0.4400163 0.043343395 0.08543374
000340 6c 83 1b 3f 24 a5 4a 3e 26 e1 02 3f 27 9b 1e 3b
       0.6074741 0.19789559 0.511248 0.0024201365
000350 f2 fa 21 bf df c3 6d bf 77 bd 13 3f ab fe 05 3e
       -0.6327354 -0.92877 0.57710975 0.1308543
000360 a6 78 02 3f 72 2d 20 3e 88 26 8d bd 34 c5 a7 3d
       0.50965345 0.15642336 -0.06892115 0.081919104
000370 b2 d3 cb 3e 9a 81 cb 3e 02 59 ad be 40 f0 b1 3c
       0.39809948 0.39747316 -0.3385697 0.021721005
000380 75 8d 12 3d d8 02 13 3f 99 86 d5 3e 29 d5 6c 3f
       0.035779435 0.57426214 0.41704252 0.92512757
000390 2d cd 96 bd 23 c1 ad 3e b6 e9 8c 3e 8a 59 29 3e
       -0.07363353 0.33936414 0.27522057 0.16538063
0003a0 47 10 7f bd a7 2a 14 3f 9a 16 44 bf 50 83 2e 3f
       -0.062271383 0.5787758 -0.7659699 0.68169117
0003b0 33 0c 51 bd 8b ec e0 3e d6 c2 42 3e b2 38 56 3e
       -0.051037025 0.43930468 0.19019637 0.20920065
0003c0 39 ed aa be ab af 06 3f f5 3d 37 3e 06 93 17 bf
       -0.33384112 0.526118 0.17894728 -0.59208715
0003d0 fa 95 e0 3e a1 14 db 3d 53 1a 09 be cd b9 de be
       0.43864423 0.10697294 -0.13388948 -0.4350113
0003e0 0b dd 4b 3e 72 b4 c4 be 06 78 c7 be 1f de ba 3c
       0.1990854 -0.3841892 -0.38958758 0.022810994
0003f0 cd dd 53 be e6 df c7 be e0 f7 0d 3d 3f 72 81 be
       -0.20690079 -0.39038008 0.03466022 -0.25282475

network_body._body_endoder.seq_layers.0.bias f4 [128]
000000 7d 92 21 3c c6 ea 2b 3b fc f2 a7 3c 9c ac 9d bb
       0.009861586 0.0026232465 0.020501606 -0.0048118364
000010 44 50 39 3b bf c4 c5 3c 3f c8 d8 b9 06 a2 09 3c
       0.0028276602 0.024141667 -0.00041347925 0.008400446
000020 56 90 40 bc b6 0a 6b bb a9 bf 03 bc a8 5f d6 3c
       -0.011753162 -0.0035864539 -0.008041301 0.02616866
000030 db 58 a1 3c 8c 63 81 bc 8e 77 44 3c 49 9d 1a bc
       0.01969569 -0.015794538 0.011991395 -0.009436914
000040 ea 90 90 ba 31 be d8 3b 8b e0 05 bb 9d 4b 5e 3b
       -0.0011029516 0.0066144695 -0.0020428027 0.003391958
000050 ea af c2 b9 1b a7 b7 3b de c5 ce 3b f7 2e 6a 3c
       -0.0003713363 0.0056046373 0.0063102087 0.014293424
000060 a2 e5 98 3b fc 4f 44 3a 45 2a 05 bc a3 6b b9 3c
       0.0046660462 0.0007488725 -0.008127754 0.022634333
000070 b2 4f bc 3a 26 22 3d 3c 13 9e 61 bc 1f 13 07 ba
       0.0014367013 0.011543786 -0.013770598 -0.00051526906
000080 ef f8 8e 3a f6 a7 1d bb db fb 57 39 49 c9 13 ba
       0.0010907928 -0.0024056411 0.00020597821 -0.0005637599
000090 56 9f ba 3b 16 dd 24 3b 91 c1 fd 3b 2e 7b af 3b
       0.005695264 0.0025156192 0.007744022 0.0053552603
0000a0 91 85 26 3c 35 f9 b1 3b 3f 54 32 3c e4 42 54 bc
       0.010163681 0.005431319 0.010884344 -0.012955401
0000b0 c4 d1 c6 3a 1e 9a 44 bb fb 23 81 3c 0c a1 94 3a
       0.0015168716 -0.0029999088 0.015764227 0.00113395
0000c0 a3 bf 7d bb 81 17 66 bb 38 3c 23 bc ea d9 1d bc
       -0.003871896 -0.0035109224 -0.009963088 -0.009634474
0000d0 b0 e6 b2 37 89 74 c6 3b 05 7d 5f 3c 68 ad c2 b9
       2.1326676e-05 0.0060563725 0.013640647 -0.0003713176
0000e0 c2 4c 8f 3b 37 9d b6 3b 90 2c 9f bb 71 26 2d 3b
       0.004373164 0.0055729407 -0.004857607 0.0026420618
0000f0 30 13 1a bc 9a 73 e5 3b 5c 97 bd 3b 28 77 59 bc
       -0.009403989 0.007002306 0.0057858657 -0.013273038
000100 ce ea 93 3b c9 70 a0 bb 24 c8 34 bc 71 a6 7a 3b
       0.004514075 -0.0048962575 -0.011034045 0.003824618
000110 73 ea 8c 3b 54 23 cd bb 84 f3 9e 3b 07 32 bb 3b
       0.0043004095 -0.006260315 0.0048508067 0.005712751
000120 e0 6b 4c 3b 46 01 a1 bc d7 e9 83 3c e8 76 13 bb
       0.0031192228 -0.019653928 0.016102714 -0.0022501294
000130 42 ba 1a bb 3c 89 2e 3b c5 c2 88 bb 8d f5 3d 3b
       -0.0023609553 0.002663209 -0.004173609 0.002898547
000140 e2 59 07 3c ad 60 9d 3b 00 a5 55 bc e0 67 e6 bb
       0.008261176 0.0048027844 -0.013039827 -0.007031426
000150 6c 4a 37 bc 97 fa 49 3c 37 08 f5 bb 23 7e 8f 3a
       -0.011187177 0.012327812 -0.007477786 0.0010947626
000160 c2 83 59 b9 00 b0 3b bb 76 ed 78 3a 78 cd e2 bb
       -0.00020743816 -0.002863884 0.00094958337 -0.0069214664
000170 b9 bf e6 3b 39 84 85 bb ff 27 a7 3c 37 98 9a bb
       0.007041898 -0.0040746 0.020404814 -0.0047178525
000180 f9 00 32 ba 8e e8 da 3b 58 7b 19 bb 92 70 03 bc
       -0.0006790306 0.0066805547 -0.0023419466 -0.008022444
000190 df d0 5f ba d3 8f 14 ba a3 0e 81 bc 54 ca 3d bc
       -0.0008537899 -0.00056671834 -0.01575405 -0.011583883
0001a0 e4 5b ba 3c 80 8f 8c 3b e8 5f 43 3b a8 6e b7 3b
       0.022748895 0.0042895675 0.0029811803 0.005597908
0001b0 79 26 57 bb da 14 55 bb f1 79 73 bc 26 37 23 bc
       -0.0032829328 -0.003251365 -0.014860616 -0.009961879
0001c0 6b fa 67 3b 22 7a b7 bb e0 46 da bb e4 1d e2 ba
       0.0035397063 -0.005599276 -0.006661281 -0.001725134
0001d0 57 12 01 bc a1 19 ff 3b f1 f7 db bb 3e 4d dc 3a
       -0.007877908 0.0077850376 -0.0067129065 0.0016807688
0001e0 3e 32 23 3c 7e 10 87 3c 7f 4a 24 bc bb 11 5b bb
       0.009960709 0.016487356 -0.010027527 -0.0033427316
0001f0 52 d0 eb bb a8 86 98 3c 35 35 e3 bb f3 ed 39 bc
       -0.0071964646 0.018618897 -0.006933833 -0.011348235

network_body._body_endoder.seq_layers.2.weight f4 [128, 128]
000000 b3 d8 c9 3c fd 4d a4 3c 09 16 5c bc d7 35 dc bc
       0.024639463 0.020056719 -0.013432988 -0.026881142
000010 c0 c1 7d 3d e5 e5 d3 3d fe 8c b6 3d 1c 22 1c bd
       0.061952353 0.10346583 0.08913611 -0.038118467
000020 54 d8 9b bd e7 99 61 3d 05 b5 fa 3c 26 61 a2 3c
       -0.07609621 0.055078413 0.030603895 0.019821715
000030 d8 34 39 bd 2a 8c dc bc c7 05 08 bd 8f 39 9e bc
       -0.04521641 -0.026922304 -0.033208635 -0.019314555
000040 aa 67 bd bd 9f f5 ee 3b 7d dc 8e bc 1b 20 1d be
       -0.09248288 0.007292464 -0.017439121 -0.15344279
000050 9b 2c 08 3c 13 a6 82 3d 89 ac 9a bc ff 60 d4 3c
       0.008311416 0.063793324 -0.0188811 0.025925158
000060 26 e7 4c bc b2 ba a7 bd b9 d1 50 3e 54 a3 1c bd
       -0.012506282 -0.08189906 0.20392503 -0.0382417
000070 25 e7 c9 3d 2e 67 7b 3d 4d cf 2d bd 6a 61 d7 3d
       0.098585404 0.061377697 -0.042434026 0.10516627
000080 9a 5c bc 3c 65 33 74 bd 07 00 2f be 79 20 e2 bd
       0.022993375 -0.059619326 -0.17089854 -0.1104135
000090 38 a2 5f bd 00 9c a8 bc 1b 4c 6d 3c 69 dd 0a 3d
       -0.054598063 -0.0205822 0.014483477 0.03390256
0000a0 33 a8 71 bd fd 79 4a bd 13 ed f5 bc c7 a2 15 bc
       -0.058998298 -0.049432743 -0.030020272 -0.009133047
0000b0 fe 48 a0 bd d1 5b df bd 98 05 13 3e 02 be 92 3d
       -0.07826422 -0.109061845 0.14357603 0.07165147
0000c0 85 99 25 bd f4 21 cb 3d d7 fa f6 3c 97 da eb bc
       -0.04042961 0.099185854 0.030148907 -0.028790755
0000d0 8d 53 19 ba 3d e2 55 bd 0c a1 10 be 5e a4 a8 3c
       -0.0005848937 -0.05221771 -0.14123935 0.020586189
0000e0 48 19 82 3d 1d 2e fb bd ce a8 85 bd f4 32 db 3d
       0.06352478 -0.12264655 -0.065263376 0.10703078
0000f0 6d 6b 34 3d 7f 60 1e 3d 97 26 e7 3c aa 7e 1c 3d
       0.04404776 0.038666245 0.028216643 0.038206734
000100 74 47 50 bd b6 d4 94 ba 8c e0 23 3d ad ff 4a bd
       -0.050849393 -0.0011354897 0.040009066 -0.049560238
000110 17 b7 05 3d 1e 15 23 3d aa df 61 bc 7a 33 a2 3d
       0.03264531 0.03981506 -0.013786236 0.079199746
000120 ce 71 e8 bc f0 d6 30 bd 93 2f f0 3d 20 e2 ca 3d
       -0.028374579 -0.04317373 0.11727824 0.09906411
000130 b9 a2 0c 3e 9c 63 34 bd f1 d1 0f be 1f 40 12 be
       0.13733949 -0.044040307 -0.1404493 -0.14282273
000140 41 3b 98 bd 10 d0 88 bd d1 14 d7 bd 47 53 b4 3d
       -0.07433177 -0.0668031 -0.10502017 0.088049464
000150 28 88 cf bc 0c 81 67 bb 04 1c 2f 3e 73 b2 0f 3d
       -0.025333479 -0.003532472 0.17100531 0.03508229
000160 51 7d 32 be d0 5d ca bd a2 36 00 bc 4e cc f6 3c
       -0.17430617 -0.098811746 -0.0078255255 0.030126717
000170 13 3a 86 bd 29 ad 54 bd d8 c4 f1 bb 3e 3b bc bd
       -0.065540455 -0.05192295 -0.007378202 -0.09190987
000180 f7 33 a0 bd 01 8b 8d bd 6e 86 51 be 79 7d 8a bd
       -0.078224115 -0.069112785 -0.20461437 -0.06762213
000190 d5 91 b4 3d 8a 24 0c 3d 01 b6 1f be 60 26 53 3b
       0.08816878 0.034214534 -0.15596773 0.0032218918
0001a0 ed 65 94 bd fe 08 0d be 8f 98 c0 3d 78 59 57 3e
       -0.07246003 -0.13772961 0.09404098 0.21030223
0001b0 e2 84 99 3c 00 7d a2 3c ef aa d9 bd bc 9e a6 bc
       0.018740121 0.019834995 -0.10628306 -0.020339362
0001c0 65 b1 05 3d 06 be aa 3c 63 f3 40 bd ce 1a bf bd
       0.03263988 0.020842563 -0.04710711 -0.093312845
0001d0 21 d1 94 3d d6 45 f3 3b 16 36 dc 3d 84 04 2d 3e
       0.07266451 0.0074240966 0.107525036 0.16896254
0001e0 cb be c7 3c 16 15 61 3d c2 0e 39 bc e8 12 83 bd
       0.02438297 0.05495175 -0.011295022 -0.064000905
0001f0 5f c2 71 3d 1b 5a c2 3d 41 b5 ba bc 2c 6b ba 3d
       0.059023257 0.094898425 -0.022791507 0.09102473
000200 7c 6c 03 3e 29 9e cc 3d ef 69 d4 bd b3 b4 0e bd
       0.12834352 0.09991104 -0.10371768 -0.034840297
000210 50 51 88 3d 94 8f 6d 3e 12 9b 31 3e e9 ab a3 3d
       0.06656134 0.23199302 0.17344311 0.07991774
000220 31 25 ec 3b 98 34 3a 3d 79 aa 52 bd e9 2e 05 3d
       0.007206582 0.045460314 -0.051432107 0.03251544
000230 19 88 be 3d e9 d7 de 3c a1 9c 40 3d 6a 2f 32 bb
       0.09303302 0.027202563 0.047024373 -0.0027188906
000240 a0 fa 4a be 7d 4b 43 3d 92 5f fd bc 7e 48 3c 3d
       -0.19822168 0.047679413 -0.03092936 0.04596757
000250 fc 6d e6 bd 0d 98 bb 3c 14 86 a5 3d 53 4f f2 3d
       -0.112514466 0.022899652 0.08082214 0.11831536
000260 2f 92 4d bc 43 d6 a1 bb a4 3d 41 be 64 40 b2 3d
       -0.01254706 -0.004938872 -0.1887117 0.08703688
000270 f8 2c 19 bd a5 b7 a3 3b 2b 8c 96 3d 9f 0e 93 3d
       -0.0373964 0.0049962574 0.07350954 0.07180523
000280 8a bd 43 be 4f 61 a2 3c 49 45 e9 3d 6d 5c 8d bd
       -0.19115272 0.019821791 0.11390168 -0.069023944
000290 4a d8 85 3d 51 a1 59 3d 05 d5 1b bd 7f 79 26 3e
       0.065353945 0.05313236 -0.038044948 0.16257285
0002a0 7d 54 6c 3b 89 6a 13 bd 72 4e fc 3c 5c 47 2a 3e
       0.00360611 -0.03599027 0.030799124 0.16628784
0002b0 87 70 91 bd 4f 41 30 be f6 9f 1f 3e a2 a1 27 be
       -0.07101541 -0.17212413 0.15588364 -0.16370252
0002c0 50 d5 00 3e a4 91 92 3c bd 3e 1d bd 22 76 92 bd
       0.12581372 0.017891712 -0.03838991 -0.07151438
0002d0 9a 54 8c bd 15 ad be bd c2 ce 07 3e 29 6a d6 3c
       -0.06852074 -0.093103565 0.13262466 0.026173668
0002e0 a1 4c 4d bb 86 d3 e7 bc 83 25 0c 3d 20 58 5b be
       -0.0031326192 -0.028299104 0.03421546 -0.21420336
0002f0 e6 fc cf 3d f0 1b 1d bc 22 67 08 3e d5 ae 14 3e
       0.101556584 -0.00958918 0.13320592 0.14519818
000300 e7 52 03 3d 5b 91 d6 3c 70 d8 9b 3c af 76 a6 3d
       0.032061484 0.026192358 0.019024104 0.08128106
000310 6a 45 9e 3d 02 e8 db bd cb b8 34 3d 35 38 dd 3c
       0.077280834 -0.10737611 0.044121545 0.02700434
000320 d9 c9 17 3c 98 f5 28 be 73 50 c2 bd 0d ee ee 3d
       0.009264433 -0.16499937 -0.09488001 0.11666498
000330 ac 7f 81 3d 3e 6e 5f 3e 83 90 00 be e6 da d5 bd
       0.063231796 0.21819398 -0.12555127 -0.10442142
000340 cd 47 c0 bd 8b 5a 23 3d d8 ff c1 3d 08 56 89 3d
       -0.09388695 0.03988127 0.094726264 0.06705862
000350 31 6d 9c bc f3 33 f3 3a 75 af a9 3d 06 5c 8b bc
       -0.019095035 0.0018554911 0.08285419 -0.017011654
000360 3b ed 8d bd bf 28 37 bd cf 0c 50 bc 46 76 02 be
       -0.06930014 -0.044716593 -0.012698366 -0.1274043
000370 ea ad 89 38 fd 89 b2 bc 72 b2 fb bd 5d f8 00 3d
       6.565063e-05 -0.021794314 -0.12289895 0.031486858
000380 8e 47 87 bc 3a 6d 0c bd 99 e8 c4 bd 7d c0 97 3d
       -0.016513612 -0.034283854 -0.09614677 0.07409761
000390 fc 8f 6a 3d 19 da 67 bd db 05 6c 3c fb a8 08 3c
       0.05726622 -0.05660448 0.014405693 0.008341069
0003a0 da 51 ff 3b 61 68 00 be 85 61 1e ba 7a 44 a1 3d
       0.00779174 -0.12539817 -0.0006041753 0.07874389
0003b0 d5 96 06 bb 22 30 34 bd ff 1c ab bd 2c ee d5 3c
       -0.002053668 -0.043991216 -0.0835514 0.026114546
0003c0 19 9e d5 bc 59 99 33 3e 0a 10 00 bd ae 15 e1 3d
       -0.026076363 0.17538966 -0.031265296 0.10990463
0003d0 40 ec 6b bd a4 44 e8 bd 3c be 20 bc a3 29 60 be
       -0.057598352 -0.11341217 -0.00981098 -0.21890883
0003e0 c0 58 b4 3c fe eb 2a 3d a5 35 35 3d aa 28 50 3c
       0.022014976 0.041728966 0.044240613 0.012705008
0003f0 de e0 4b bc 54 c3 62 bd 15 d9 f8 bd 85 e8 81 bd
       -0.012443749 -0.05536206 -0.1215078 -0.06343178

network_body._body_endoder.seq_layers.2.bias f4 [128]
000000 5b 69 a4 ba 64 74 27 bb 2b f8 4e 3b 74 45 f3 b9
       -0.0012543605 -0.0025551552 0.0031581025 -0.00046400318
000010 0d fb 52 bc c9 47 98 bb 8b d8 6d 3a c4 a6 98 bb
       -0.012877238 -0.0046472293 0.00090731 -0.004658552
000020 cc 64 01 3c f8 d7 ed ba 65 e8 73 bb 99 68 f2 bb
       0.007897567 -0.0018146029 -0.0037217375 -0.007397723
000030 a3 4f 4c ba 5a b1 4c bb 83 43 ce 3b dd 52 84 3c
       -0.0007793849 -0.003123364 0.006294669 0.016152794
000040 15 45 13 3b a0 ee 94 3c 7c 76 91 bb 2e 3f dd bb
       0.0022471596 0.018180192 -0.0044391733 -0.0067519164
000050 86 ee 79 3b eb 42 f1 ba 1e bb 96 bb f3 d8 cd 3b
       0.0038136556 -0.0018406784 -0.004599943 0.006281966
000060 e6 e4 0f bc 32 f9 0e b9 bb fb 69 3c 36 d8 54 3c
       -0.008782601 -0.00013635008 0.014281209 0.012991002
000070 5d 70 d9 3b 50 03 12 b8 08 5c e7 bb 68 d6 15 bc
       0.006635709 -3.4812198e-05 -0.0070605315 -0.009145357
000080 ff 48 19 bc 44 19 45 bb e6 45 21 bc 44 96 db ba
       -0.0093557825 -0.0030074874 -0.009843325 -0.0016753157
000090 6d a7 b0 3b a1 98 b4 bb 42 f1 09 ba ee 23 ab bb
       0.0053910525 -0.005511359 -0.00052620855 -0.005222789
0000a0 f9 71 52 3c a1 3f 82 bb 75 47 48 3b 6a b5 d2 bb
       0.012844556 -0.0039748703 0.003056017 -0.0064303176
0000b0 ad ec 24 bc 04 0a 9d 3b 53 6b e7 3b 84 62 e8 bb
       -0.0100661935 0.0047924537 0.0070623546 -0.007091822
0000c0 98 03 a7 3b 3c 96 cf 3b 62 65 ed bb 9a ca 06 3c
       0.005096864 0.006335048 -0.007244752 0.008227015
0000d0 bf 3e 43 3b e4 2c 56 bb e9 df c9 3b c7 b4 1a 3b
       0.0029792038 -0.0032680565 0.0061607254 0.0023606287
0000e0 ec e4 01 ba e4 ed 8a 3b 46 52 ca 39 49 c1 8b bb
       -0.00049550715 0.0042397846 0.0003858974 -0.0042649847
0000f0 63 cf 99 3b ad f6 a4 bb cc 30 0a bc ab f5 ce bb
       0.004693912 -0.005034289 -0.008434486 -0.006315907
000100 95 0d 25 bc 10 af 49 bb fc 21 28 3c 7e bb 91 3b
       -0.010074039 -0.0030774511 0.010262009 0.0044473996
000110 c5 d0 6c 3a 2a 10 44 3b 51 85 43 bb 58 1a e2 bb
       0.00090337946 0.002991686 -0.0029834101 -0.006900113
000120 f1 0b b4 bb 8c 6d 37 bb 87 a8 11 bc 22 7a 1e 3c
       -0.0054945876 -0.002798888 -0.008890278 0.009672673
000130 16 ba e8 bb 6c 88 16 3b a2 f5 e6 3b 70 79 11 bb
       -0.0071022613 0.0022969497 0.0070483247 -0.0022197627
000140 36 47 4d 3a 0a d9 a4 3b d8 e2 01 3c 90 60 4b 3b
       0.00078307407 0.005030756 0.007927619 0.0031032898
000150 22 5d e7 bb 86 a6 f0 3b 67 cf fe 3a ba 91 27 ba
       -0.007060663 0.00734407 0.0019440473 -0.00063922594
000160 e3 19 c8 bb 1d 79 ac bb e9 51 e7 3a 96 18 54 bb
       -0.0061066016 -0.0052634613 0.0017648312 -0.0032363287
000170 21 f1 4f 3b bb c9 24 3c 97 ce 2d 39 6a 9e 0f 3c
       0.0031729417 0.010057862 0.00016575526 0.008765796
000180 42 a1 ed ba a3 74 15 bc a6 e4 16 3c 53 9d 72 3b
       -0.0018129724 -0.009122047 0.0092097875 0.0037020042
000190 58 60 ac bb 37 de 9f bb 72 24 52 39 de 9d c6 bb
       -0.0052605085 -0.004878785 0.00020040738 -0.0060612997
0001a0 a6 a3 65 bb b1 8c 1f bc 37 68 88 39 50 c1 b4 3b
       -0.003504017 -0.009738133 0.00026017588 0.0055162087
0001b0 86 c3 08 3a 64 ce 07 3c 7c f3 dd 3a 04 de ce bb
       0.00052171235 0.008288953 0.0016933526 -0.0063130874
0001c0 61 bc be 3b 06 99 3c 3b d4 e6 f0 bb 79 a8 d6 3a
       0.0058207964 0.0028777733 -0.0073517356 0.0016377113
0001d0 a8 e1 58 bb 2b 98 48 bb d7 67 78 ba 3e c6 4a 3a
       -0.0033093486 -0.0030608277 -0.00094759226 0.0007735229
0001e0 e9 bc 0a bc a7 e6 2a 3a b5 17 8f 3c ba 18 0c bc
       -0.008467891 0.0006519355 0.01746736 -0.008550817
0001f0 c5 03 2a 3b 84 80 ce ba 64 a1 6a b8 9a 6f 10 ba
       0.0025942188 -0.0015754853 -5.5940254e-05 -0.0005509794

action_model._discrete_distribution.branches.0.weight f4 [2, 128]
000000 b7 2d 02 3b b2 35 28 bc 82 d6 85 3c 71 a3 f4 bb
       0.0019863674 -0.010266708 0.016337637 -0.007465773
000010 74 32 38 3b 69 78 b1 3b 68 96 c0 ba 32 82 51 3c
       0.0028106244 0.0054159653 -0.0014693262 0.012787389
000020 f0 31 91 3c 57 72 33 3b 29 70 a9 3c df fe 16 3c
       0.017724007 0.0027381384 0.020683365 0.009216039
000030 7e d9 71 3b bf 60 d8 3b ed fe de bb 55 5f 04 3c
       0.0036903317 0.00660333 -0.006805292 0.00807937
000040 1e d4 0a 3b 10 98 8d ba c6 b8 ae ba 8e 47 08 3c
       0.002118356 -0.0010802764 -0.0013330213 0.008317841
000050 6b 15 af 3c 5b cf 6e 3b 5a 0b 94 3b 7d d8 7d bc
       0.021372518 0.0036439511 0.004517955 -0.015493509
000060 ed 70 68 3c db 73 69 3b 87 90 aa ba b2 64 d3 3b
       0.01418708 0.0035622034 -0.0013013043 0.006451213
000070 0e 78 ee bb 36 5a dd bb 8b 10 01 bc 9e 68 b3 3b
       -0.007277495 -0.0067551387 -0.007877479 0.005475118
000080 0c f5 da 3b e1 79 28 3c c5 0e bb bb d9 0d 6d 3c
       0.006682044 0.010282964 -0.005708548 0.014468634
000090 49 03 be 3c 7c 97 9c bb 52 cc af bb cd 15 93 3b
       0.023194926 -0.0047788005 -0.005364933 0.004488683
0000a0 06 10 48 bb 11 de e5 ba 6a 7e 53 bc 4d 1e 3e 3c
       -0.003052713 -0.0017537494 -0.012908557 0.011603904
0000b0 83 99 bf 3b 29 0f c4 bc 03 8e eb 3c 68 bc 15 3c
       0.0058471574 -0.02393301 0.02875424 0.009139158
0000c0 e2 2c ed bb c6 88 8d 3c 6b 14 9f 3a 7b 7a a8 3b
       -0.0072380165 0.017277133 0.0012136822 0.005141554
0000d0 0f b0 cd 3c 00 ce e9 3b e2 6d 89 bc 16 6b bf bb
       0.025108365 0.007135153 -0.016776029 -0.005841623
0000e0 1b 80 b6 bb 98 6c 4f 3b e8 a8 c0 3b b8 5c 5c 3c
       -0.0055694706 0.003165042 0.00587951 0.01344984
0000f0 23 a3 a3 bb 0b a6 31 bb d0 9a 26 bc c1 70 eb 3c
       -0.0049938126 -0.0027107026 -0.010168746 0.028740289
000100 27 6b b4 3b 2b f1 66 bb 39 9a 03 3c 2b 80 50 3b
       0.0055059376 -0.0035238962 0.008032375 0.0031814675
000110 33 73 80 3c 11 04 52 bc c9 29 81 bb ad ec ea 3b
       0.015679931 -0.012818352 -0.0039417488 0.0071693272
000120 4f ee 1e 3b 10 90 9c 3c 4a 56 e2 3b b6 81 24 bc
       0.002425093 0.019111663 0.006907259 -0.010040691
000130 fd 5c 51 3c 21 5a 9b bc 29 41 e8 bb 43 e9 8c 3c
       0.012778518 -0.018963875 -0.007087846 0.017201072
000140 40 a1 6f bc 70 ca b2 3c 05 fb 3b bc 73 2b 33 bc
       -0.014625847 0.021825045 -0.011473422 -0.010935652
000150 78 1d d3 bb 04 5d 49 3c 54 f3 69 3c d6 6e 7c 3c
       -0.006442722 0.012290243 0.014279205 0.015407285
000160 eb 34 6d 3c 97 97 2c 3c 3b d9 51 3c 62 8a f1 3b
       0.014477949 0.010534189 0.012808139 0.007371233
000170 a3 f1 cd 3a 7e b9 23 3c d9 6b 8d ba 73 e5 4b bc
       0.0015712272 0.009992955 -0.0010789587 -0.012444842
000180 a8 6c 68 bb 87 78 af bb bb 2c 58 bc 65 dd c2 3c
       -0.0035465155 -0.005354944 -0.013194258 0.02378721
000190 47 d6 95 3c 31 ee 80 3c f2 2a ee 3b 83 7a 9e 3b
       0.018290652 0.015738579 0.007268303 0.004836382
0001a0 1c 0a 90 3c 11 de b4 3c a9 f0 02 3c 00 35 d7 bb
       0.017582946 0.022078546 0.007991948 -0.0065675974
0001b0 8a 65 8f bb c2 32 b7 bc 45 c1 45 3c ac 3f 09 bc
       -0.004376118 -0.02236307 0.012070005 -0.008376997
0001c0 00 b6 cc 3b 8c 16 8d bb 85 32 8f 3b 63 e2 ff bb
       0.006247282 -0.0043056663 0.004370036 -0.00780897
0001d0 a2 d6 bf 3b 86 8a 3b 3c 0e 7e c5 bb a0 a5 17 3c
       0.0058544436 0.011446601 -0.00602699 0.009255797
0001e0 ae a3 5c 3c 9f a1 f6 bb 3c 69 c1 3b 5c b9 c4 3a
       0.013466759 -0.007526591 0.0059024375 0.0015008855
0001f0 c8 4f b0 bb 2f a6 39 bb 27 00 d0 bb 2c 7d 9a bb
       -0.0053806044 -0.0028327813 -0.0063476744 -0.0047146287
000200 7f c0 52 bc cb 2a 4a bc e9 d5 84 bb ed 3d 7d bc
       -0.012863277 -0.012339304 -0.0040538204 -0.015456659
000210 56 8f 65 bc f5 fc 18 bc 00 96 48 3c e8 6c ec bb
       -0.014011225 -0.009337653 0.012242794 -0.007215131
000220 62 ab 51 bc 95 f3 be bb b3 05 1f bc ad 18 ae bc
       -0.0127972085 -0.005827377 -0.009705949 -0.021252
000230 f8 55 9c 3b 8d 6c 0a ba f2 26 2f 3a 79 9c 8c 3c
       0.0047709905 -0.00052804576 0.00066815235 0.017164456
000240 d4 4a fb bb 42 9b 9c 3b 33 bf c1 ba 1b bb 68 bc
       -0.0076688323 0.0047792504 -0.0014781713 -0.014204766
000250 ec 3b f6 bb df 3e 47 3b 1d f2 4b 3c 4d 2a dd 3b
       -0.0075144675 0.0030402464 0.012447861 0.0067494274
000260 0b da 04 3b a0 43 24 bb 1b 43 41 3c 69 22 1f bc
       0.0020271565 -0.0025064722 0.011795784 -0.009712794
000270 48 5a f0 3c af cf 2b 3c 13 f3 9c bc 4e a2 0f bc
       0.029339924 0.010486527 -0.019158876 -0.008766724
000280 c2 e7 58 bb 88 b7 ab bb c4 50 06 ba 97 5e a3 3b
       -0.0033097123 -0.0052403845 -0.00051237294 0.004985641
000290 43 e1 88 b9 90 f9 96 bb 16 18 02 3c a6 b9 55 bc
       -0.00026107774 -0.004607387 0.007940313 -0.01304475
0002a0 e1 c3 70 3c 5d d7 34 3b f2 ea cb 3a d4 c6 01 3b
       0.014695139 0.0027594187 0.001555769 0.0019802349
0002b0 bd c3 5c bb 95 f0 67 3c f3 14 aa bb 4a f9 6b bb
       -0.0033686005 0.01415648 -0.0051904856 -0.0036006742
0002c0 4a c3 9c 3b cb 7b a0 bc 9e b2 a6 bb 3f dc ce ba
       0.0047840225 -0.01959028 -0.005087211 -0.0015782191
0002d0 0f e0 f9 bb 99 58 57 ba fa e8 dc 3a c2 3c 25 bb
       -0.007625587 -0.0008214801 0.00168541 -0.0025213216
0002e0 90 3f 77 3c 0f 0b 92 3c 8a 28 7c 3c 28 eb 57 bc
       0.015090838 0.017827539 0.015390525 -0.013178624
0002f0 c6 ee c3 bb 53 04 99 bb dc a7 0d bc 6d 47 0c bc
       -0.0059793917 -0.004669705 -0.008645978 -0.008561951
000300 e8 d2 c6 3b 12 62 67 39 69 ec 76 bc d2 ab 75 bb
       0.0060676225 0.00022066411 -0.015071013 -0.0037486446
000310 2e 97 f2 3a fe 50 c5 3b b4 57 7e 3a a2 f4 ee b7
       0.001850819 0.006021618 0.00097024 -2.8485727e-05
000320 7c 79 f0 3b ae 4c bd bb a9 77 d0 3a e0 a1 7e 3c
       0.007338701 -0.005776963 0.0015904802 0.015541524
000330 f7 ec 81 bb 3b 82 42 3c 4a 0b 9b 3c 92 26 62 3c
       -0.003965016 0.01187187 0.018926281 0.013803141
000340 c6 d8 cd ba 84 1e 01 bd 74 cc 16 3b 8b cd a3 3c
       -0.0015704862 -0.031523243 0.0023010047 0.019995471
000350 4d 51 ad bb 20 7f 1a bc 79 ea 8e bc e3 89 8e 3c
       -0.005289233 -0.009429723 -0.01744579 0.017399734
000360 c8 a7 98 bc ae 5b 76 3a 23 ee 86 ba b6 90 4b bb
       -0.018634692 0.00093978166 -0.0010294359 -0.0031061596
000370 a3 fb c8 3b 02 d0 8d bc df e6 29 3c ce 8b b0 3c
       0.006133513 -0.0173111 0.010369985 0.02155104
000380 40 7b 29 bc ef 5b 5c bc f7 19 e6 bb d1 cb 54 bc
       -0.0103443265 -0.013449653 -0.007022138 -0.012988047
000390 90 e1 7b bc 7c be 13 3b 82 17 44 bb 53 6d f7 3b
       -0.0153736025 0.0022543957 -0.0029921238 0.0075508743
0003a0 35 e5 86 bc d7 cb 04 3c 07 df 14 3c 4b 3d 39 3c
       -0.016466716 0.00810524 0.009086377 0.011306117
0003b0 49 d2 98 3c 5f a3 07 3c 80 0f 71 bc 60 f4 01 bc
       0.01865496 0.008278697 -0.014713168 -0.007931799
0003c0 71 36 1c 3b 73 53 74 3c 41 eb 8a 3b f2 c5 d4 bb
       0.002383616 0.014912474 0.00423947 -0.0064933235
0003d0 fc c9 1e bc 4b ab 30 3a 79 5d 1a bc 62 57 c2 bc
       -0.0096917115 0.0006739392 -0.0094217 -0.023723308
0003e0 f1 55 4d bb 76 5e 25 3c 79 43 d9 3c df 58 3a bc
       -0.0031331743 0.010093322 0.026521431 -0.011373728
0003f0 51 c4 b8 b8 fb 6f 02 3c eb ad 3e 3b 79 88 22 3b
       -8.8103705e-05 0.007961269 0.0029095362 0.0024800582

action_model._discrete_distribution.branches.0.bias f4 [2]
000000 4c b6 e8 bb 4e b6 e8 3b
       -0.0071018096 0.0071018105

action_model._discrete_distribution.branches.1.weight f4 [2, 128]
000000 8f 9d f0 ba 86 ef 3b 3c 2d fe 21 bc f4 d0 be 3b
       -0.0018357503 0.011470681 -0.00988726 0.005823249
000010 21 19 c8 3a be 4b 96 bc 84 68 87 bb 15 34 91 bb
       0.0015266278 -0.018346664 -0.0041323323 -0.0044312575
000020 ee 2c a3 bc 2f eb a0 3c 91 d8 62 3b 15 b4 5f bc
       -0.019918885 0.019643394 0.0034613947 -0.013653775
000030 6d 69 9d 3a 43 af 21 3c 8c c0 42 3c a5 08 d3 3c
       0.0012009569 0.009868446 0.011886727 0.025760958
000040 68 e1 95 3c 2b 2d a1 ba f4 65 a1 3c d6 76 a4 ba
       0.018295959 -0.0012296786 0.019701935 -0.0012547623
000050 3f 86 32 bc af ec 68 3c 11 00 12 bc 75 ca 88 bc
       -0.010896265 0.014216586 -0.008911149 -0.016698102
000060 f6 83 54 bc b4 ff 2c 3c 25 03 43 3c 3f f3 ed bc
       -0.012970915 0.010559011 0.011902605 -0.029046653
000070 5c 70 94 3c 55 c1 b2 bb bd 15 33 bb 97 fa fb ba
       0.018119983 -0.005455176 -0.002732619 -0.0019224462
000080 20 9f df bb b4 c1 cd 3b fa 05 20 3b 9a 8b 18 3c
       -0.006824389 0.0062791947 0.0024417625 0.009310627
000090 df 38 ef bc 10 a3 9f 3c 93 4c f7 bb fe b5 f3 3b
       -0.029201923 0.019486934 -0.00754697 0.0074374666
0000a0 53 97 27 3c 4f 40 6e 3b 37 78 2e bc 93 6c 02 bc
       0.01022895 0.003635425 -0.010648779 -0.007960456
0000b0 82 4b 71 bb 3e da 8d bb fb fa 65 3c d3 a1 55 3c
       -0.0036818688 -0.004328995 0.014036889 0.01303907
0000c0 1f 6d 28 3c dc 8d e3 bc 64 3d a4 ba a2 fd cc bc
       0.010279923 -0.027777605 -0.0012530503 -0.025023285
0000d0 02 69 3e bc 3a 66 eb ba aa 7d 39 bc 90 a8 ec bc
       -0.0116217155 -0.0017959543 -0.011321465 -0.02888897
0000e0 b7 41 84 bc 2b 31 38 bc ff 50 d0 bb c8 2d 9c bb
       -0.016144617 -0.011242191 -0.0063573117 -0.0047661997
0000f0 b9 85 52 3c ba 38 ac bb 6d 03 9f 3b a4 6a 92 3b
       0.012849265 -0.005255786 0.0048527033 0.004468279
000100 ce c0 05 bc 1f 48 4b 3c 7b 07 7c 3c c8 b4 8c 3c
       -0.008163644 0.012407332 0.015382643 0.017176047
000110 4d 6d 88 bc 5a c4 8e bb f2 ea d2 ba cc 7d 49 bb
       -0.016653681 -0.004356903 -0.0016091748 -0.0030745147
000120 58 08 3a 3c 1e 2b 5d bc f8 26 8f bc 88 0f d8 bc
       0.011354528 -0.0134990495 -0.017474636 -0.026374593
000130 e9 dc 80 3b ff f0 3a 3c 36 22 c7 3b f3 e7 dd 3b
       0.0039325845 0.011409997 0.0060770763 0.0067720353
000140 dc eb 4d bc 45 cb e0 bb e0 73 88 bc 8e 54 9d bc
       -0.01256844 -0.006860169 -0.016656816 -0.019205358
000150 7b 41 a6 3a ab 61 7e 3c ff 00 5e bc 74 e3 9b 3a
       0.001268431 0.015526216 -0.013550042 0.0011893348
000160 5d f2 8d b9 bd 82 00 bc 98 ef 5c 3c 34 63 e2 3c
       -0.0002707419 -0.00784367 0.013484858 0.027635194
000170 43 d3 ac 3b 9b a4 89 bc 85 2a 30 bc f2 13 ac 3b
       0.005274208 -0.016802123 -0.010752325 0.005251401
000180 41 c7 92 3c c8 72 7d 3b a3 73 22 3c 4c 9e 58 bc
       0.017917277 0.0038673151 0.009915265 -0.013221335
000190 5f b0 57 3b 82 94 00 3b fd 03 85 3c 60 6a 07 bc
       0.0032911522 0.0019619768 0.016237253 -0.008265108
0001a0 fe 29 fc 3a a2 96 e7 bb 92 a6 a8 3b 6f 69 6b 3b
       0.0019238589 -0.0070675174 0.00514681 0.0035920998
0001b0 a9 67 45 3b 6a 4e c3 3c 9c 15 2d 3b 18 d2 91 bc
       0.00301216 0.023841102 0.0026410585 -0.017800376
0001c0 6a 41 0b bc 07 20 15 bc 1b a6 3a 3c b8 3c e6 3b
       -0.008499483 -0.009101874 0.011392142 0.007026281
0001d0 b0 52 4c 3c 6a 72 0b 3c af 24 3e bc 05 a6 30 bb
       0.012470886 0.008511165 -0.011605426 -0.0026954424
0001e0 f6 89 84 bb 5f 01 f1 bb 02 f6 1f ba 4d 7e c7 3b
       -0.0040447665 -0.0073549 -0.00061020267 0.0060880543
0001f0 19 5b 3a 3b ab 33 13 bc c3 d1 8e bc 6d 5b e3 3b
       0.0028435646 -0.008984487 -0.017434007 0.006938389
000200 d5 cf 90 3b ac cc b0 3b 05 b1 85 3c 80 83 5f bc
       0.0044193068 0.0053954925 0.016319761 -0.013642192
000210 60 45 10 bc b6 e4 9c 3c 3d 37 d8 3b c0 43 61 bb
       -0.008805603 0.019152027 0.006598382 -0.0034372658
000220 fb 16 8b 3b a6 55 b0 3b 88 92 07 3c e2 a9 f5 3b
       0.004244683 0.005381304 0.008274682 0.0074970583
000230 83 4a 91 bb a2 d1 3c 3b ec 48 cb bb 64 41 14 bc
       -0.0044339313 0.0028811474 -0.0062037613 -0.009048793
000240 18 76 1b bc 1b ad 05 bb a6 73 36 39 fc a2 79 3b
       -0.009488605 -0.0020397368 0.00017399955 0.003809153
000250 93 59 54 3c 1c b5 aa bb e4 35 ab 3b 97 8e ef 3b
       0.012960809 -0.005209578 0.00522493 0.007310699
000260 78 60 3a 3c 94 43 6a bc 1a 0a 4d bc 87 b3 07 3d
       0.011375539 -0.014298338 -0.012514615 0.033130195
000270 bc 5a 98 bb 74 18 8b 3b b1 76 18 bc c0 d7 ee b9
       -0.0046494883 0.0042448584 -0.009305642 -0.00045555644
000280 1f ff ba 3a b8 66 e1 bb 98 0f a8 3b 4b 57 04 bc
       0.0014266706 -0.0068787 0.005128812 -0.008077453
000290 fc ca a1 3c 2b 44 a0 b9 0e 5d 05 3c be f8 7d 3c
       0.01975011 -0.00030568367 0.008139862 0.015501199
0002a0 bb d1 9e bc 47 ad ed 3b 22 33 e0 bb 01 b1 4b bb
       -0.019387117 0.0072533223 -0.006842033 -0.0031080844
0002b0 0d f0 8d bb 4e 63 ff 3b 88 a9 7d bc 50 d9 33 bb
       -0.004331595 0.0077938205 -0.015482314 -0.002744276
0002c0 a6 94 0e 3b 75 26 e0 3c 06 30 d8 3b e7 56 b7 3c
       0.0021756082 0.027362088 0.0065975217 0.022380305
0002d0 2f eb 0c bc 85 7e b7 bb 4f 52 e1 3a 61 fc 48 3c
       -0.008600994 -0.005599799 0.0017190668 0.012267203
0002e0 19 02 bf 3c e7 b3 40 bc ea 8c 4c 3b 05 56 69 bc
       0.02331643 -0.011761642 0.003121192 -0.0142417
0002f0 83 cc 74 bc 48 a0 67 3c a9 e4 1c bc f9 19 cd bb
       -0.0149413375 0.014137335 -0.009576001 -0.0062591997
000300 3c 1b d0 3b bf 7e 9b ba 05 f1 82 bc 21 4f 2e bc
       0.006350903 -0.0011863335 -0.015984068 -0.010638983
000310 94 8e f8 b8 f4 c3 41 3b 92 af 0a bc 14 45 1d bc
       -0.00011852119 0.002956626 -0.008464711 -0.009598989
000320 6c b4 56 bb 5e a5 00 3c 26 1b 2c bb db 3c 80 3c
       -0.0032761348 0.007851927 -0.00262613 0.015654018
000330 d7 5b 85 bb 37 7d a6 bc e4 84 43 38 cc fe 8f bb
       -0.004069786 -0.020323379 4.6615387e-05 -0.004394388
000340 b0 5b 88 bb fe de ee ba a5 42 eb 3c cf 5b 1e bb
       -0.0041613206 -0.0018224416 0.028718302 -0.002416361
000350 be d3 3d 3b 1d ba 32 bc f2 21 82 3b 9e 4d f6 bb
       0.002896532 -0.010908631 0.0039713318 -0.007516577
000360 ac 12 a9 bb b8 bf 68 3b 60 8d 39 bc 2e 53 cf 3b
       -0.0051596966 0.0035514664 -0.01132521 0.0063270545
000370 86 25 83 bc 74 e3 af 3c 53 8f 45 3c c3 8e 4c bc
       -0.016009104 0.021470763 0.012058097 -0.012485209
000380 73 a1 fe ba 54 0a 30 3c f7 e3 9e bb 8e 2c 25 3c
       -0.0019426778 0.01074465 -0.004848953 0.010081423
000390 21 2a 33 3c ca e6 ff bb 37 1e 17 bc 6e cd 82 3c
       0.010935337 -0.0078094946 -0.009223512 0.015967097
0003a0 8e 00 e2 bb 8c ff 83 bb 0e 77 3e bc e4 97 1c 3b
       -0.006897039 -0.0040282663 -0.011625065 0.0023894245
0003b0 78 a4 8d 3c 47 74 c5 3c 9e 98 ac bc 28 cf 8f bb
       0.017290339 0.024103297 -0.021068867 -0.0043887086
0003c0 a0 55 ac bc 68 13 2a bb 28 88 4e 3c 89 d6 24 bc
       -0.021036923 -0.0025951508 0.012605704 -0.010060915
0003d0 d0 ff 98 bb db 7e 28 3b 90 27 4a 3a ac cc 6e 39
       -0.004669167 0.0025710377 0.0007711584 0.00022773695
0003e0 4a e2 39 3b a7 c7 5e 3c 6a 5a 11 bc ce 7e 22 3a
       0.0028363639 0.0135974055 -0.008871654 0.0006198705
0003f0 2b 4f f0 3a 99 82 7f bb b8 2a be 3c fb 53 a8 3b
       0.0018334141 -0.0038987754 0.02321373 0.0051369644

action_model._discrete_distribution.branches.1.bias f4 [2]
000000 cc 34 56 3b cf 34 56 bb
       0.0032685278 -0.0032685285
